best_model.pt (torch, 18210 bytes, 13 tensors)

fc.0.weight f4 [64, 10]
0	0x3f0a8026	0.5410179
1	0xbc4aa7f8	-0.012369148
2	0x3df28e47	0.118435435
3	0xbf7c205b	-0.9848687
4	0xbb3408bc	-0.0027471026
5	0x3beb8396	0.007187317
6	0xbef08674	-0.4697758
7	0xbe4fc498	-0.20289838
8	0xbf202b94	-0.62566495
9	0x3eee1b9e	0.46505445
10	0x3eb1d855	0.3473536
11	0xbf2f3d1a	-0.6845261
12	0x3e344b9d	0.17606969
13	0xbf03900c	-0.51391673
14	0x3fb7fec7	1.4374627
15	0x3e9d6550	0.30741358
16	0xbe875850	-0.26434565
17	0x3ea28f26	0.3174984
18	0x3e04a03d	0.12951751
19	0xbf04582c	-0.5169704
20	0xbe005345	-0.12531765
21	0xbe9bb56e	-0.30411857
22	0xbec8a5a0	-0.39188862
23	0xbf28c87f	-0.6593093
24	0x3f3a81ca	0.7285429
25	0xbe85f4a2	-0.26163203
26	0xbdfc83d0	-0.12329829
27	0xbf44aa0a	-0.7682196
28	0xbe9709be	-0.2949962
29	0x3f5cc020	0.8623066
30	0x3ec45edb	0.3835362
31	0x3e9ff5cf	0.31242225
32	0x3dcd46f2	0.10023297
33	0xbc2f5abf	-0.010702788
34	0xbf394775	-0.7237466
35	0x3e2b78bc	0.16745275
36	0x3e567e01	0.20946504
37	0x3ec4ad51	0.3841348
38	0x3edd33d7	0.43203613
39	0xbfac872e	-1.3478754
40	0xbea9ea13	-0.33186397
41	0xbd1d4317	-0.03839406
42	0x3e495763	0.19662242
43	0x3d859f69	0.06524546
44	0xbf380dec	-0.71896243
45	0xbd9294a2	-0.07157256
46	0x3e3a5545	0.1819659
47	0xbddcf58d	-0.107890226
48	0x3e3ff9cd	0.18747635
49	0x3e8db5ca	0.27677757
50	0xbe940c2d	-0.2891554
51	0x3f15cf10	0.5851908
52	0xbd1c71a7	-0.038194325
53	0xbfbda734	-1.4816651
54	0x3f6d7c77	0.92768043
55	0xbf0cf155	-0.55055743
56	0xbe91b9ab	-0.28461966
57	0xbe01d90b	-0.12680452
58	0x3d056d4b	0.032574933
59	0x3dcfd1be	0.10147427
60	0x3f1332f3	0.5749962
61	0x3e02f868	0.12790072
62	0x3d42f724	0.047598973
63	0xbef411c3	-0.476698
64	0x3e9f6349	0.31130436
65	0x3ee4d1bb	0.44691262
66	0xbd4dbb06	-0.050227188
67	0xbf04dc70	-0.5189886
68	0xbe0702c1	-0.13184644
69	0x3f2c282c	0.672488
70	0x3efaaa76	0.48958176
71	0xbd8cd223	-0.06876018
72	0xbe95adc8	-0.29234147
73	0xbf56d794	-0.83922696
74	0x3e47099a	0.19437256
75	0x3d43b9bc	0.047784552
76	0xbe0277c2	-0.12740996
77	0xbf26292a	-0.6490656
78	0xbeb9ad08	-0.36264825
79	0x3f4c20df	0.7973766
80	0xbf082a73	-0.5318977
81	0x3e874b46	0.26424617
82	0x3dc9efed	0.09860215
83	0x3f70c2a9	0.9404703
84	0xbf2bf43e	-0.6716956
85	0x3d1ea0cc	0.038727567
86	0x3d2d6676	0.042334042
87	0xbe95eab6	-0.29280633
88	0xbf1c6fde	-0.61108196
89	0x3f08be76	0.5341562
90	0x3f30dfcc	0.69091487
91	0xbd424b22	-0.047434933
92	0xbd8209e9	-0.063495465
93	0xbf826af8	-1.0188894
94	0x3f89da98	1.0769835
95	0x3ea0e8d4	0.31427634
96	0xbe475f67	-0.19469987
97	0x3cdf8fb5	0.027290205
98	0xbe781b5e	-0.2422919
99	0x3dfc5c7f	0.1232233
100	0xbe6de0f8	-0.2323035
101	0x3e9d0866	0.3067047
102	0xbdcc060e	-0.09962092
103	0x3f6c2e15	0.92257816
104	0xbf8ed116	-1.1157558
105	0xbd9a35d1	-0.07529796
106	0x3e67d185	0.22638519
107	0x3d7f28f7	0.062294926
108	0x3de65e10	0.1124841
109	0xbea3c6aa	-0.31987506
110	0x3ed360d1	0.41284803
111	0x3f11a444	0.56891274
112	0x3e7bd37b	0.24592392
113	0xbf91b4fc	-1.1383357
114	0x3f9b63b3	1.2139801
115	0x3efef657	0.49797317
116	0xbf1fc0f1	-0.6240378
117	0xbea76b7d	-0.32699195
118	0xbcc39501	-0.023874762
119	0x3e183180	0.14862633
120	0xbe44f177	-0.19232737
121	0xbefad452	-0.48990113
122	0xbe0dd63a	-0.13851252
123	0xbe84c75d	-0.25933352
124	0x3fb65c2d	1.424688
125	0x3e20842a	0.15675417
126	0xbec45059	-0.3834255
127	0x3e2fac09	0.1715547
128	0x3e83aef8	0.25719428
129	0xbf3c1c65	-0.73480827
130	0x3ef23153	0.47303256
131	0xbe2b045f	-0.16700886
132	0xbdc9ff0f	-0.09863102
133	0xbf9e82ff	-1.2383727
134	0x3f7b0610	0.98056126
135	0x3ecb813c	0.39747036
136	0xbeba3547	-0.36368772
137	0x3e8dbb87	0.27682135
138	0x3eba961d	0.36442652
139	0xbf67dcf0	-0.905715
140	0xbf19bd8c	-0.6005485
141	0x3e9ff02d	0.31237927
142	0xbe3c6627	-0.18398343
143	0xbf45045b	-0.7695977
144	0x3f848e27	1.0355881
145	0xbef877d0	-0.4852891
146	0xbed1aaef	-0.40950724
147	0x3bcde1a0	0.006283
148	0xbdf57dd8	-0.119868934
149	0xbec35d9f	-0.38157365
150	0xbec83e03	-0.3910981
151	0x3eb6fe0b	0.35740694
152	0x3e2f90d9	0.17145099
153	0x3d926b20	0.07149339
154	0x3ed03331	0.40664056
155	0x3ebdfacc	0.37105405
156	0xbddf0b67	-0.10890847
157	0x3e713a79	0.23557462
158	0x3e44bda3	0.19212966
159	0xbf978c29	-1.1839648
160	0x3e3bc7a5	0.18337877
161	0xbe2d0fda	-0.16900578
162	0xbdf0ded5	-0.11761252
163	0xbf8fcc8a	-1.1234295
164	0x3f163b90	0.58684635
165	0x3ea854a6	0.32877082
166	0xbe89fdc1	-0.2695141
167	0x3ece139d	0.4024934
168	0x3e298a17	0.16556583
169	0xbf5c934a	-0.86162245
170	0xbda4ac3f	-0.08040666
171	0x3e76f1fe	0.2411575
172	0xbe624065	-0.22094877
173	0x3eb410c2	0.35169035
174	0x3f6757f0	0.90368557
175	0x3ed5a312	0.41725975
176	0xbf02a184	-0.51027703
177	0x3e8ac947	0.27106687
178	0xbe546a16	-0.20743594
179	0xbea3b266	-0.31972045
180	0x3e35e94a	0.17764774
181	0x3ee31ee9	0.4435952
182	0x3e5f78e1	0.21823455
183	0xbf73f0b5	-0.95289165
184	0x3ebef507	0.37296316
185	0x3d8ae200	0.06781387
186	0xbf27b27b	-0.65506715
187	0xbf1cc185	-0.6123279
188	0xbedb3b2d	-0.42818585
189	0x3f626d75	0.8844827
190	0x3e005be3	0.12535052
191	0x3f29a048	0.66260195
192	0x3c388210	0.011261478
193	0xbfc9eb2d	-1.5774895
194	0x3e6f1e18	0.23351324
195	0xbe77cc05	-0.24198921
196	0xbe584e55	-0.21123631
197	0xbd9fd382	-0.07804014
198	0xbefab8c4	-0.4896909
199	0x3db6739d	0.0890877
200	0xbe053873	-0.13009815
201	0xbec360a5	-0.3815967
202	0xbcf69e7a	-0.030104864
203	0xbf6b3146	-0.9187206
204	0x3eda6349	0.42653874
205	0x3ea1061e	0.3144998
206	0xbcbcb5d4	-0.023035921
207	0x3ec9af23	0.3939143
208	0xbf5ec106	-0.8701328
209	0x3f0bd323	0.54619044
210	0xbf1111e1	-0.56667906
211	0xbf808d57	-1.0043133
212	0x3e31ae4b	0.17351644
213	0x3cf371a0	0.029717267
214	0x3f2585ab	0.64657086
215	0x3e23a364	0.15980297
216	0xbcfa6346	-0.030564915
217	0x3d84cd38	0.06484455
218	0x3eb81bcb	0.35958704
219	0x3e2bd93b	0.16782086
220	0x3e9bd956	0.30439252
221	0x3e646785	0.22305115
222	0x3f084654	0.5323231
223	0xbf3037a8	-0.68834925
224	0xbdcbde35	-0.09954492
225	0xbd911b83	-0.070853256
226	0xbee5ee97	-0.44908592
227	0x3e826b81	0.25472644
228	0x3f121634	0.5706513
229	0xbf8d7a1d	-1.1052891
230	0x3e182c8c	0.14860743
231	0x3dc14415	0.09436814
232	0xbe626489	-0.22108664
233	0xbec90c95	-0.39267412
234	0x3e81da75	0.25361982
235	0x3dfc674c	0.1232439
236	0xbea42cda	-0.3206547
237	0xbf442fc6	-0.76635396
238	0xbf2116e7	-0.6292557
239	0x3f8755a5	1.0573012
240	0x3f215452	0.6301929
241	0x3e4f1686	0.20223436
242	0x3d7e180f	0.062034663
243	0xbf8c4d70	-1.0961132
244	0x3f2cef83	0.67552966
245	0x3ebc8ad0	0.36824656
246	0xbe0d169e	-0.13778159
247	0xbe4efab8	-0.20212829
248	0xbe3068ee	-0.17227527
249	0x3dd23b9d	0.102652766
250	0x3e8c3d45	0.27390495
251	0x3f1c7973	0.61122817
252	0x3cb4519f	0.022011576
253	0xbfa120c5	-1.2588125
254	0xbe3553bb	-0.17707722
255	0x3dd644eb	0.10462364

fc.0.bias f4 [64]
0	0xbf48b0b3	-0.7839462
1	0x3f76edd9	0.96456677
2	0x3dfe55a6	0.1241868
3	0x3cefbd47	0.02926506
4	0xbe8bd298	-0.27309108
5	0x3eb477e6	0.35247725
6	0x3ef6bec8	0.4819243
7	0x3e59e165	0.21277387
8	0x3c95513a	0.018227208
9	0x3c78a69b	0.015176441
10	0xbebd88e7	-0.3701851
11	0x3e86c3e1	0.2632132
12	0xbe10659b	-0.1410126
13	0x3de971f6	0.113986894
14	0xbd3cc50b	-0.046086352
15	0xbe38c191	-0.1804259
16	0xbea0f5e3	-0.31437597
17	0x3e276303	0.16346364
18	0xbe2dfa16	-0.16989931
19	0xbf14d07b	-0.58130616
20	0x3ecf46df	0.40483758
21	0x3dbbe736	0.09174959
22	0xbe8d0424	-0.27542222
23	0x3daf8821	0.085708864
24	0xbcbe70e3	-0.023247188
25	0xbf3821de	-0.7192668
26	0xbe5ebe5e	-0.21752307
27	0x3ecc34e2	0.39884096
28	0xbe80b357	-0.25136825
29	0x3f4ba1b6	0.79543626
30	0x3da94350	0.08264792
31	0x3e9453e5	0.28970256
32	0xbe43b0e7	-0.19110452
33	0x3ead3e9d	0.33836833
34	0x3f46980a	0.77575743
35	0x3f313b6b	0.6923129
36	0x3ec632fd	0.38710776
37	0x3e8554f7	0.26041386
38	0xbce77624	-0.028254576
39	0xbf41c2ff	-0.75688165
40	0xbe495413	-0.19660978
41	0x3ec4bc95	0.38425127
42	0x3b1d3f6f	0.0023994108
43	0xbe6e6c74	-0.23283559
44	0x3eb2706e	0.34851402
45	0x3e18c4a0	0.14918756
46	0x3e6094d7	0.21931778
47	0x3d0193d8	0.031635135
48	0x3e904f7c	0.28185642
49	0xbe8932b4	-0.26796496
50	0xbef6be83	-0.48192224
51	0xbf30aabb	-0.69010514
52	0x3e7fc8be	0.24978921
53	0xbef1bdfd	-0.47215262
54	0x3e25733e	0.16157243
55	0x3f3c2432	0.7349273
56	0x3e7825f1	0.24233223
57	0x3e46021a	0.19336739
58	0x3efe07d5	0.4961535
59	0xbdeeee5a	-0.11666556
60	0xbe830ae9	-0.2559426
61	0x3ea13083	0.31482324
62	0xbe65bfb5	-0.22436412
63	0x3e93b85e	0.28851599

fc.1.weight f4 [64]
0	0x3f99428c	1.1973433
1	0x3f6e475a	0.93077624
2	0x3fae0ada	1.3597062
3	0x3fc99da6	1.5751235
4	0x3ed6c6f8	0.41948676
5	0x3fc9f000	1.5776367
6	0x3fb66fab	1.4252828
7	0x3fc71c07	1.5555428
8	0x3fb3db37	1.4051274
9	0x3f9222cf	1.1416873
10	0x3fb13e9b	1.3847231
11	0x3f54170f	0.82847685
12	0x3f9023b9	1.1260902
13	0x3fb24c6e	1.3929574
14	0x3fd26839	1.6438056
15	0x3f85029d	1.0391423
16	0x3f274808	0.65344286
17	0x3f2c4956	0.672994
18	0x3fc289f2	1.5198348
19	0x3fc2f6f3	1.5231613
20	0x3f664f98	0.899652
21	0x3f786b5f	0.97038835
22	0x3fac76c3	1.3473743
23	0x3fc8d113	1.5688804
24	0x3f716b74	0.94304585
25	0x3fc8a89c	1.5676455
26	0x3f8543ae	1.0411279
27	0x3f845a39	1.0340034
28	0x3fa29c38	1.2703924
29	0x3fced5d4	1.6159005
30	0x3fa23bc8	1.2674494
31	0x3f94466e	1.1583993
32	0x3f58ea34	0.84732366
33	0x3fd1c5f9	1.6388541
34	0x3fa674c0	1.3004379
35	0x3f825195	1.0181147
36	0x3fb60cd6	1.4222667
37	0x3f7d1fb5	0.98876506
38	0x3f270556	0.65242517
39	0x3f88c47c	1.0684962
40	0x3f5f8c43	0.873234
41	0x3f5b9f5d	0.85790044
42	0x3f9b816c	1.2148871
43	0x3f8b5feb	1.0888647
44	0x3facd847	1.3503503
45	0x3f782c40	0.9694252
46	0x3f4c1f15	0.7973493
47	0x3f16d918	0.5892501
48	0x3fbea891	1.4895192
49	0x3f1141d7	0.5674109
50	0x3fa0f9ee	1.2576272
51	0x3fa38a37	1.2776555
52	0x3f6bb304	0.9207003
53	0x3f5b1904	0.85585046
54	0x3f04e536	0.5191225
55	0x3fac870b	1.3478712
56	0x3f96a705	1.176972
57	0x3faff146	1.3745506
58	0x3f691118	0.9104171
59	0x3fb33c4f	1.400278
60	0x3f9755ea	1.1823094
61	0x3f6e040f	0.9297494
62	0x3fab42aa	1.3379719
63	0x3f95f044	1.1713948

fc.1.bias f4 [64]
0	0x3e5ffb73	0.21873264
1	0x3f1caf61	0.61205107
2	0xbeb16f89	-0.34655407
3	0x3ee0f9ea	0.4394067
4	0xbecec423	-0.40384015
5	0xbdc2fe65	-0.09521178
6	0x3ef56688	0.47929788
7	0xbf3f79e6	-0.7479538
8	0xbea66811	-0.3250127
9	0x3eb32a9d	0.3499345
10	0xbe9df744	-0.3085271
11	0x3f0e9bfb	0.5570676
12	0x3ec658eb	0.38739714
13	0x3e8e1ee8	0.27757955
14	0xbe2b5961	-0.16733314
15	0x3e9801ad	0.2968878
16	0x3f373cb1	0.7157698
17	0xbeeb404a	-0.45947486
18	0xbf3a4b2f	-0.7277097
19	0xbe2629d0	-0.16226888
20	0x3e59727b	0.21235077
21	0xbf60b5b1	-0.8777724
22	0x3e9b50f4	0.303352
23	0xbf305252	-0.6887561
24	0x3f05b3fe	0.5222777
25	0x3ec19e7d	0.3781623
26	0xbf73b87d	-0.9520338
27	0xbf068006	-0.525391
28	0xbf1fab1e	-0.6237048
29	0xbf17ff43	-0.59373873
30	0xbf958135	-1.1680056
31	0x3eb72a60	0.35774517
32	0x3e7efc20	0.24900866
33	0x3c9d8f2a	0.019233305
34	0x3ea2d524	0.31803238
35	0xbe4bb614	-0.19893676
36	0xbdb15fd7	-0.08660858
37	0xbe6fe28e	-0.23426268
38	0xbf23fbbc	-0.6405599
39	0x3ecd7304	0.40126812
40	0x3e0af2ca	0.13569179
41	0x3d8aeb98	0.06783217
42	0x3ea5c634	0.3237778
43	0x3dcdfdc6	0.10058169
44	0x3f338319	0.70121914
45	0x3dbf6328	0.093450844
46	0x3f1441c5	0.57912856
47	0x3e33c99b	0.17557375
48	0xbe276171	-0.16345765
49	0xbebb46e1	-0.36577514
50	0x3e7b508a	0.24542442
51	0x3f2409c3	0.64077395
52	0xbf04f9a4	-0.5194342
53	0x3ebc55f0	0.36784315
54	0x3e30383b	0.1720895
55	0x3e4e355f	0.20137547
56	0x3d239a3c	0.03994201
57	0xbe5a1d93	-0.21300344
58	0xbdbf41b0	-0.09338701
59	0xbe06f4be	-0.13179299
60	0xbee1a2be	-0.44069475
61	0x3de7dc74	0.11321345
62	0xbeb0f4a1	-0.34561637
63	0x3e2938c2	0.16525558

fc.1.running_mean f4 [64]
0	0xbf602886	-0.87561834
1	0x3f6aa52a	0.9165827
2	0x3d51b918	0.05120191
3	0xbe214a51	-0.15751006
4	0xbe0ded37	-0.13860022
5	0x3eb5061e	0.3535623
6	0x3ef110f5	0.4708325
7	0x3e050b63	0.12992625
8	0xbd6d9c30	-0.05801028
9	0xbc3ce0c8	-0.011528201
10	0xbed660f9	-0.4187086
11	0x3e154fca	0.14581218
12	0xbe8b98d6	-0.27265042
13	0xba8ade10	-0.0010594744
14	0xbe49e86a	-0.19717565
15	0xbeea64f8	-0.45780158
16	0xbed2897c	-0.41120517
17	0x3d53ace7	0.051678564
18	0xbe643dec	-0.22289246
19	0xbf370e86	-0.71506536
20	0x3ef726c7	0.48271772
21	0x3e8f564b	0.27995524
22	0xbec9e09e	-0.39429182
23	0xbd0c7f7c	-0.034301266
24	0xbe04f82a	-0.12985292
25	0xbf31f792	-0.6951839
26	0xbd941193	-0.072299145
27	0x3f1664de	0.5874766
28	0xbe8403b9	-0.2578409
29	0x3f4f6c19	0.8102432
30	0x3d9031f5	0.070407785
31	0x3e9423d2	0.2893358
32	0xbec6b7b6	-0.38812035
33	0x3dd26034	0.102722555
34	0x3f6c3110	0.92262363
35	0x3f5b1ee0	0.85593987
36	0x3e64bdfe	0.22338101
37	0x3ea5ae3a	0.32359487
38	0xbe17b686	-0.14815721
39	0xbf353a16	-0.7079176
40	0xbeb2a3d4	-0.34890616
41	0x3eb03acb	0.34419855
42	0xbe48a035	-0.19592364
43	0xbe1aaf3d	-0.1510591
44	0x3e4296c9	0.19002832
45	0x3e02e33e	0.12781999
46	0x3e202e61	0.15642692
47	0x3cadfb44	0.021237977
48	0x3e9f3273	0.31093177
49	0xbdb44017	-0.08801287
50	0xbeddc733	-0.4331604
51	0xbf3d1b1f	-0.7386951
52	0x3d629ac4	0.055323377
53	0xbf507c61	-0.8143979
54	0x3d8f355e	0.06992601
55	0x3f33dffd	0.70263654
56	0x3d714383	0.058902275
57	0x3e773a66	0.24143371
58	0x3eef8dda	0.46787912
59	0xbe9f6de3	-0.31138524
60	0xbea42f4d	-0.32067338
61	0x3eaf3a46	0.34224147
62	0xbdd6805c	-0.10473701
63	0x3dae298d	0.08504019

fc.1.running_var f4 [64]
0	0x3fa8eb3b	1.3196787
1	0x3f7d8932	0.9903747
2	0x4022ded8	2.5448513
3	0x3fb081cd	1.3789612
4	0x3f21800d	0.63086015
5	0x3fc79616	1.5592678
6	0x3f20e53d	0.6284979
7	0x3fab2af4	1.3372483
8	0x3e87ef88	0.26549935
9	0x3f05504d	0.52075654
10	0x3e07bf4d	0.13256569
11	0x3fbfa676	1.4972675
12	0x3efd1ae1	0.4943457
13	0x3ec568f6	0.3855664
14	0x3f4bccc9	0.7960935
15	0x3fdc10e2	1.7192652
16	0x3ec99ce7	0.3937752
17	0x3fb72877	1.4309224
18	0x3f843e4e	1.0331514
19	0x3fb465c0	1.4093552
20	0x3f9f2a9f	1.2434882
21	0x3ec81628	0.39079404
22	0x3f156226	0.5835289
23	0x3f9a3e6f	1.2050303
24	0x3eb7c0e0	0.3588934
25	0x3f2b8995	0.6700681
26	0x3f650fb8	0.8947711
27	0x3e693691	0.22774722
28	0x40436236	3.0528693
29	0x3f18aa68	0.5963502
30	0x3fd38c22	1.652714
31	0x3f2dc3a8	0.6787667
32	0x3ee8d8fc	0.45478046
33	0x3f1c9101	0.6115876
34	0x3e1f273c	0.1554231
35	0x3eaf6b69	0.34261635
36	0x3f5325ce	0.8247956
37	0x3f2045de	0.6260661
38	0x3fcc689f	1.5969428
39	0x3eace796	0.33770436
40	0x3eca7d3f	0.3954868
41	0x3edf6309	0.43630245
42	0x3fd991cc	1.6997619
43	0x3e5ac0ad	0.21362562
44	0x3ebb9339	0.3663576
45	0x3f80581f	1.0026892
46	0x3ecb9b03	0.39766702
47	0x3efc5b44	0.4928838
48	0x3ee673de	0.45010275
49	0x3fbb86bf	1.4650496
50	0x3e9d63b0	0.30740118
51	0x3ef30558	0.47465014
52	0x3ec0055f	0.37504098
53	0x3f1bbff9	0.608398
54	0x3ffa3c90	1.9549732
55	0x3fc30f14	1.5238976
56	0x3ee38ccd	0.4444336
57	0x4004a516	2.072576
58	0x3e62f2c2	0.22162917
59	0x3f2c20be	0.6723746
60	0x3f29c35e	0.6631373
61	0x400efac6	2.234056
62	0x40699d0a	3.65021
63	0x3f1139aa	0.56728613

fc.4.weight f4 [32, 64]
0	0xbecd4396	-0.40090626
1	0x3df2faf0	0.11864269
2	0xbf4894b4	-0.783519
3	0x3f42f44d	0.76154023
4	0x3e16160c	0.14656848
5	0xbec85f70	-0.39135313
6	0xbee7f870	-0.4530673
7	0xbfa6f7ff	-1.3044432
8	0xbe92a57b	-0.28641877
9	0xbe2fd212	-0.17169979
10	0x3f38e0f5	0.7221826
11	0xbe20fe0f	-0.15721916
12	0x3e947ec2	0.2900296
13	0x3e5a0844	0.21292216
14	0x3d265b3e	0.04061436
15	0x3ed8b66e	0.42326683
16	0x3e020e25	0.12700708
17	0x3eaa811d	0.3330163
18	0xbf8d0447	-1.101693
19	0xbdb6efd3	-0.089324616
20	0xbee2e844	-0.4431783
21	0xbe8ff9cb	-0.28120264
22	0x3f006a19	0.5016189
23	0xbf8fcd83	-1.1234592
24	0xbe9c4adb	-0.3052586
25	0xbe72008f	-0.23633026
26	0xbe878b01	-0.2647324
27	0x3e281ee6	0.16418037
28	0xbf05ab95	-0.5221494
29	0xbf51c586	-0.8194202
30	0xbf2df265	-0.6794799
31	0x3e34f0e4	0.17670017
32	0x3e0463f2	0.12928751
33	0x3ea854e7	0.32877275
34	0x3d6fa35f	0.058505412
35	0xbdbd8ac9	-0.09254987
36	0x3e35d6aa	0.17757669
37	0x3d5af688	0.053457767
38	0x3ce57075	0.028007725
39	0xbe1dda85	-0.1541539
40	0x3ee6acf6	0.45053834
41	0x3e954f2b	0.29161963
42	0x3ed2f1e3	0.4120017
43	0xbe2cbbaa	-0.16868463
44	0xbdcf822b	-0.101322494
45	0x3e8a4079	0.27002314
46	0x3f0a2a7f	0.53971094
47	0x3eddac5a	0.43295556
48	0xbed6c4da	-0.4194706
49	0x3e197b81	0.14988519
50	0xbec6c3de	-0.3882131
51	0x3ead295f	0.33820626
52	0x3e9a0fb0	0.30090094
53	0x3f101955	0.56288654
54	0x3d6cfc3a	0.05785773
55	0xbbf2b4e0	-0.007406816
56	0x3c8a412b	0.016876778
57	0xbb6e46ca	-0.0036358112
58	0xbdeb89c3	-0.11500885
59	0xbd0144a5	-0.031559605
60	0xbd97de39	-0.074154325
61	0xbf1a5f89	-0.60302025
62	0xbf248621	-0.64267164
63	0x3e20ebd8	0.15714967
64	0xbde47dd3	-0.111568116
65	0xbb0add9c	-0.0021189218
66	0x3c9bad34	0.019003488
67	0xbf10aadb	-0.56510705
68	0x3b24d356	0.002515038
69	0xbd37d0a5	-0.044876713
70	0x3f22e495	0.6363004
71	0x3e0d8388	0.13819706
72	0x3f1c1efd	0.60984784
73	0xbd8ed9e9	-0.06975157
74	0xbeb17e62	-0.34666735
75	0xbdce54ff	-0.100748055
76	0xbcbbd134	-0.022926904
77	0xbeb483ef	-0.35256907
78	0xbece900b	-0.4034427
79	0xbe71d44a	-0.23616138
80	0xbf085138	-0.5324893
81	0x3e162cab	0.14665477
82	0x3e69a7da	0.22817937
83	0xbeb1ba80	-0.347126
84	0x3d6c89e6	0.057748698
85	0x3d2fa538	0.042882174
86	0xbf8e0ab7	-1.109702
87	0x3eb36a90	0.35042238
88	0x3d6f2873	0.058388185
89	0xbf6ec534	-0.9326966
90	0xbea9554b	-0.33072886
91	0x3e2a4217	0.16626774
92	0x3e7d4afd	0.24735637
93	0x3d4780e8	0.04870692
94	0x3cae3a32	0.021267984
95	0xbebe1511	-0.37125447
96	0xbee0c8d8	-0.43903232
97	0xbeacec5b	-0.33774075
98	0xbed612e3	-0.41811284
99	0xbc2d4694	-0.010575909
100	0xbed7b4b9	-0.42130068
101	0x3d4d67b3	0.050147723
102	0x3ee64fea	0.44982845
103	0xbe72d8f9	-0.23715581
104	0x3e1c268e	0.15249082
105	0xbd3dcd2d	-0.04633825
106	0xbe947156	-0.28992718
107	0x3e21d70c	0.1580469
108	0xbf1c0662	-0.6094724
109	0xbe21cf8d	-0.1580183
110	0xbf28ccfc	-0.6593778
111	0xbe141828	-0.1446234
112	0xbe6565a4	-0.22402054
113	0xbcc81f10	-0.024428874
114	0x3e12236a	0.14271322
115	0xbf88fd12	-1.0702231
116	0xbe4c9eb7	-0.1998242
117	0xbf56a577	-0.8384623
118	0xbea46ba4	-0.32113373
119	0x3dccd14a	0.10000856
120	0x3df1d1bb	0.11807581
121	0xbe8c2aa0	-0.2737627
122	0x3d54d013	0.051956248
123	0xbed73586	-0.42033023
124	0x3ec17404	0.37783825
125	0xbe21cf1c	-0.15801662
126	0xbecf5ba0	-0.40499592
127	0xbe237717	-0.15963398
128	0x3f342111	0.70362955
129	0xbf430a3a	-0.7618748
130	0x3d8948b6	0.06703322
131	0xbea23aee	-0.31685585
132	0x3e4ec583	0.20192532
133	0x3d9940e1	0.07483078
134	0x3eb88346	0.36037654
135	0x3e4d7f8b	0.20068185
136	0x3ef74d8a	0.48301345
137	0x3b8bed77	0.0042702514
138	0xbe90759f	-0.28214738
139	0xbd992447	-0.074776225
140	0xbf335293	-0.70047873
141	0xbecaa7f9	-0.39581278
142	0x3e83e5f6	0.25761384
143	0xbd25045e	-0.040287368
144	0xbe34cbbf	-0.17655848
145	0xbe4f297b	-0.20230667
146	0xbd923d23	-0.07140567
147	0x3e0dfbde	0.13865611
148	0x3f08e7f1	0.53478914
149	0xbe23a7bb	-0.15981953
150	0x3dd582fc	0.10425374
151	0x3e0d1063	0.13775782
152	0xbea55397	-0.32290336
153	0x3c33c33c	0.0109718405
154	0xbec23811	-0.379334
155	0x3f185998	0.5951171
156	0xbdfff33d	-0.12497566
157	0x3e1c69ab	0.15274684
158	0xbe25f151	-0.16205336
159	0xbf7ab670	-0.9793463
160	0x3c864858	0.016391918
161	0xbf42a1d7	-0.760282
162	0xbdcb7a61	-0.09935451
163	0x3eb31e26	0.3498394
164	0x3e46f57c	0.19429582
165	0xbf1121e4	-0.5669234
166	0x3d4b530f	0.049639758
167	0x3cbde5e0	0.023180902
168	0xbe20ef61	-0.15716316
169	0xbe304f32	-0.1721771
170	0x3e9f9bd2	0.3117357
171	0x3f061273	0.523719
172	0x3e8e4d2a	0.27793247
173	0xbf1fd532	-0.62434685
174	0xbe815c1b	-0.25265583
175	0x3bfd5299	0.0077307937
176	0x3e7d68bc	0.24746984
177	0x3e866abf	0.26253316
178	0xbe28a1ad	-0.16467924
179	0xbea9f5d9	-0.3319538
180	0xbec4d33f	-0.38442418
181	0xbec05986	-0.375683
182	0xbe515c30	-0.20445323
183	0xbe38bd94	-0.18041068
184	0xbf20a79e	-0.62755764
185	0x3e19e968	0.15030444
186	0x3ea7cc43	0.32773027
187	0x3e12049c	0.14259571
188	0x3da1378b	0.07871922
189	0x3ececdc5	0.40391365
190	0xbede30a6	-0.4339649
191	0xbe8b941b	-0.27261433
192	0xbf47f12c	-0.78102374
193	0xbced62ca	-0.02897777
194	0xbedf1ea6	-0.4357807
195	0x3eb2d613	0.3492895
196	0x3db733f4	0.08945456
197	0xbf345ece	-0.7045716
198	0x3ddb6ada	0.1071374
199	0xbf23362b	-0.6375453
200	0x3df4c19e	0.11950992
201	0xbe8c5c05	-0.27413955
202	0x3ebe7aac	0.37202966
203	0x3e686fc9	0.22698893
204	0x3ea3764e	0.31926197
205	0x3e888364	0.26662743
206	0xbf3cbe60	-0.7372799
207	0x3e8efb81	0.27926257
208	0xbe4092b7	-0.18805967
209	0xbd6a83a2	-0.05725444
210	0xbeecb965	-0.46235195
211	0xbf39476b	-0.723746
212	0xbf48f722	-0.78502095
213	0xbe635493	-0.22200231
214	0xbd228022	-0.03967298
215	0xbea98dbb	-0.33115944
216	0x3c8779a8	0.016537502
217	0xbec1444c	-0.3774742
218	0xbe940f3b	-0.2891787
219	0x3ea13f85	0.31493774
220	0xbf6dc5d5	-0.9287999
221	0xbf5b55f3	-0.85678023
222	0xbf674531	-0.9033995
223	0x3e7222c2	0.23646072
224	0xbdff29f2	-0.12459172
225	0x3e939884	0.28827298
226	0xbef3df06	-0.4763109
227	0x3dd6540f	0.10465252
228	0xbeda263e	-0.426073
229	0x3ec26c8d	0.37973443
230	0x3d5f809d	0.054566015
231	0xbeb73d1a	-0.35788804
232	0x3e64e470	0.22352767
233	0x3e820a6c	0.25398576
234	0x3e601b7b	0.21885483
235	0x3e9429fd	0.28938285
236	0xbef1dc31	-0.47238305
237	0x3e0b20b2	0.13586691
238	0xbe72747a	-0.23677245
239	0xbdb8e385	-0.09027771
240	0xbf2737cb	-0.6531951
241	0x3e08b6ad	0.13350935
242	0xbea74765	-0.32671657
243	0x3d3e3bbf	0.046443697
244	0x3ec20ecc	0.37901914
245	0x3d2dd693	0.042440962
246	0x3e668245	0.22510631
247	0x3eb687b0	0.35650396
248	0xbd3590b1	-0.04432744
249	0xbf2f8b4a	-0.68571913
250	0x3d6ceeec	0.05784504
251	0xbf0a27b0	-0.5396681
252	0x3e45374c	0.19259375
253	0xbf210ae0	-0.6290722
254	0xbf049028	-0.51782465
255	0x3eb9f9a4	0.36323273

fc.4.bias f4 [32]
0	0x3e94eb75	0.2908589
1	0xbe2515d6	-0.16121611
2	0x3c6a519f	0.014301687
3	0x3e910071	0.2832065
4	0xbd8f4c64	-0.06996992
5	0xbd870623	-0.06592967
6	0x3e27b408	0.1637727
7	0x3df762cc	0.12079391
8	0x3e42e683	0.19033246
9	0xbe01b728	-0.12667525
10	0xbe6d564b	-0.2317745
11	0xbd14c98a	-0.036325015
12	0xbd8c3707	-0.06846433
13	0x3d57789a	0.05260525
14	0x3e8a963e	0.2706775
15	0x3e93f6b2	0.2889915
16	0xbe686c9a	-0.22697678
17	0x3e42e65a	0.19033185
18	0x3d550685	0.05200817
19	0x3e718f70	0.23589873
20	0x3e89f76e	0.26946586
21	0xbdac4499	-0.084115215
22	0x3ce464f3	0.027880168
23	0xbd0a535a	-0.033770896
24	0xbc4b2a9b	-0.012400295
25	0xbe276566	-0.16347274
26	0xbe0dcd6d	-0.13847895
27	0xbeb68828	-0.35650754
28	0xbe0c869e	-0.13723227
29	0xbd853b31	-0.065054305
30	0x3e2e6447	0.1703044
31	0x3e7de5c9	0.24794687

fc.5.weight f4 [32]
0	0x3f650294	0.8945706
1	0x3f749229	0.9553552
2	0x3ecaa3d8	0.39578128
3	0x3f43cf11	0.76487833
4	0x3f602b7d	0.8756636
5	0x3f025a02	0.5091859
6	0x3f375a76	0.7162241
7	0x3f5f272b	0.8716914
8	0x3f537f66	0.8261627
9	0x3f60400b	0.8759772
10	0x3ec29124	0.38001359
11	0x3eabdc3d	0.33566466
12	0x3ebd50eb	0.36975798
13	0x3f782ba1	0.9694157
14	0x3f1058e6	0.5638565
15	0x3f319ebb	0.6938283
16	0x3f934ca3	1.1507763
17	0x3f15cf26	0.5851921
18	0x3ec9e7af	0.39434573
19	0x3f842eb9	1.0326759
20	0x3f7c2345	0.9849132
21	0x3f65e08f	0.89795774
22	0x3ec272df	0.37978265
23	0x3f610715	0.8790143
24	0x3e4b5fd3	0.19860773
25	0x3e350b0a	0.17679992
26	0x3f4bfe7b	0.7968518
27	0x3f5c1eaf	0.8598432
28	0x3f3310b1	0.69947344
29	0x3f52de06	0.8237003
30	0x3f56a109	0.8383947
31	0x3f504742	0.8135873

fc.5.bias f4 [32]
0	0x3f741f9a	0.9536072
1	0x3ee70f71	0.45128968
2	0x3efeacaf	0.49741122
3	0x3f7220ae	0.94581115
4	0x3f73c5a0	0.95223427
5	0xbdb7370e	-0.08946048
6	0x3f07a4c5	0.52985793
7	0x3f562937	0.8365664
8	0x3f668a5b	0.90054864
9	0x3f6f15f5	0.9339288
10	0x3f5dbf42	0.8661996
11	0xbe314e59	-0.17315044
12	0xbe643965	-0.2228752
13	0x3f3cce2c	0.73752093
14	0x3e46509b	0.19366686
15	0x3f182d1b	0.59443825
16	0x3ee5b3e8	0.4486382
17	0x3e23af35	0.15984805
18	0x3de4f0bb	0.11178728
19	0x3f575c04	0.8412478
20	0x3f3c7e30	0.73630047
21	0x3f41979d	0.7562197
22	0xbe9aa77a	-0.302059
23	0x3f6d2879	0.9263988
24	0xbe760f4b	-0.24029271
25	0x3f9757c3	1.1823658
26	0x3e061f11	0.13097788
27	0x3f675e6e	0.90378463
28	0x3e5ad1de	0.2136912
29	0x3f568075	0.8378976
30	0x3f2219cb	0.63320607
31	0x3f667a53	0.900304

fc.5.running_mean f4 [32]
0	0xbf1402b1	-0.57816607
1	0xc0ee0b89	-7.438908
2	0xc023ad66	-2.5574584
3	0xc082e4df	-4.0904384
4	0xbf82e0e7	-1.0224885
5	0xc043af0f	-3.0575597
6	0xc0a6219b	-5.191602
7	0xc0a06437	-5.0122333
8	0xc08ffcf2	-4.499627
9	0xc01f9da2	-2.4939961
10	0xc0a7c432	-5.2426996
11	0x3f814eef	1.0102214
12	0xc063e263	-3.5606925
13	0xc105b1c7	-8.355903
14	0x40de6eb7	6.951015
15	0xc0c70161	-6.2189183
16	0xc108f56a	-8.559916
17	0x4069869e	3.6488414
18	0x3e5a8c0a	0.21342483
19	0xc08bf24c	-4.3733273
20	0xc008ea62	-2.1393056
21	0xc0a32e91	-5.0994344
22	0x3ec3fe51	0.38279966
23	0xc000f7f0	-2.015133
24	0xbfe5a769	-1.7941715
25	0xc0127c91	-2.288853
26	0x40737489	3.8039877
27	0xc093fbff	-4.6245112
28	0x3ec202d3	0.3789278
29	0xc104dac8	-8.303413
30	0xc0924799	-4.57124
31	0xc090a7aa	-4.520467

fc.5.running_var f4 [32]
0	0x42941bdc	74.05441
1	0x41cf11e8	25.883743
2	0x42036282	32.8462
3	0x42a41848	82.047424
4	0x42bc2755	94.07682
5	0x41568baa	13.409098
6	0x425357e4	52.83583
7	0x42aca16a	86.31526
8	0x42b8200e	92.06261
9	0x42b5b984	90.862335
10	0x42421678	48.521942
11	0x40b94c85	5.790591
12	0x4106e0ac	8.429852
13	0x4289edf5	68.96476
14	0x4194871a	18.565968
15	0x4224276f	41.03851
16	0x420acdbb	34.70091
17	0x417c089a	15.7521
18	0x41ad1f9a	21.64043
19	0x4276a41e	61.66027
20	0x41f7d37f	30.97827
21	0x42a4cad8	82.39618
22	0x40bbb389	5.865666
23	0x425cf525	55.2394
24	0x4098af64	4.77141
25	0x4275c369	61.44083
26	0x4175832c	15.344524
27	0x422a03cc	42.503708
28	0x417d58ba	15.834162
29	0x421dfabe	39.494865
30	0x421d1191	39.267155
31	0x429d1d7c	78.55759

fc.7.weight f4 [1, 32]
0	0x3eea6471	0.45779756
1	0x3e987308	0.29775262
2	0x3e5676ce	0.20943758
3	0x3f06e54d	0.52693635
4	0x3eebce5d	0.4605588
5	0x3e00a95a	0.12564602
6	0x3e8b4c82	0.27206808
7	0x3ed16d77	0.40903828
8	0x3edaef21	0.42760566
9	0x3f060db0	0.52364635
10	0x3ebd1966	0.3693344
11	0x3d78783e	0.060661547
12	0x3d1437f0	0.03618616
13	0x3ec952a6	0.39320868
14	0x3e4cff03	0.20019154
15	0x3e9ac4dd	0.3022832
16	0x3ef84a63	0.48494253
17	0x3e3834aa	0.1798884
18	0x3dcf9026	0.10134916
19	0x3f0e5a3a	0.55606425
20	0x3ede3eb3	0.4340721
21	0x3ebc403b	0.36767754
22	0x3d2ce4ef	0.042210516
23	0x3f00c6d8	0.5030341
24	0xbc995042	-0.018715028
25	0x3efd4568	0.49467015
26	0x3e881b92	0.26583534
27	0x3ef3860f	0.47563216
28	0x3e6f03e4	0.23341328
29	0x3ec0713b	0.37586388
30	0x3eaf5539	0.34244707
31	0x3f03b27d	0.51444227
