best_model.pt (torch, 22370 bytes, 19 tensors)

fc.0.weight f4 [64, 10]
0.6900341 0.8252745 -0.124585256 -0.9434522 0.43580672 0.33174607 -0.18541025 -0.2101657
-0.011517752 -0.1154103 0.25917295 0.5592159 0.117919706 -0.6270618 0.12940754 -0.1021705
-0.83876485 -0.0539965 -0.21016866 0.2857258 -0.05646169 -0.37645853 -0.023532122 0.25416002
0.91867274 0.38109666 0.18420537 -0.16085887 0.3647967 0.045235697 0.11978184 0.08686318
0.20817196 0.43814313 -0.31734076 0.114369564 0.4291202 -0.2018638 -0.13674419 0.44201076
0.13146558 0.04703755 0.5811806 0.85654527 -0.53936493 -0.48271126 0.35562268 -0.19514854
-0.29293782 -0.15686038 0.45890486 0.26808777 -0.02489959 -0.67437416 0.34745553 -0.2843929
-0.420314 -0.13927904 -0.040000852 0.42580134 0.2993512 0.5241875 0.2559349 -0.2626885
0.6106953 0.17669167 -0.15992442 -0.23944597 0.49144083 -0.29699284 -0.26781398 0.10017253
0.25467375 1.1776347 -1.0757767 -0.14147961 0.40938792 0.08826901 -0.21326508 -0.041527558
-0.06270829 0.06692867 0.0561268 -0.48271498 -0.86794615 0.4428593 -0.65848684 -0.19418164
-0.008765197 0.3561586 -0.53837407 -0.3050673 -0.14619122 0.2855612 -0.5131715 -0.25414026
0.4808686 -0.4947435 0.23078527 0.20054826 -0.067683354 -0.26487592 -0.055034246 0.11023565
0.58862233 0.18432586 -0.21745028 0.03803937 0.61492103 -0.2616619 0.20098577 -0.66560495
-0.091005504 -0.3037389 1.2542078 0.020406822 -0.24329613 0.06609714 0.22089694 -0.29594857
-0.1303893 -0.48345584 -0.44638658 -0.2807087 0.9374955 -0.18845405 -0.6614888 0.12784666
-0.13768622 0.21366426 -0.37483677 -0.13577588 -0.18566395 -0.6293676 0.92941177 -0.3668971
-0.5801388 -0.22790295 -0.24326578 0.07922477 0.40340742 -0.73426694 0.14437859 -0.10286132
0.7357321 -0.06390292 -0.72144705 -0.19843265 -0.047742564 0.15216233 -0.2617228 -0.18125923
-0.5398586 -0.08891861 0.22672626 -0.39447737 -0.18835331 0.05398655 -0.29399616 0.5817373
0.15260053 -0.27106255 0.094700396 0.55152553 0.54856926 0.13078114 -0.087782376 0.27898952
0.048231684 0.18206324 -0.49999216 -0.09186481 -0.4969353 0.12755579 0.6421915 -0.0013591486
-0.2144275 -0.15093179 -0.076681025 0.39571643 0.11266462 0.13658062 0.28746474 0.20566227
-0.2591988 0.17397696 0.556451 -0.044434145 -0.0760815 -0.0038317295 -0.52006865 -0.13658336
-0.061344326 0.27014998 1.1761644 -0.5505162 -0.97092086 0.33125246 0.60005224 0.053797543
0.086711265 -0.37403303 -0.4070763 -0.48570222 0.7008205 0.034378015 -0.40292883 -0.058140356
-0.08232812 0.19740552 -0.35000294 0.7447844 -0.015644806 -0.8760673 0.67017645 -0.19260311
-0.75126714 -0.1709187 -0.035415266 0.21652499 -0.7298934 -0.17590266 0.014614394 0.37164629
0.1505381 -0.012897954 -0.43553472 -0.17513722 -0.00381764 0.3022401 -0.3498414 -0.22349249
-0.052746654 -0.030872058 -0.5066394 0.07420254 0.3154897 -0.38568622 -0.28217787 0.44234282
-0.6653001 0.009539848 0.21003138 0.95520604 -0.4314936 -0.13093981 0.2679861 -0.15050237
-0.58716106 0.7430033 0.14953505 -0.16372222 0.048991542 -0.7466921 0.80839187 -0.076817244
00000000: 13a6 303f 3145 533f 8e26 ffbd 1586 71bf
00000010: 0f22 df3e 9fda a93e 2fdc 3dbe ad35 57be
00000020: f4b4 3cbc 3c5c ecbd 51b2 843e c628 0f3f
00000030: e37f f13d 1f87 20bf 6983 043e c43e d1bd
00000040: 4bb9 56bf 6f2b 5dbd 7436 57be a74a 923e
00000050: 6044 67bd 2cbf c0be 70c6 c0bc 4321 823e
00000060: 232e 6b3f 1a1f c33e 55a0 3c3e 30b8 24be
00000070: a2c6 ba3e 1149 393d 2e50 f53d 53e5 b13d
00000080: 082b 553e 4c54 e03e 7d7a a2be 973a ea3d
00000090: a5b5 db3e 62b5 4ebe ab06 0cbe 3c4f e23e
000000a0: ea9e 063e 72aa 403d 40c8 143f 8d46 5b3f
000000b0: d213 0abf ee25 f7be 2d14 b63e 05d5 47be
000000c0: f2fb 95be 02a0 20be 94f5 ea3e cd42 893e
000000d0: 3afa cbbc c9a3 2cbf b1e5 b13e f29b 91be
000000e0: 6633 d7be 2a9f 0ebe efd7 23bd a202 da3e
000000f0: 8f44 993e 2731 063f e609 833e 1b7f 86be
00000100: 8756 1c3f a9ee 343e 3ac3 23be 5331 75be
00000110: 229e fb3e 720f 98be ea1e 89be 4127 cd3d
00000120: 9964 823e bcbc 963f 0db3 89bf 08e0 10be
00000130: 4b9b d13e 62c6 b43d 2962 5abe cd18 2abd
00000140: 346d 80bd e611 893d 37e5 653d 6b26 f7be
00000150: b831 5ebf 74be e23e 9892 28bf 8dd7 46be
00000160: e79b 0fbc 6c5a b63e e2d2 09bf c831 9cbe
00000170: 27b3 15be 1435 923e 355f 03bf ac1e 82be
00000180: 6934 f63e 054f fdbe f952 6c3e 865c 4d3e
00000190: 929d 8abd d19d 87be 976b 61bd 3ac3 e13d
000001a0: f4af 163f ebbf 3c3e 49ab 5ebe 2ccf 1b3d
000001b0: 776b 1d3f 8cf8 85be 37cf 4d3e 1665 2abf
000001c0: 1861 babd aa83 9bbe e289 a03f 352c a73c
000001d0: 9f22 79be f05d 873d cf32 623e 9286 97be
000001e0: c684 05be 8687 f7be c88c e4be 0db9 8fbe
000001f0: b5ff 6f3f 19fa 40be 5457 29bf 3cea 023e
00000200: 9efd 0cbe ceca 5a3e 9bea bfbe d508 0bbe
00000210: b11e 3ebe 3c1e 21bf eeed 6d3f f0d9 bbbe
00000220: fa83 14bf 645f 69be aa1a 79be 9940 a23d
00000230: 6b8b ce3e ebf8 3bbf fbd7 133e f5a8 d2bd
00000240: f058 3c3f 89df 82bd c1b0 38bf ee31 4bbe
00000250: b58d 43bd 71d0 1b3e 8800 86be 059c 39be
00000260: 2c34 0abf f61a b6bd ee2a 683e f0f8 c9be
00000270: b1df 40be 0021 5d3d aa86 96be bcec 143f
00000280: 5043 1c3e b6c8 8abe 48f2 c13d c730 0d3f
00000290: 096f 0c3f 7eeb 053e 3fc7 b3bd b7d7 8e3e
000002a0: 968e 453d c96e 3a3e f9fe ffbe 9e23 bcbd
000002b0: 4e6e febe fc9d 023e aa66 243f 7625 b2ba
000002c0: e292 5bbe dd8d 1abe f10a 9dbd 589b ca3e
000002d0: b5bc e63d cadb 0b3e 942e 933e 2199 523e
000002e0: b5b5 84be 0427 323e 9373 0e3f 9400 36bd
000002f0: 9ed0 9bbd c11d 7bbb 3823 05bf 82dc 0bbe
00000300: 3044 7bbd 1951 8a3e 8e8c 963f a1ee 0cbf
00000310: 458e 78bf ec99 a93e 069d 193f d05a 5c3d
00000320: ad95 b13d 4281 bfbe 4e6c d0be f6ad f8be
00000330: f968 333f f6cf 0c3d b04c cebe 9524 6ebd
00000340: a59b a8bd ac24 4a3e 9633 b3be 31aa 3e3f
00000350: 8929 80bc f245 60bf af90 2b3f c039 45be
00000360: 0b53 40bf 5005 2fbe 990f 11bd bab8 5d3e
00000370: 4bda 3abf d41f 34be 3671 6f3c 6c48 be3e
00000380: a926 1a3e f151 53bc 68fe debe 2c57 33be
00000390: 5f31 7abb 37bf 9a3e 691e b3be 37db 64be
000003a0: e00c 58bd 66e7 fcbc 1fb3 01bf 80f7 973d
000003b0: de87 a13e aa78 c5be 9e79 90be c27a e23e
000003c0: 1b51 2abf 064d 1c3c 7712 573e 6288 743f
000003d0: bbec dcbe 1615 06be 7935 893e 4b1d 1abe
000003e0: 3050 16bf 7735 3e3f b71f 193e cca6 27be
000003f0: 5bab 483d 3727 3fbf c5f2 4e3f 5c52 9dbd

fc.0.bias f4 [64]
-0.1256656 -0.2719388 -0.24601556 0.23196965 -0.35028812 0.2412676 -0.17946035 0.42999166
0.27254003 0.41145766 -0.055496138 0.25991163 0.44338167 0.20378223 -0.08961101 -0.03473272
0.1486818 0.21844989 0.14562097 0.055564813 0.11339719 0.028279662 0.060932536 -0.27985197
-0.35513595 0.2444002 -0.8739411 0.4524004 -0.3392233 -0.098217286 -0.072716855 0.29061222
0.3359996 -0.048155654 -0.11875895 -0.29987726 0.036558855 -0.0073149805 0.08358295 -0.052353796
0.11978496 -0.12819892 0.13561496 -0.30187455 -0.22929353 0.62555516 -0.00053905393 -0.21589446
-0.14951256 0.10008662 -0.37758228 -0.4761812 0.019555166 0.41970792 0.023246417 -0.06133035
0.04059627 -0.44918433 -0.029406704 -0.023210624 0.1831351 0.042059336 -0.9247149 0.21002126
00000000: 7cae 00be 903b 8bbe 81eb 7bbe 7489 6d3e
00000010: f758 b3be db0e 773e 74c4 37be de27 dc3e
00000020: 5e8a 8b3e 94aa d23e eb4f 63bd 2313 853e
00000030: ec02 e33e 4aac 503e fa85 b7bd e643 0ebd
00000040: 0b40 183e 54b1 5f3e aa1d 153e ee97 633d
00000050: c93c e83d c0aa e73c 6594 793d c248 8fbe
00000060: 61d4 b5be 0c44 7a3e 9bba 5fbf 06a1 e73e
00000070: adae adbe 2526 c9bd 93ec 94bd 20cb 943e
00000080: 2408 ac3e dd3e 45bd e437 f3bd 8389 99be
00000090: bdbe 153d 81b2 efbb 8a2d ab3d ef70 56bd
000000a0: d151 f53d 9446 03be a6de 0a3e 4d8f 9abe
000000b0: eccb 6abe 6224 203f 4c4f 0dba 7013 5dbe
000000c0: d219 19be 37fa cc3d 7752 c1be 06ce f3be
000000d0: 2832 a03c f5e3 d63e 456f be3c 8835 7bbd
000000e0: 4648 263d 7dfb e5be 54e6 f0bc 3524 bebc
000000f0: c587 3b3e 6946 2c3d 1eba 6cbf d00f 573e

fc.1.weight f4 [64]
1.1664321 1.8900228 0.95319784 1.0517478 0.91987085 1.1590357 0.60588014 1.2633413
0.6127937 0.8093096 0.89460194 1.6187314 1.312554 1.1500565 1.0422908 1.4589638
0.73442054 1.013511 0.9411441 1.2857769 1.2579061 1.4506243 0.7181302 0.41753793
1.0224361 1.0121903 0.9604387 1.3101183 1.264464 1.1085976 0.9728717 1.2642964
1.065993 1.4384439 1.1271634 0.92998505 0.9368404 1.5707468 1.1786666 1.3380531
0.76453745 1.0904574 1.2753094 1.1451205 0.83440435 1.7276694 0.9039677 1.3758296
0.66838855 0.89383703 0.7117385 0.98985755 1.2748712 1.0877361 1.1052043 1.1108949
1.5589896 0.7961034 1.0221684 1.4267305 1.7957145 1.0508146 1.4149277 1.0307882
00000000: a64d 953f 44ec f13f c604 743f ac9f 863f
00000010: a87c 6b3f 485b 943f f61a 1b3f 2bb5 a13f
00000020: 0ce0 1c3f ea2e 4f3f a204 653f 9732 cf3f
00000030: c501 a83f 0d35 933f c969 853f 53bf ba3f
00000040: fc02 3c3f baba 813f d2ee 703f 5694 a43f
00000050: 1103 a13f 0fae b93f 61d7 373f 88c7 d53e
00000060: 30df 823f 748f 813f 50df 753f f5b1 a73f
00000070: f5d9 a13f 87e6 8d3f 1f0e 793f 77d4 a13f
00000080: 7572 883f ee1e b83f e446 903f 8013 6e3f
00000090: c6d4 6f3f 3b0e c93f 8cde 963f 5345 ab3f
000000a0: bab8 433f 1c94 8b3f 573d a33f 4f93 923f
000000b0: 869b 553f 4524 dd3f 6d6a 673f 2f1b b03f
000000c0: 831b 2b3f 81d2 643f 7f34 363f 4e67 7d3f
000000d0: fb2e a33f f03a 8b3f 5677 8d3f ce31 8e3f
000000e0: f98c c73f 6fcd 4b3f 6ad6 823f 1b9f b63f
000000f0: f9d9 e53f 1881 863f 5a1c b53f def0 833f

fc.1.bias f4 [64]
0.14960131 -0.20155287 -0.66382456 0.23300971 -0.39051732 -0.3419831 -0.22619535 0.25092945
0.1806905 -0.47528043 -0.13241369 0.51018035 -0.3070446 0.17119251 -0.40929294 -0.23727734
-0.73913205 -0.78244984 -0.33682868 0.05277054 -0.49548307 0.17169721 -0.71730155 -0.720612
-0.19494049 -0.118591875 0.23703863 -0.23318847 0.16827676 -0.78828305 -0.36436093 -0.34057996
0.23367573 -0.44243217 -0.9894263 -0.6187425 0.2677979 -0.058402073 -0.29420936 -0.16772829
-0.40194017 -0.07206175 -0.014581971 -0.2533383 0.39517087 0.10321601 0.5427064 -0.026265113
-0.3446316 0.26228648 0.5323911 0.17671119 -0.029180884 0.10466934 -0.033527292 -0.11336555
-0.17789866 -0.33446717 -0.12630874 0.13884221 0.014312004 0.026185624 -0.010840069 -0.25915357
00000000: 1631 193e e063 4ebe 68f0 29bf 199a 6e3e
00000010: e3f1 c7be 6918 afbe c19f 67be d379 803e
00000020: ee06 393e f557 f3be 7497 07be 2e9b 023f
00000030: f334 9dbe 174d 2f3e d88e d1be d5f8 72be
00000040: c237 3dbf a24e 48bf cf74 acbe ec25 583d
00000050: f5af fdbe 65d1 2f3e 13a1 37bf 077a 38bf
00000060: 7b9e 47be 4ce0 f2bd 41ba 723e f5c8 6ebe
00000070: be50 2c3e ebcc 49bf 848d babe 7f60 aebe
00000080: b148 6f3e 7886 e2be 0b4b 7dbf e965 1ebf
00000090: ce1c 893e 0337 6fbd 9ca2 96be f7c0 2bbe
000000a0: 1acb cdbe 1c95 93bd 38e9 6ebc 8fb5 81be
000000b0: d653 ca3e ea62 d33d ceee 0a3f ef29 d7bc
000000c0: 8e73 b0be 6a4a 863e c84a 083f c7f3 343e
000000d0: c00c efbc e15c d63d ea53 09bd 332c e8bd
000000e0: 112b 36be 483f abbe 1457 01be a72c 0e3e
000000f0: e57c 6a3c 3c83 d63c 8b9a 31bc c7af 84be

fc.1.running_mean f4 [64]
-0.18844864 -0.27980322 -0.12512128 0.29721153 -0.51266915 0.29895335 -0.15255965 0.4157964
0.22128597 0.2720811 0.07359605 0.2648743 0.4548308 -0.00028223544 -0.14105321 0.008586248
0.40160456 0.23290573 0.16281144 0.3559933 0.09626314 -0.023629807 0.04580297 -0.4230664
-0.31273922 0.27795765 -0.80711865 0.5482212 -0.32586265 -0.2076976 -0.038380936 0.34615573
0.18289562 -0.06207043 -0.04149707 -0.4128184 -0.090988144 -0.19789624 0.20317303 -0.09511846
0.2515721 -0.15170214 0.23057966 -0.26391247 -0.24737702 0.4000763 -0.22091904 -0.3778277
-0.21938616 0.07260011 -0.16865353 -0.39374176 0.045676492 0.33361936 -0.083459295 0.04615642
-0.045712233 -0.2737074 -0.31126204 -0.0858291 0.110649176 0.09245252 -0.8666095 0.09487061
00000000: aef8 40be 5e42 8fbe cb1f 00be 1c2c 983e
00000010: 493e 03bf 6a10 993e 9938 1cbe 44e3 d43e
00000020: ca98 623e 374e 8b3e 87b9 963d 9b9d 873e
00000030: 95df e83e 00f9 93b9 4170 10be 56ad 0c3c
00000040: 1d9f cd3e d77e 6e3e 0bb8 263e c144 b63e
00000050: 9c25 c53d 4c93 c1bc e59b 3b3d 299c d8be
00000060: 5b1f a0be 7750 8e3e 549f 4ebf 3958 0c3f
00000070: 78d7 a6be aeae 54be 5435 1dbd 533b b13e
00000080: fd48 3b3e 903d 7ebd d5f8 29bd ef5c d3be
00000090: fe57 babd 50a5 4abe 970c 503e 78cd c2bd
000000a0: 0fce 803e ce57 1bbe 131d 6c3e 891f 87be
000000b0: 6750 7dbe cdd6 cc3e 9a38 62be a272 c1be
000000c0: c4a6 60be 5eaf 943d 83b3 2cbe 8598 c9be
000000d0: 4617 3b3d 28d0 aa3e b5ec aabd 840e 3d3d
000000e0: c03c 3bbd 6023 8cbe bd5d 9fbe 2bc7 afbd
000000f0: 099c e23d bf57 bd3d 1fda 5dbf 864b c23d

fc.1.running_var f4 [64]
1.0298872 0.5064192 1.8669671 0.7409169 0.8278851 0.46701655 2.2708814 0.25478584
2.3769436 1.3201632 0.35539362 0.31967977 1.604173 1.9525915 0.2932049 2.430889
1.331482 0.5880971 1.2804121 0.58253235 0.7732703 0.8941306 0.87368566 1.0036322
0.25551385 0.4264603 0.2812719 1.1919441 0.68119776 1.4153368 0.2073945 2.073196
0.077787146 2.4063115 0.70809954 0.31086335 0.2235103 2.1453245 1.0820667 0.9061333
2.337461 0.3790736 0.098184116 0.314858 1.9273611 1.4026558 1.7256503 0.06772294
2.2191036 0.5011557 2.175159 1.1078849 2.1190586 0.69104004 0.10803549 0.16945492
1.7423778 0.3202548 0.24134187 0.27151912 0.5074739 1.2355918 0.1297024 0.5305023
00000000: 58d3 833f b0a4 013f c7f8 ee3f bbac 3d3f
00000010: 47f0 533f cb1c ef3e 1f56 1140 4a73 823e
00000020: d81f 1840 1cfb a83f 27f6 b53e 11ad a33e
00000030: 8a55 cd3f 85ee f93f f41e 963e af93 1b40
00000040: 016e aa3f 888d 163f 8be4 a33f d720 153f
00000050: 0bf5 453f bee5 643f dda9 5f3f 0577 803f
00000060: b6d2 823e 0159 da3e df02 903e a091 983f
00000070: fa62 2e3f c229 b53f 395f 543e 3eaf 0440
00000080: de4e 9f3d 0201 1a40 0346 353f 7b29 9f3e
00000090: e2df 643e ff4c 0940 2981 8a3f 5af8 673f
000000a0: f698 1540 ef15 c23e c114 c93d 1135 a13e
000000b0: c5b3 f63f 3a8a b33f 1ce2 dc3f 53b2 8a3d
000000c0: cb05 0e40 bd4b 003f ce35 0b40 2ccf 8d3f
000000d0: a89e 0740 00e8 303f b641 dd3d 9785 2d3e
000000e0: 3c06 df3f 70f8 a33e 5322 773e 8e04 8b3e
000000f0: cfe9 013f df27 9e3f b5d0 043e 00cf 073f

fc.4.weight f4 [32, 64]
-0.473915 0.4606025 -0.43117997 -0.7573966 -0.19678205 -0.035776578 -0.034916062 0.01200475
0.03646339 -0.2632889 -0.2053487 -0.88159764 0.013564798 0.08849527 -0.2586499 -0.09890199
-0.13306347 -0.31059444 -0.14631525 -0.23410504 0.0025763095 0.1264502 -0.50981563 -0.32260504
-0.3339449 -0.087395236 -0.21782558 0.074978836 -0.31718788 -0.27404004 -0.10521035 0.058062356
-0.105559126 -0.08265104 -0.1186331 -0.1617303 0.2854036 -0.0055003967 -0.18896136 0.18668948
-0.12753129 -0.02534044 -0.10659869 -0.012370943 -0.6646408 0.22344749 -0.65636975 -0.1898945
0.130771 -0.012125613 -0.76287407 -0.43036225 -0.50713426 -0.8926294 -0.25193834 -0.5527385
0.009691578 -0.7796055 0.46894273 -0.6461299 0.21296038 -0.045376945 -0.029187856 -0.055307843
-0.09819943 -1.1944587 -0.038569037 0.059957914 0.008823711 -0.3567062 -0.39120948 0.1532382
-0.45202324 0.11124001 -0.25084236 -0.23241016 -0.37267452 -0.35979384 -0.20438173 -0.5647527
-0.26345998 -0.13900077 0.179892 -0.04488132 -0.3840478 -0.7293128 -0.048134148 0.019457055
-0.031040035 -0.38975188 0.17281611 -0.43631715 -0.25756449 -0.17543758 -0.038901854 -0.25979766
0.15884058 -0.21982305 0.16886657 0.20532082 -0.026498312 -0.7283031 -0.4359941 -0.49123594
0.011707661 -0.44228128 0.17442054 0.11647278 0.04990573 -0.58076376 0.17824487 0.13013761
0.07764017 -0.30222854 -0.055253755 -0.27889204 -0.01595924 0.062405977 0.06635173 0.33300292
-0.39929906 0.10956848 0.08575977 -0.26745772 -0.8509009 -0.18221188 -0.1841213 0.41257235
-0.40960962 0.3152146 0.12929364 -0.15831557 -0.36479786 0.21959473 0.14890419 -0.5606759
-0.1034587 -0.1975573 0.030054912 -0.23448579 0.33535188 0.14174813 0.27097252 -0.014328323
0.024076479 0.13559912 -0.2595514 0.07437115 -0.016637908 0.16072401 0.105018616 -0.06874968
-0.027488058 -0.017058596 -0.042295013 0.18804094 0.399982 0.2489909 -0.20263076 0.14866373
-0.44635877 0.43429604 0.071545064 -0.019088466 -0.8695598 0.28483364 0.003222596 0.31826335
-0.0016001941 0.075722314 -0.25322366 -0.045202833 0.062251482 0.39754698 -0.30910277 0.08981444
-0.19011898 -0.03993565 -0.3146786 -0.29360494 -0.08984806 -0.15240765 -0.2775964 -0.13692899
0.044461574 -0.031542785 -0.42428818 0.12306063 0.61342406 0.1704295 0.18773663 -0.1628722
-0.08298355 -0.4372566 -0.20845482 -0.011864064 -0.10243947 -0.41900063 -0.08860865 0.28301832
-0.23396952 0.09234497 -0.02359178 -0.38035735 -0.59804416 -0.5234064 -0.21783191 -0.66464084
-0.11365942 -0.24088635 0.231864 -0.6135235 -0.41735688 -0.61463815 -0.14524671 0.26039565
0.16116956 -0.3087285 0.060526207 -0.71932364 -0.4908494 -0.27660725 0.04048293 -0.5045402
0.031782426 -0.5981389 -0.33087352 0.12737669 0.07770591 -0.64776945 -0.7812186 -0.49389485
0.0040837657 -0.29983976 0.100166105 -0.1633912 0.15676896 -0.8139258 -0.033323307 0.15714185
-0.06804818 -0.035162054 -0.14455049 -0.15741827 0.09818573 -0.10320858 0.23904976 0.32115254
-0.8482355 0.24280356 0.048375204 -0.2582975 -0.716404 -0.11225314 -0.13066281 0.34073257
00000000: fda4 f2be 17d4 eb3e 9fc3 dcbe bee4 41bf
00000010: 3c81 49be 768a 12bd 2504 0fbd 92af 443c
00000020: a35a 153d cdcd 86be ee46 52be 62b0 61bf
00000030: e33e 5e3c 023d b53d c26d 84be 208d cabd
00000040: ca41 08be 3c06 9fbe aad3 15be 3bb9 6fbe
00000050: 4dd7 283b 297c 013e 4783 02bf 7d2c a5be
00000060: d3fa aabe 46fc b2bd ab0d 5fbe 818e 993d
00000070: 7366 a2be fa4e 8cbe 8678 d7bd cbd2 6d3d
00000080: 622f d8bd f344 a9bd e9f5 f2bd a19c 25be
00000090: 6c20 923e ac3c b4bb 167f 41be 872b 3f3e
000000a0: 9097 02be c196 cfbc 6a50 dabd 7faf 4abc
000000b0: e625 2abf 6bcf 643e d907 28bf b473 42be
000000c0: d5e8 053e 82aa 46bc b74b 43bf 7158 dcbe
000000d0: 8dd3 01bf 5c83 64bf 10fe 80be 4580 0dbf
000000e0: 6dc9 1e3c 3a94 47bf 4319 f03e c568 25bf
000000f0: 4912 5a3e 2ddd 39bd 5f1b efbc 7a8a 62bd
00000100: c81c c9bd 06e4 98bf 91fa 1dbd 6e96 753d
00000110: 5491 103c 32a2 b6be 9c4c c8be 7aea 1c3e
00000120: 976f e7be cdd1 e33d 696e 80be eefc 6dbe
00000130: 32cf bebe e636 b8be 7249 51be a293 10bf
00000140: 3ae4 86be 3856 0ebe 9c35 383e 7ad5 37bd
00000150: eaa1 c4be 3eb4 3abf 5028 45bd 6764 9f3c
00000160: ac47 febc 8f8d c7be b5f6 303e f664 dfbe
00000170: 7edf 83be e9a5 33be 8d57 1fbd 3304 85be
00000180: 1ba7 223e 4b19 61be 5ceb 2c3e 9f3f 523e
00000190: fd12 d9bc 1272 3abf 9e3a dfbe 4783 fbbe
000001a0: 7dd1 3f3c b172 e2be 4c9b 323e 4889 ee3d
000001b0: f369 4c3d efac 14bf d385 363e cb42 053e
000001c0: cf01 9f3d b3bd 9abe c351 62bd f0ca 8ebe
000001d0: f4bc 82bc 699d 7f3d 6ae3 873d 5c7f aa3e
000001e0: ed70 ccbe 7065 e03d d1a2 af3d 38f0 88be
000001f0: a4d4 59bf c095 3abe 4b8a 3cbe af3c d33e
00000200: 5ab8 d1be cf63 a13e 8d65 043e 7a1d 22be
00000210: c9c6 babe 71dd 603e 577a 183e 7588 0fbf
00000220: 28e2 d3bd 764c 4abe b835 f63c 0b1d 70be
00000230: 3eb3 ab3e 6c26 113e e9bc 8a3e 58c1 6abc
00000240: 093c c53c 7fda 0a3e ece3 84be e74f 983d
00000250: 394c 88bc d694 243e 0014 d73d a2cc 8cbd
00000260: a32e e1bc 78be 8bbc 893d 2dbd ce8d 403e
00000270: 71ca cc3e 78f7 7e3e 707e 4fbe 4e3b 183e
00000280: 2389 e4be 0d5c de3e 3886 923d 6a5f 9cbc
00000290: 799b 5ebf b7d5 913e 3032 533b 6af3 a23e
000002a0: 9bbd d1ba 4d14 9b3d 88a6 81be 9b26 39bd
000002b0: 69fb 7e3d 478b cb3e b842 9ebe a2f0 b73d
000002c0: 8dae 42be 9093 23bd 8e1d a1be 6353 96be
000002d0: 4202 b8bd c010 1cbe 1e21 8ebe 1d37 0cbe
000002e0: 571d 363d 0233 01bd 4d3c d9be 3607 fc3d
000002f0: 5c09 1d3f 1285 2e3e 083e 403e f8c7 26be
00000300: 48f3 a9bd 19e0 dfbe 2e75 55be 7e61 42bc
00000310: c9cb d1bd 4087 d6be 7478 b5bd c7e7 903e
00000320: b595 6fbe 5c1f bd3d 8c43 c1bc 33be c2be
00000330: 6c19 19bf f6fd 05bf 540f 5fbe e725 2abf
00000340: 45c6 e8bd e9aa 76be c26d 6d3e e00f 1dbf
00000350: cdaf d5be ed58 1dbf 8ebb 14be 9452 853e
00000360: a209 253e a911 9ebe 54ea 773d 9825 38bf
00000370: 9d50 fbbe 779f 8dbe 6ed1 253d 8c29 01bf
00000380: 4a2e 023d a21f 19bf 4168 a9be 096f 023e
00000390: 4724 9f3d 38d4 25bf f1fd 47bf c9df fcbe
000003a0: 1cd1 853b 9984 99be e323 cd3d 0650 27be
000003b0: 0b88 203e 715d 50bf 057e 08bd cbe9 203e
000003c0: d85c 8bbd 1606 10bd 0b05 14be 4132 21be
000003d0: 9a15 c93d 055f d3bd 76c9 743e 1b6e a43e
000003e0: f625 59bf 7fa1 783e 1425 463d 923f 84be
000003f0: 4166 37bf f9e4 e5bd 79cc 05be 8074 ae3e

fc.4.bias f4 [32]
-0.06238935 0.07463058 -0.05018601 0.0693268 -0.2217915 -0.043371614 0.10032339 0.14352578
-0.13353018 -0.5165026 0.19992484 0.18429701 -0.042915635 0.012376282 -0.14450932 -0.26607564
-0.21044388 -0.064492 -0.031263743 0.014631727 0.0769909 0.14407684 -0.13115993 0.00792995
0.051275205 0.037116725 0.14414051 -0.082202874 0.22969256 0.004690047 -0.041302454 -0.22529525
00000000: fa8b 7fbd ebd7 983d d88f 4dbd 36fb 8d3d
00000010: 501d 63be 6fa6 31bd 5976 cd3d 6cf8 123e
00000020: 23bc 08be 8439 04bf 19b9 4c3e 5bb8 3c3e
00000030: 4ec8 2fbd e4c5 4a3c 40fa 13be 113b 88be
00000040: 9a7e 57be 6214 84bd 690e 00bd e9b9 6f3c
00000050: 68ad 9d3d e188 133e ca4e 06be 9fec 013c
00000060: f305 523d b507 183d 9299 133e fb59 a8bd
00000070: 8734 6b3e f7ae 993b c32c 29bd ccb3 66be

fc.5.weight f4 [32]
0.87307656 0.8980543 0.83742917 0.96909124 1.6088223 0.84002626 0.84843916 0.9419482
0.5101389 1.0880733 0.7463578 0.703608 0.45354018 1.3608195 0.79106694 1.2276957
0.959176 0.58961266 1.0740343 0.63852996 0.56995636 0.7341303 1.2851351 1.4586546
0.67466325 1.0696591 0.8418871 1.1116531 0.586069 1.3446509 0.826514 0.8819825
00000000: f281 5f3f e3e6 653f c261 563f 5d16 783f
00000010: e4ed cd3f f60b 573f 4f33 593f 8423 713f
00000020: 7798 023f fc45 8b3f 4e11 3f3f a71f 343f
00000030: 6b36 e83e 552f ae3f 5d83 4a3f 2225 9d3f
00000040: 8f8c 753f dbf0 163f f579 893f b376 233f
00000050: a9e8 113f f7ef 3b3f 4f7f a43f 32b5 ba3f
00000060: bbb6 2c3f 97ea 883f ea85 573f a64a 8e3f
00000070: 9e08 163f 851d ac3f 6c96 533f 9bc9 613f

fc.5.bias f4 [32]
0.27511233 0.5300581 -0.7839 1.2160364 0.013766994 0.74803054 1.2739013 0.63139224
0.92630976 0.14387679 -0.501933 -0.09119669 0.6434981 1.1062315 0.60031587 -0.6789773
0.1523472 0.16781835 -0.6571252 0.59699476 -0.0072375955 -0.6575312 -1.0057865 0.6901186
0.77604276 0.617715 0.13260646 0.26493767 0.6911301 0.6508647 0.48222038 0.2701844
00000000: 86db 8c3e e3b1 073f acad 48bf 15a7 9b3f
00000010: f58e 613c ee7e 3f3f 330f a33f eca2 213f
00000020: a322 6d3f 7054 133e ae7e 00bf 55c5 babd
00000030: 4bbc 243f fe98 8d3f 4dae 193f 75d1 2dbf
00000040: e800 1c3e 93d8 2b3e 5b39 28bf a6d4 183f
00000050: 5a29 edbb f753 28bf 9dbd 80bf 9dab 303f
00000060: bdaa 463f 9222 1e3f fdc9 073e e9a5 873e
00000070: e7ed 303f 129f 263f 97e5 f63e 9c55 8a3e

fc.5.running_mean f4 [32]
-5.008787 -5.2229757 -0.22141612 -6.074008 2.6262357 -6.1773977 -7.5110164 -3.3528466
-4.1576157 1.1359752 0.66795284 -2.0457554 -3.6978252 -7.191066 -4.606678 1.640421
-5.1716576 -1.3965722 1.804147 -5.005542 -1.5773584 0.54395056 2.2057424 -7.2192006
-3.1741662 -0.95462906 -1.7173009 -4.837648 -3.8641138 -5.8504667 -1.3443167 -4.461615
00000000: fc47 a0c0 9e22 a7c0 e8ba 62be 465e c2c0
00000010: 3f14 2840 3ead c5c0 3f5a f0c0 0a95 56c0
00000020: 300b 85c0 a367 913f f5fe 2a3f a8ed 02c0
00000030: 2ba9 6cc0 361d e6c0 e869 93c0 51f9 d13f
00000040: 387e a5c0 e1c2 b2bf 4aee e63f 662d a0c0
00000050: e1e6 c9bf 5840 0b3f e22a 0d40 b103 e7c0
00000060: 8a25 4bc0 9262 74bf 84d0 dbbf 03ce 9ac0
00000070: a44d 77c0 0637 bbc0 9212 acbf 8dc5 8ec0

fc.5.running_var f4 [32]
31.80462 44.179043 21.984026 64.876724 49.70939 47.328186 79.85596 36.78493
18.094526 16.545797 27.261372 24.1779 17.680902 97.8812 38.817696 36.7499
20.096588 14.825782 36.414177 24.89064 29.527325 14.022154 20.231562 67.904335
32.206997 55.050636 33.402737 19.801357 22.252527 47.91094 39.194115 30.095377
00000000: dd6f fe41 57b7 3042 49df af41 e2c0 8142
00000010: 6ad6 4642 1050 3d42 40b6 9f42 c523 1342
00000020: 97c1 9041 cb5d 8441 4a17 da41 576c c141
00000030: 7d72 8d41 2dc3 c342 5245 1b42 e6ff 1242
00000040: d0c5 a041 6736 6d41 1ea8 1142 0820 c741
00000050: f637 ec41 be5a 6041 3dda a141 05cf 8742
00000060: f7d3 0042 da33 5c42 679c 0542 2e69 9e41
00000070: 2d05 b241 cda4 3f42 c6c6 1c42 55c3 f041

fc.7.weight f4 [16, 32]
-0.18262658 0.09413061 -0.18890262 0.42692256 -0.762416 0.2602313 0.61582404 0.22759335
-0.4373151 0.16412696 -0.44380775 -0.23348525 0.121698074 0.3587322 -0.26805502 -0.81340075
0.23832923 -0.018378431 -0.6002705 -0.03820186 -0.31132904 -0.3224943 -0.75471246 0.22636527
-0.3862131 -0.5586443 -0.22780696 0.23295054 0.26702347 0.09726832 -0.4536377 -0.23211467
-0.21986827 0.444118 -0.023248523 0.6172218 -0.22238384 0.29678407 0.5259022 0.6646643
-0.6723585 0.19730401 0.30097497 0.13502038 0.09494406 1.1122061 -0.571316 0.07696321
0.4837468 -0.17901301 0.24883741 -0.21627572 -0.1089427 0.1429783 0.15001181 0.7459665
-0.63100326 -0.17904586 -0.11196158 0.12948902 0.29276714 0.33155435 -0.16162822 -0.09760733
0.07822689 -0.38328663 0.13451257 -0.24930611 0.2226771 -0.28317323 -0.649188 -0.16591343
0.39363462 -0.2916147 -0.059374914 0.17807677 -0.3374061 -0.22181252 0.10296986 -0.0029132953
-0.34388053 0.056024928 0.013587875 -0.123900056 0.11002363 -0.13171606 -0.07870626 -0.48869357
-0.019789416 0.2656792 0.08998356 -0.102570176 -0.43716085 -0.20270717 0.32719064 0.12885866
-0.20810743 0.40306574 -0.2714774 0.78258944 -0.5773633 0.51164025 0.76515055 0.3246533
-0.31596035 0.13908063 -0.1465547 -0.14423773 0.18285924 0.73263776 -0.47772092 -0.43248636
0.29217994 -0.11346159 -0.17875572 -0.021868335 0.0994712 -0.06835289 -0.4615767 0.5586703
-0.22331405 -0.3655486 -0.069001555 0.13365339 0.09689603 0.33319423 -0.2220874 -0.27503166
-0.2058247 0.4078024 -0.20132354 0.69049275 -0.5843784 0.33458462 0.59729934 0.49386218
-0.38857764 0.16872394 -0.18721679 0.0023054557 -0.074973285 0.7654242 -0.4359503 -0.42082235
0.28345126 -0.19591698 -0.4252235 0.06539477 -0.084082656 -0.0853114 -0.3299561 0.44593972
-0.21143286 -0.32417107 0.005531357 0.04210027 0.121259436 0.3261417 -0.14621358 -0.23128614
0.35788 -0.43176523 -0.1512874 -0.6853676 0.045057826 -0.44497523 -0.95411533 -0.4306874
0.044739008 -0.60669863 -0.12420995 -0.12805194 -0.55116796 -0.8077581 0.42384094 0.13296935
-0.85680735 0.0038264098 -0.10679923 -0.40140674 -0.07762766 -0.26265177 -0.3453487 -0.5618839
0.2966695 -0.22032999 -0.22378144 -0.48445454 -0.28710905 -0.37987503 0.05694246 0.36935046
-0.086813174 -0.0846259 -0.4908008 0.13604356 -1.0624202 -0.19531792 0.13027406 -0.06512007
-0.04608171 0.003529988 -0.8982278 -0.59622186 0.09750486 -0.16118115 -0.2629066 -1.3007802
-0.04876232 0.102031745 -0.7564901 0.1180577 -0.47589707 -0.59485626 -1.0267252 -0.018313631
-0.5177178 -0.40074807 -0.37457055 0.3359452 -0.0637134 -0.16210987 -0.62103105 -0.23059894
0.3458663 -0.35075793 -0.6432665 -0.25136864 -0.45031008 -0.59409815 -0.18589015 -0.17004871
-0.11285431 0.13533504 -0.46314314 -0.17932875 -0.3182567 -0.51986605 -0.11156074 -0.44464278
0.043275505 -0.51984155 -0.5545645 0.5708432 -0.13601264 -0.24037315 -0.9078407 -0.6168044
-0.388634 -0.21482934 -0.36381167 0.641125 -0.44152483 -0.683244 -0.30903128 0.08722115
00000000: 7602 3bbe 8dc7 c03d b06f 41be 9895 da3e
00000010: b22d 43bf 093d 853e a5a6 1d3f 3b0e 693e
00000020: c4e7 dfbe e610 283e c53a e3be c216 6fbe
00000030: d73c f93d bfab b73e 823e 89be 083b 50bf
00000040: 940c 743e 5d8e 96bc 54ab 19bf 8e79 1cbd
00000050: 8566 9fbe f91d a5be d634 41bf 4ccc 673e
00000060: b9bd c5be 5003 0fbf 3a46 69be 968a 6e3e
00000070: 4db7 883e 9d34 c73d 3343 e8be 78af 6dbe
00000080: 2625 61be 6f63 e33e b073 bebc 3f02 1e3f
00000090: 97b8 63be 15f4 973e 87a1 063f 7127 2a3f
000000a0: b01f 2cbf 100a 4a3e 6419 9a3e c842 0a3e
000000b0: 0872 c23d c55c 8e3f c441 12bf e39e 9d3d
000000c0: a9ad f73e 304f 37be 3ccf 7e3e 6277 5dbe
000000d0: 5a1d dfbd e768 123e b29c 193e a9f7 3e3f
000000e0: 6e89 21bf cc57 37be 1d4c e5bd c598 043e
000000f0: 93e5 953e 7ec1 a93e de81 25be 5ae6 c7bd
00000100: 6b35 a03d 253e c4be aabd 093e 1a4a 7fbe
00000110: 7705 643e 15fc 90be 2f31 26bf 36e5 29be
00000120: 7a8a c93e 864e 95be 1c33 73bd c259 363e
00000130: 7ec0 acbe d222 63be dde1 d23d fcec 3ebb
00000140: 1c11 b0be 657a 653d ae9f 5e3c 50bf fdbd
00000150: 1254 e13d 93e0 06be bf30 a1bd 0b36 fabe
00000160: 6a1d a2bc 1b07 883e 4d49 b83d 5010 d2bd
00000170: 8cd3 dfbe 7892 4fbe 8885 a73e 86f3 033e
00000180: 1d1a 55be a25e ce3e 16ff 8abe c857 483f
00000190: 15ce 13bf dbfa 023f e8e0 433f f538 a63e
000001a0: 8ec5 a1be 276b 0e3e 6f12 16be 0eb3 13be
000001b0: 743f 3b3e 268e 3b3f d697 f4be da6e ddbe
000001c0: 9c98 953e 8d5e e8bd bd0b 37be 3925 b3bc
000001d0: 8eb7 cb3d 9afc 8bbd c853 ecbe 0405 0f3f
000001e0: 70ac 64be 3029 bbbe b050 8dbd 6fdc 083e
000001f0: 6d71 c63d 6f98 aa3e e16a 63be f3d0 8cbe
00000200: b6c3 52be 7acb d03e c227 4ebe 22c4 303f
00000210: d399 15bf ad4e ab3e 9ce8 183f 81db fc3e
00000220: a6f3 c6be f8c5 2c3e c2b5 3fbe 2117 173b
00000230: 988b 99bd d7f2 433f e134 dfbe 0776 d7be
00000240: 8620 913e 769e 48be e5b6 d9be b1ed 853d
00000250: 8733 acbd beb7 aebd 02f0 a8be 3652 e43e
00000260: db81 58be c0f9 a5be 6340 b53b 5571 2c3d
00000270: de56 f83d 0bfc a63e 03b9 15be 46d6 6cbe
00000280: 0c3c b73e 5510 ddbe 16eb 1abe 4074 2fbf
00000290: 8e8e 383d cbd3 e3be e740 74bf 0f83 dcbe
000002a0: 4040 373d 9a50 1bbf c961 febd 0c20 03be
000002b0: 5819 0dbf 3cc9 4ebf ae01 d93e 1e29 083e
000002c0: ba57 5bbf 81c4 7a3b 8eb9 dabd 2f85 cdbe
000002d0: 40fb 9ebd 4b7a 86be 8bd1 b0be a0d7 0fbf
000002e0: 11e5 973e 2f9e 61be f626 65be 6d0a f8be
000002f0: f5ff 92be fb7e c2be 7f3c 693d 811b bd3e
00000300: 1bcb b1bd 5850 adbd 3e4a fbbe 014f 0b3e
00000310: 63fd 87bf 6c01 48be 9066 053e ac5d 85bd
00000320: 2dc0 3cbd 5f57 673b 42f2 65bf ffa1 18bf
00000330: a1b0 c73d ac0c 25be b29b 86be f77f a6bf
00000340: 00bb 47bd 05f6 d03d 56a9 41bf 3cc8 f13d
00000350: c8a8 f3be 8048 18bf bb6b 83bf 7806 96bc
00000360: 2789 04bf da2e cdbe b6c7 bfbe 0201 ac3e
00000370: 2c7c 82bd 2100 26be e4fb 1ebf 2122 6cbe
00000380: 6315 b13e 8b96 b3be 1dad 24bf 64b3 80be
00000390: 0b8f e6be d116 18bf fd59 3ebe 4021 2ebe
000003a0: 2920 e7bd 4595 0a3e 1921 edbe f5a1 37be
000003b0: 8bf2 a2be f115 05bf f579 e4bd 38a8 e3be
000003c0: a841 313d 5614 05bf f0f7 0dbf c822 123f
000003d0: e646 0bbe 6124 76be 4068 68bf e5e6 1dbf
000003e0: 09fb c6be 39fc 5bbe 8645 babe c520 243f
000003f0: 8b0f e2be 14e9 2ebf 5939 9ebe 01a1 b23d

fc.7.bias f4 [16]
-0.4215848 0.2193613 -0.1188703 0.19961938 -0.014178367 0.08553515 -0.10827206 0.104829
0.3658912 0.25379908 0.28640833 -0.1134908 0.09665454 0.11379667 -0.008670606 -0.13671954
00000000: f7d9 d7be 40a0 603e 4672 f3bd 0669 4c3e
00000010: 624c 68bc 0d2d af3d bebd ddbd 96b0 d63d
00000020: 1756 bb3e f4f1 813e 1da4 923e dd6d e8bd
00000030: d1f2 c53d 3b0e e93d 280f 0ebc 3500 0cbe

fc.8.weight f4 [16]
1.183746 1.3168999 0.7252384 1.2168965 1.2295583 1.4141692 1.0782001 0.92051363
1.2972927 0.712361 0.7790762 1.2941473 1.1676385 1.3315308 1.130033 0.9647639
00000000: fd84 973f 2d90 a83f 39a9 393f 44c3 9b3f
00000010: 2b62 9d3f 7f03 b53f 7602 8a3f c8a6 6b3f
00000020: b00d a63f 4a5d 363f 8a71 473f 9ea6 a53f
00000030: 2e75 953f 9a6f aa3f eca4 903f c4fa 763f

fc.8.bias f4 [16]
1.0197 0.82358855 0.14811902 1.0491321 1.0446231 1.1352178 1.0426993 1.1302881
0.9646358 1.0249486 0.19147992 0.9146923 0.9872212 0.9091862 0.935354 0.5494663
00000000: 8885 823f b3d6 523f 83ac 173e f649 863f
00000010: 36b6 853f d14e 913f 2c77 853f 48ad 903f
00000020: 5ff2 763f 8431 833f 5013 443e 4629 6a3f
00000030: 87ba 7c3f 6dc0 683f 5c73 6f3f d3a9 0c3f

fc.8.running_mean f4 [16]
-0.4807815 3.842972 -2.80664 3.2398224 2.467603 -6.513115 -3.8242607 -5.0507765
3.0660374 -3.475712 -2.7543216 1.788281 -0.552792 -3.3134136 -1.564799 -4.027681
00000000: fe28 f6be 41f3 7540 fd9f 33c0 4059 4f40
00000010: 35ed 1d40 706b d0c0 b0c0 74c0 f69f a1c0
00000020: f539 4440 1172 5ec0 ce46 30c0 64e6 e43f
00000030: c783 0dbf f80e 54c0 554b c8bf c3e2 80c0

fc.8.running_var f4 [16]
30.674046 24.98209 11.120459 31.932106 26.997286 22.930946 24.749422 3.8780484
25.39385 7.332727 7.785588 25.4382 27.896101 21.526773 24.7043 13.012697
00000000: 7264 f541 52db c741 66ed 3141 f474 ff41
00000010: 71fa d741 9472 b741 d1fe c541 f231 7840
00000020: 9b26 cb41 b3a5 ea40 8923 f940 6f81 cb41
00000030: 372b df41 d536 ac41 68a2 c541 0234 5041

fc.10.weight f4 [1, 16]
0.5827519 0.55026937 0.18154854 0.5503305 0.57817566 0.7122282 0.5641083 0.5684307
0.56181806 0.5142302 0.2099094 0.63110155 0.6727819 0.63545454 0.5308602 0.37896097
00000000: 3b2f 153f 74de 0c3f dce7 393e 76e2 0c3f
00000010: 5203 143f 9654 363f 6769 103f ad84 113f
00000020: 4fd3 0f3f 97a4 033f 7df2 563e df8f 213f
00000030: 6f3b 2c3f 26ad 223f 74e6 073f 2c07 c23e
