best_model.pt (torch, 18146 bytes, 13 tensors)

fc.0.weight f4 [64, 10]
00000000: e132 1abc 4aa6 91bd e33e 33be 75e5 89bf
00000010: a640 7b3f c972 dabe 9d82 28bd d738 efbe
00000020: e887 af3c 530b 913e 4966 103e 882a e73e
00000030: d4c9 693e 5f37 ecbf cc5f 0ebd 9bdf cf3d
00000040: dc2e 8a3e ebbf b6bd e60a 95be 0216 d13e
00000050: 43a4 b3bc c568 babc 436b 773f 04b1 873d
00000060: f1de 26bf 12ea a2be 5aad 96bd db93 a1bd
00000070: 2264 783d 23e5 ea3d 0961 c13e 533d 453e
00000080: 3092 0b3e 8489 9abf b060 523f b517 ac3e
00000090: 7219 08bd cf5b c8bd 5e22 f23c bd6f d63d
000000a0: c87b 9eb7 48ab 97b7 d429 d337 f854 c9b8
000000b0: 9089 c138 30fa 6cb7 ff4d 4c39 d580 8737
000000c0: f670 b038 2b77 c5b8 5848 6e3b 16c2 143f
000000d0: 487f cbbc d11f 0e3f 475f 26bf 8ebd 2cbd
000000e0: b163 c43e 6bea 35bf 17aa 4abe e540 7a3f
000000f0: 759e c4bd 182f cbbf b859 903d 6dad 383d
00000100: 55b0 1f3f 4c81 483e 417e ef3b 799e dfbd
00000110: 8460 44be 1422 9e3e 30d7 bc3e 60ce f73e
00000120: f1c3 213e 0271 cebf b94a a1be 7066 1a3e
00000130: 2af9 f3bd 897f 583c 82e0 22be 1b25 cb3e
00000140: 1593 45be 2cd9 75be d6fd 68be 904d 79be
00000150: 8168 223f 1b12 e33d fabf 04bf e24d 0b3f
00000160: 8727 cb3c cd69 fcbd 9e13 9b3e 3540 e73c
00000170: 57c0 4f3d 879b 1dbc f2df 21bf 7ed3 07be
00000180: 7bfe 803b a623 603d c407 533c ad04 34be
00000190: 53aa 9cb8 846c efb7 9ac8 bab8 da09 ccb8
000001a0: 88b1 f1b8 e458 1438 d49d 9038 4c29 76b9
000001b0: 0408 f9b8 e07a 89b5 0b15 e03c 4ff0 b23d
000001c0: 383b a03b 8bbe beba ee0e 4d3c 94b8 153c
000001d0: 3b5c 13bc d88e 9739 c071 2e3b b57a b3bc
000001e0: fecd 03be f8cc 02bd 99f8 43bd 4bb5 2d3d
000001f0: a763 c73d be67 a4bc f25f b0bd 8e6a b53d
00000200: 9ed0 b83d c407 3ebf 38e8 9e39 94a9 9b37
00000210: 1f0c 80b8 dc4d 09b8 e45e 1a38 3dc4 6d39
00000220: f660 3b38 d5c9 c3b8 77e9 ae38 1030 c1b8
00000230: f7e3 353b b545 8c3b 90f8 ce38 c406 603a
00000240: e5b3 af3d a049 853b 8061 8abb 8627 c2bb
00000250: b2b5 163b dc53 74be 5607 473e daf4 76bd
00000260: 7deb a13e 5fcd a83d 8eac 8ebf 6ffd b9be
00000270: daa3 193f e79b e23e 0cb8 8c3c d6a0 dabd
00000280: f9bc a5be 6119 863a 08d9 4d39 bc93 7939
00000290: f0c3 3938 da46 9e39 2e47 5739 c336 933e
000002a0: 2888 11bb d72b c4bd 1cc5 ee3e dc9d 903e
000002b0: 89ef 43bd ace4 dfbe 22b8 e83e 264c 903e
000002c0: 65fb d0be c42f 0ebe 2c68 9dbc ca2b bb3c
000002d0: 6136 4f37 2035 d236 585e 53b8 b080 fdb5
000002e0: b063 d4b4 8dfc dd37 51ba 6d38 f09f 9e38
000002f0: 205e 2237 9873 2bb9 4135 90bd 6c58 87be
00000300: 6c1c b2bb c36c 743d 681a 033f 0888 c5be
00000310: b6b1 08bf 1859 c73e 63d6 e13c 794e 90be
00000320: 1da2 8fbe 33af 04bc 3f81 36be cfc2 833d
00000330: 21d9 a63e 335e 3dbe d245 bebe 8f2a 0e3f
00000340: 4f5f 4d3c 5971 8dbe 634c 953e 7822 b83c
00000350: 7c1d 9e3c 8f00 ebbf c8b4 673e 4cf1 ea3e
00000360: 42b8 e6bd 2a25 ca3d c6a1 98be 657f d73c
00000370: 8b24 de3c cfb5 cb3c 83cc 9b3c cb48 84bf
00000380: a0f6 6b3e a685 373e 2854 39be 20de 39bc
00000390: d431 98be f6c2 2d3d f161 03bb c298 1fbb
000003a0: f28b 493d ba2d 083c 8388 793a 7118 a93b
000003b0: 5688 983b 670b d7bc 6c3c 0eb9 3884 f83d
000003c0: 6058 7f3e 1d4a d03d c08b 0e3e 4068 1bbf
000003d0: baa5 083d f8e5 833e 9c35 f43d 2ca4 dbbc
000003e0: 6f72 33bd 9f4e 2d3d 1063 563e 150d 4c3d
000003f0: 6ef1 bfbb e248 41bf fea6 303f 7efd 4abf
-0.009411545 -0.07111795 -0.17504458 -1.077315 0.9814552 -0.426657 -0.041140188 -0.46723053
0.02142711 0.28328952 0.14101519 0.45149636 0.22830898 -1.8454398 -0.034759328 0.10150071
0.26988876 -0.08923324 -0.29109877 0.40837103 -0.021928912 -0.022755036 0.96648043 0.0662556
-0.6518393 -0.31819206 -0.07357283 -0.07889529 0.06064237 0.114694856 0.37769344 0.19261675
0.13629985 -1.2073216 0.82178783 0.33611837 -0.03322739 -0.09783136 0.029557403 0.10470531
-1.8892708e-05 -1.8080362e-05 2.5172638e-05 -9.6002535e-05 9.22858e-05 -1.41249475e-05 0.00019484012 1.6153246e-05
8.4133746e-05 -9.415889e-05 0.0036359038 0.5810865 -0.024840966 0.555173 -0.6498913 -0.04217296
0.38357309 -0.7106082 -0.19791447 0.9775527 -0.09600536 -1.5873747 0.070483625 0.045087267
0.62378436 0.19580573 0.007308752 -0.10918898 -0.19177443 0.30885375 0.36882925 0.4839964
0.15797402 -1.6128237 -0.3150232 0.1507814 -0.11912759 0.0132140005 -0.15905955 0.39676747
-0.19294389 -0.24008626 -0.2275308 -0.24345994 0.6344071 0.11087438 -0.51855433 0.54415715
0.024799122 -0.123248674 0.30288404 0.028228858 0.05072054 -0.0096196 -0.6323234 -0.13264272
0.0039365864 0.054721497 0.012880269 -0.17579909 -7.470385e-05 -2.8541552e-05 -8.906536e-05 -9.729313e-05
-0.00011524843 3.5368736e-05 6.895853e-05 -0.00023475772 -0.00011874738 -1.0243057e-06 0.027353784 0.087372415
0.004889872 -0.0014552636 0.012515767 0.009138245 -0.008994157 0.0002890739 0.0026618093 -0.021909097
-0.12871549 -0.031933755 -0.047844503 0.042409223 0.09735804 -0.020069 -0.0861205 0.08858214
0.090241656 -0.742306 0.00030309125 1.8556406e-05 -6.105773e-05 -3.2735858e-05 3.6804835e-05 0.00022675186
4.4674576e-05 -9.335919e-05 8.340453e-05 -9.2119095e-05 0.0027754286 0.0042807707 9.869144e-05 0.000854593
0.08579234 0.0040676147 -0.0042230487 -0.0059251217 0.0022996482 -0.23860115 0.19436392 -0.060292102
0.31624976 0.082422964 -1.114641 -0.36326167 0.6001564 0.4425957 0.017177604 -0.10675208
-0.32370737 0.0010230952 0.00019631174 0.00023801526 4.4289918e-05 0.00030188897 0.00020530514 0.28752717
-0.00222064 -0.09578674 0.46634758 0.28245437 -0.04783586 -0.4372915 0.45452982 0.28183097
-0.408168 -0.13885409 -0.019214712 0.022848029 1.23508225e-05 6.2646723e-06 -5.0394185e-05 -1.8887422e-06
-3.956061e-07 2.6462856e-05 5.6678724e-05 7.563818e-05 9.677868e-06 -0.00016350893 -0.070414074 -0.26434648
-0.005435517 0.059674036 0.5121217 -0.38580346 -0.53396165 0.3893516 0.027568048 -0.2818487
-0.2805337 -0.008098411 -0.17822741 0.06433641 0.3258753 -0.18492965 -0.37162644 0.5553369
0.01253493 -0.2762554 0.2915984 0.022477373 0.019301169 -1.8359545 0.22627556 0.4588722
-0.11265613 0.0987037 -0.29810923 0.026305864 0.027117034 0.024866967 0.019018417 -1.0334715
0.23043299 0.17922077 -0.1809851 -0.011344463 -0.29725516 0.042422257 -0.0020047391 -0.0024352525
0.049205728 0.008311683 0.0009518938 0.0051603843 0.0046549244 -0.026250554 -0.00013564684 0.12134594
0.24936056 0.10170386 0.13920498 -0.6070595 0.033361174 0.2576139 0.11924288 -0.026811682
-0.043810304 0.042311307 0.20936227 0.049817163 -0.005857638 -0.75501835 0.6900481 -0.7929305

fc.0.bias f4 [64]
00000000: 57dd a23a eee1 6bba 2b21 873a 58c5 cf3a
00000010: e0f4 153a 59fc f439 6f82 c33a e5c7 8cbb
00000020: 3ed9 d3ba 5c52 43ba dce7 d03a 4e98 9eba
00000030: 27ad 0b3a a285 623a a841 473a 00d3 e638
00000040: b654 beb9 0020 d5b3 447b b0ba 2012 0fba
00000050: 04e0 153b 028f baba 037c 40bb 8640 4cba
00000060: 1e41 c43a 4508 c83a a8ee cbb9 b86d c33a
00000070: 606b 8fb8 b014 5d39 2e43 183a 5c99 d6b9
00000080: 1ead 9d3a 241c 563a 1a14 8638 d892 0b39
00000090: 4881 a53a af68 563b 23aa ee3a 895f 9a3a
000000a0: 24c4 403a aad1 11ba 0043 3d39 44fb d43a
000000b0: 5d5b 9fba 3824 2b39 4c58 a0b9 11a2 f639
000000c0: a286 8d3a ea50 94ba 4085 bcb9 46bb a539
000000d0: 2d94 96bb daa4 2cb9 bd1d 22bb 5ed9 c63a
000000e0: 34f1 333a 389c 1eb9 5020 acb8 07a2 e23a
000000f0: de28 4539 e553 47bb 1783 973b 467f f2ba
0.0012425584 -0.0008998205 0.0010309567 0.001585166 0.0005720388 0.0004672732 0.0014916192 -0.00429629
-0.0016162766 -0.0007450932 0.001593824 -0.0012099834 0.0005328231 0.00086411287 0.0007601031 0.000110065565
-0.0003630274 -9.924406e-08 -0.001346447 -0.0005457718 0.002286912 -0.0014233293 -0.0029370792 -0.0007791597
0.001497302 0.0015261254 -0.0003889699 0.0014910018 -6.8387715e-05 0.00021083909 0.00058083504 -0.00040931522
0.0012029742 0.00081676454 6.393362e-05 0.00013310777 0.001262703 0.0032716205 0.0018208664 0.0011777739
0.0007353446 -0.00055625534 0.00018049404 0.0016249199 -0.0012157966 0.00016321323 -0.00030583364 0.00047041525
0.001079757 -0.0011315618 -0.00035957433 0.00031610782 -0.0045953006 -0.0001646461 -0.0024736964 0.0015170982
0.000686425 -0.0001512625 -8.207618e-05 0.001729072 0.00018802608 -0.0030414995 0.0046237814 -0.0018501065

fc.1.weight f4 [64]
00000000: 2472 873f d86d cf3f 5407 293f e6a2 5b3f
00000010: b41a 97b8 02a7 813f bd0d b33f d016 de3f
00000020: 1ee7 543f b3dd 8d3e 54ca 68b9 805e bb3d
00000030: 04f6 153f ea33 c03c 60a2 7a3d ec89 883f
00000040: 8dcd 753e e791 0a3f 7350 2a38 9f80 693f
00000050: 63dc 193f 797d 6b3f d2c2 293f dde9 323d
00000060: 02ed a43e e1ff 8a3f e0cd 1a3f 167a ddb8
00000070: c6c4 923d 3ab0 033e 210a f63e 202c a63f
00000080: bfe4 803e 8ca1 b83e dc7b 0137 f461 3c39
00000090: 1159 4d3d 01d0 1a3f 8631 0d38 4889 013f
000000a0: 0f9c af3e 88a4 7838 cd97 473f b245 1e3f
000000b0: d7af 4a3c 0e29 2b3e 2695 c338 6c35 833e
000000c0: 6041 983d 93e2 1b3f 633f 48b9 e8fa 5c3e
000000d0: cee1 a9b8 0cf0 d43e 3a6e 963f 179e bd3f
000000e0: 5368 d437 8b5b 3c3f fdb8 ba3f ba7d 813c
000000f0: 30ea 803f 4e68 1738 948e 193e d10c fe3e
1.0581708 1.6205397 0.66026807 0.8579544 -7.205215e-05 1.0129092 1.3988568 1.7350712
0.83165157 0.27708206 -0.00022200617 0.09148884 0.58578515 0.023462255 0.06119001 1.066709
0.24004193 0.5412888 4.0606083e-05 0.91211885 0.6010191 0.9198833 0.663129 0.04368006
0.32212073 1.0859338 0.6047039 -0.000105608415 0.07166438 0.12860194 0.48054603 1.2982216
0.2517452 0.3606075 7.717837e-06 0.00017965568 0.05013377 0.6047364 3.3663142e-05 0.506001
0.3429875 5.928104e-05 0.77966005 0.61825097 0.012371025 0.1671488 9.326106e-05 0.25626695
0.07434344 0.608926 -0.000190971 0.21580088 -8.1006074e-05 0.4158939 1.1752388 1.481387
2.532095e-05 0.73577183 1.4587704 0.015807021 1.0071468 3.6098347e-05 0.14995795 0.49619153

fc.1.bias f4 [64]
00000000: b535 843e 51cc 943e 7f6e 01be aac2 413f
00000010: 31b3 1439 807a a0bc 158a 4ebf 3414 0f3f
00000020: 9706 a9be 393b 6e3d d597 7239 8f8e 3e3e
00000030: c42f dc3e 6a95 e2bd 10e1 25bb 20d5 febc
00000040: 33ce 7cbe 2c36 013f 98e9 4bb7 4974 dfbd
00000050: 4800 073d 474e 553f 62ff 1b3f 4be4 e33b
00000060: cdb0 e63c 33d4 13bd 13c6 11be 10ff b038
00000070: 7da1 00be 2214 18bc 0783 023f b729 fbbe
00000080: a46d a2be 39fc 963c cc96 2738 4941 5039
00000090: 1189 63bd 55d8 9fbc e815 a3b8 a11d 283f
000000a0: ad36 f33c 306e 44bd df66 4bbd 7801 db3e
000000b0: 39c3 023c a5eb 0b3c d288 0cb7 50b5 be3d
000000c0: b24b cf3e 0295 873f 6646 1a39 07ec f8bc
000000d0: 456a 2c38 b4b3 e23c 336f 5ebe 9714 453f
000000e0: 700d 8c36 d0e7 3cbe 931d 8c3f 77f9 0dba
000000f0: ff53 513c 2cd4 3639 6a4b 983e e8cb 233f
0.25822225 0.2906213 -0.12639807 0.7568766 0.00014181134 -0.019589663 -0.80679446 0.558902
-0.3301284 0.058161948 0.0002313548 0.1860907 0.43005192 -0.11063655 -0.002531115 -0.031107485
-0.24688034 0.50473285 -1.2154131e-05 -0.109108515 0.032959253 0.83322567 0.6093656 0.006954705
0.028160477 -0.03609104 -0.14235716 8.439843e-05 -0.12561603 -0.009282144 0.5098118 -0.49055263
-0.31724274 0.018430816 3.9956343e-05 0.00019860746 -0.05555064 -0.019512335 -7.776526e-05 0.6567021
0.029689157 -0.047956645 -0.049658652 0.42774558 0.007981115 0.008540069 -8.376506e-06 0.09311926
0.40487438 1.0592349 0.0001471281 -0.030385984 4.1106967e-05 0.02767358 -0.21722107 0.7698454
4.1738895e-06 -0.18447804 1.0946525 -0.00054158963 0.012776374 0.00017435913 0.29745036 0.6398301

fc.1.running_mean f4 [64]
00000000: 45d3 e9bc c7a4 003d 94a0 eb3b 818d 94bc
00000010: ea86 8aba bc26 bbbd 4685 723d 52fd fa3d
00000020: 1974 713e b47e cabc 5ee2 4d39 3b75 71bc
00000030: af33 2bbe d8c7 2e3a b922 a9bd 7a3d e03d
00000040: 7a59 c73d 913c 90bd 6cdf 45b9 1af9 f33d
00000050: e06e 313e 8627 933c 97cb 01bd 801f bd3c
00000060: 3110 eabc 1f02 2d3d a6e8 103d 486a 3e39
00000070: 96e0 133d a60e 57bd 3908 03be 9645 1d3e
00000080: e767 d63d d5dc c4bd db5c ba3a 0dfa 233a
00000090: 3c13 6e3c 628f 203e 2cd6 f839 0e11 20be
000000a0: 8abe 07be a281 ecb9 d426 ba3d 101d 053c
000000b0: c94d b7bc c010 a1bc 0e56 fc39 3aa2 68bd
000000c0: 5016 183d 5893 8f3d 5a67 3eba 9d4f fe3c
000000d0: 608a f83b 22b9 993d 0539 da3d 16d5 71bd
000000e0: b494 0639 de10 9c3d d8a6 4cbd bfdc 083c
000000f0: 4864 8d3c 00a3 30b9 6e59 b3bc 8003 40bd
-0.028543124 0.031407144 0.0071907733 -0.01813388 -0.0010568772 -0.09138247 0.05920913 0.12255348
0.23579444 -0.02471862 0.00019634652 -0.014737423 -0.16718934 0.0006667352 -0.08258576 0.10949226
0.09733863 -0.07042802 -0.00018870615 0.11912747 0.17327452 0.017963182 -0.0316883 0.02308631
-0.028572174 0.04223835 0.03537812 0.00018159405 0.036102854 -0.052504204 -0.12796105 0.15358576
0.104690365 -0.09612433 0.0014218347 0.0006255217 0.014530953 0.15679696 0.00047461817 -0.15631506
-0.13256279 -0.00045110012 0.09089437 0.008124605 -0.022375958 -0.019661307 0.000481293 -0.056795336
0.037130654 0.070105255 -0.00072633254 0.031043822 0.007584855 0.075060144 0.10655407 -0.059041105
0.00012834632 0.07620405 -0.049963802 0.008353411 0.017259732 -0.0001684539 -0.02189323 -0.046878338

fc.1.running_var f4 [64]
00000000: 941c 743f 0959 7c3f 1847 5e3e 7d2a cd3e
00000010: 0e7a 0934 c423 183f d425 913f f2b2 933f
00000020: bd07 fb3e 1713 073e 740a 7736 7b7c a63c
00000030: 0c27 1f3e ab36 cb33 e7c3 003d d8ad 943e
00000040: f182 ca3d 0901 c13e a8ce 9532 da31 f83e
00000050: d9df cb3e 0c76 893f ef0c 303f e7fb 8f3b
00000060: 01ca da3d 533d b43f 338d f63e 9e5d a233
00000070: 98b0 c43b 134a b63e dd18 ef3e 7909 573f
00000080: 3b1e fe3d adfb 283e 885b 433b 7869 3534
00000090: a698 253d f200 a83e 0564 b734 4d07 0a3f
000000a0: 9364 503e 2b3f 4833 8cf0 5b3e 519e be3f
000000b0: d870 8b3c 49fb c03d 5423 1b34 7d60 8d3d
000000c0: 8476 c33e d1a0 da3f 1bde 4434 e4da 123d
000000d0: 65b5 cb3c 06dd 683e d9d7 853f 85dc a43e
000000e0: d1e1 0f33 ef70 943f b340 833f dc60 273d
000000f0: cf0e d83e 072c ca32 3bc2 713d 9de0 9c3e
0.95356107 0.98573357 0.21706808 0.40071478 1.2803523e-07 0.59429574 1.1339669 1.1538985
0.4902934 0.13190876 3.6811953e-06 0.020323029 0.15542239 9.462868e-08 0.031436827 0.29038882
0.09888256 0.37696102 1.743986e-08 0.48475534 0.3981922 1.073915 0.68769735 0.004394043
0.106830604 1.4081215 0.481546 7.560742e-08 0.006002497 0.3560339 0.46698657 0.8399883
0.1240811 0.16502257 0.0029809196 1.6895308e-07 0.04042878 0.3281322 3.415918e-07 0.5391739
0.20350866 4.662358e-08 0.2147848 1.4892064 0.017021582 0.09422929 1.4448352e-07 0.06903169
0.38176358 1.7080327 1.8334724e-07 0.03585328 0.02486677 0.22740564 1.0456496 0.32199493
3.350016e-08 1.1596965 1.025412 0.040863857 0.42198798 2.3535916e-08 0.059023123 0.30640116

fc.3.weight f4 [32, 64]
00000000: 8c80 dcbd 59f3 acbe abb2 7b3d 66ea acba
00000010: 50e3 0139 8371 9c3a 77c5 acbe bc7f ffbe
00000020: 7093 5fbb 5481 a43c 847e 5d37 fd1e 0cbb
00000030: fa6d d23c 3c0c 2bb8 ec41 b6b8 cf7b b93c
00000040: 060f 09bb 02a4 8d3d 2a00 0b38 dfea d5bd
00000050: f06c ad3b c4d0 06bf 6e43 d8be 90b4 40bb
00000060: 13c3 b9bb 51ee 1ebe ae49 80bc 4f57 deb8
00000070: c8b7 22b9 7fe7 4bbb 1a0b 033d 157e 5bbd
00000080: f3a0 4abb c887 8cb9 40b2 bc34 0147 11b8
00000090: 8eb5 4a38 899a 90bd becd c238 34a4 fb3d
000000a0: fbf2 983c 42b6 65b8 af7e 633e 7c51 573b
000000b0: 7a9e f339 b35c 0c3d ac42 9037 52b6 40bb
000000c0: a7b5 9a3a 2468 a0be 0025 4eb8 f309 f43a
000000d0: 6e30 0939 112f 0fbc 395e a2be 2267 8bbc
000000e0: ec3e 0338 4958 493e dbc9 b43e 20d7 85b9
000000f0: 2134 55bd e224 60b7 4c53 79ba 22e6 313e
00000100: b62c edbe 450a 8fbe 6961 6d3d 20b0 66bd
00000110: 44b4 9737 bd24 5cbd ee48 f3be 0016 49be
00000120: d937 533e 4132 fc3c 3dfe 0638 2ccf f1bb
00000130: 5875 ab3e 302c 0637 67cb 90bb 50a3 ed3c
00000140: 0f21 c63b 1d20 fabd 3439 d636 8289 853d
00000150: 0a39 6c3e d86c 66bb d1f9 e3bc ef18 a4bb
00000160: 963c 6bbc 7611 bdbd 7a09 8dbc 689b 1437
00000170: ea00 cb38 0c48 e9ba 0516 313b 304c 69bf
00000180: f8b2 433b 322f 8dbb 0434 e6b7 d0ac 4337
00000190: 6b49 0339 1ce3 313d bede 2cb9 a62b a33d
000001a0: 4a7a d13c 00ac e2b8 fd26 873e 6403 073e
000001b0: 2062 f539 d290 1cbc 2301 6339 c83f 123e
000001c0: e0ba f63b 61d8 04bf 9ed9 e7b8 563f de3b
000001d0: 9c0a 6538 e4e5 a4ba e01d 863d c488 643c
000001e0: fafe f638 d815 3c39 d988 063f 21e7 113b
000001f0: eec4 50bb 5c43 9138 a341 8fbb ece3 9ebc
00000200: c742 0439 020a cfb8 426e 1239 a85e e6b6
00000210: cc5e 5738 6cfe d5b8 2192 d039 d879 dd37
00000220: 76e9 63b8 a07a 9836 fc8c b9b9 4581 8cb9
00000230: ce66 17b9 c88f 1b39 3a44 c7b9 b99d 49b9
00000240: 9e4f 0cb9 3296 2c39 72bc c239 f516 a038
00000250: 68f3 77b9 244e 8536 461a a839 3e24 6bb9
00000260: 162c 02b9 4877 8038 e5cd b8b9 3cd6 46b9
00000270: aa97 7939 0ba6 2bb9 ce87 1ab9 2313 0eb9
00000280: 8076 1837 44c8 80b8 acc6 24b9 5048 bd36
00000290: 4e35 95b9 f49e d9b8 0082 9737 79cf bf39
000002a0: 08e2 7f38 0012 1e36 007a 1535 3467 9439
000002b0: b290 79b8 7cf4 1a39 48f4 28b9 2e97 0aba
000002c0: ce7e 21b9 9b48 b638 189d 6638 bef4 6bb9
000002d0: 6882 8237 782d 1238 a664 a039 ed6b 37b9
000002e0: cecc 0dba 3d03 87b9 eb67 2f39 3178 e0b9
000002f0: d4ec 95b8 1d83 7339 3eaa 9a38 509a d6b6
00000300: 1a07 26bd dbf4 dcbe daf2 48bd b082 553c
00000310: 2ede a136 736f 733b 86a5 fbbd 3f67 f4be
00000320: 0356 5fbb af08 8c3c 0859 99b8 98f9 c139
00000330: 003d 953d 2d3c 6fb8 307d b039 11de b1bc
00000340: 256b e2ba 314f 4f3e 4aed 2937 1ddf dfbd
00000350: 4af6 343b 547d 17bf 79d2 8fbe 0695 3cbb
00000360: b0b2 4239 f2d4 b0bd daeb 31bc 66b5 ae37
00000370: a9d4 4438 c256 15bb a4d0 ff3c 93ba 39bc
00000380: d67b afba 96c0 e83b 18e7 2238 32cb e438
00000390: 0f07 c7b7 baac c4bc dc22 1236 fa3c 4c3e
000003a0: d330 23be 7936 bb37 5f42 0d3e b6e2 a1bb
000003b0: b64a 8739 b4e6 283e 5b9f 3539 60cb 2e38
000003c0: 12ae a839 8f8f 0cbe 934c 1239 98d8 c53b
000003d0: 9e43 0338 bfbe 4abc 9ec9 81be 0688 3abd
000003e0: e32f bbb7 395c 2c3e 1501 0e3f 7011 3db9
000003f0: 3673 0abd 2f9a df38 8da2 c6ba ab74 e43e
-0.10766706 -0.3377941 0.061449688 -0.0013192415 0.00012387079 0.0011935685 -0.33744404 -0.4990214
-0.003411498 0.0200812 1.3202083e-05 -0.0021380775 0.025687207 -4.078097e-05 -8.690715e-05 0.022642044
-0.0020913496 0.06916048 3.3140335e-05 -0.10445189 0.0052925274 -0.526623 -0.42238945 -0.0029404499
-0.0056690066 -0.15520598 -0.015660133 -0.000106020474 -0.00015517988 -0.0031113324 0.03199301 -0.053587038
-0.0030918687 -0.00026804046 3.5147423e-07 -3.463682e-05 4.832964e-05 -0.07060725 9.288963e-05 0.12287179
0.01867055 -5.4767595e-05 0.22216295 0.0032854965 0.00046466646 0.034268092 1.7197184e-05 -0.0029405546
0.0011803404 -0.31329453 -4.9148686e-05 0.0018618688 0.0001308338 -0.008739249 -0.3171251 -0.017016951
3.1291434e-05 0.19662584 0.35310254 -0.00025528017 -0.052051667 -1.3360028e-05 -0.00095110084 0.17372945
-0.46323174 -0.27937523 0.057954226 -0.05632031 1.8084545e-05 -0.053745974 -0.47516578 -0.19637299
0.20626773 0.030785682 3.2184867e-05 -0.007379433 0.33487964 7.997311e-06 -0.0044187787 0.029008538
0.0060464214 -0.12213156 6.3843563e-06 0.06520368 0.23068634 -0.003516009 -0.027829083 -0.005007855
-0.0143577065 -0.09231846 -0.017216433 8.857671e-06 9.6799646e-05 -0.0017797961 0.0027021181 -0.9113188
0.0029861312 -0.0043086046 -2.7442358e-05 1.1663142e-05 0.00012520484 0.04342948 -0.00016486176 0.0796731
0.025571007 -0.00010808557 0.26396933 0.13184887 0.0004680315 -0.009556012 0.0002164883 0.14282143
0.0075296015 -0.5189267 -0.00011055473 0.0067824526 5.4607735e-05 -0.001258072 0.06548667 0.013948623
0.00011777687 0.00017937215 0.5255256 0.0022263008 -0.003185566 6.9266855e-05 -0.004371838 -0.019395791
0.00012613377 -9.872393e-05 0.00013964719 -6.8655536e-06 5.134828e-05 -0.00010204021 0.00039781726 2.640199e-05
-5.4338445e-05 4.5442284e-06 -0.0003539099 -0.00026799194 -0.0001443878 0.00014835515 -0.0003800707 -0.0001922761
-0.000133811 0.0001645915 0.00037142966 7.6336706e-05 -0.00023646432 3.9728056e-06 0.00032063032 -0.00022424848
-0.0001241419 6.1257335e-05 -0.00035248618 -0.0001896256 0.0002380299 -0.00016369687 -0.00014737176 -0.00013549304
9.087496e-06 -6.140818e-05 -0.0001571427 5.641057e-06 -0.0002845921 -0.00010376974 1.8061139e-05 0.00036584938
6.1007246e-05 2.3554312e-06 5.568436e-07 0.00028305652 -5.9500984e-05 0.00014777662 -0.0001611273 -0.000528681
-0.00015401395 8.69196e-05 5.4982578e-05 -0.0002250252 1.5557933e-05 3.485146e-05 0.00030592567 -0.00017492445
-0.00054092414 -0.0002575162 0.00016728013 -0.0004281416 -7.148986e-05 0.0002322313 7.375002e-05 -6.3956613e-06
-0.040534116 -0.4315556 -0.049059726 0.013031647 4.824039e-06 0.0037145286 -0.122874305 -0.4773502
-0.0034078367 0.017093984 -7.312192e-05 0.0003699779 0.072870255 -5.7038083e-05 0.00033662608 -0.021712335
-0.0017274363 0.20245053 1.0128433e-05 -0.10931227 0.002761262 -0.5917561 -0.28090265 -0.0028775348
0.00018567848 -0.08634366 -0.010859454 2.0826887e-05 4.6928097e-05 -0.0022787307 0.031227417 -0.011335987
-0.0013388346 0.007103036 3.8839033e-05 0.00010909735 -2.3725936e-05 -0.024008144 2.1775986e-06 0.19945136
-0.15936594 2.2317503e-05 0.1379485 -0.004940356 0.0002580487 0.16494256 0.0001732087 4.167424e-05
0.0003217315 -0.13726638 0.00013952171 0.006037783 3.1295807e-05 -0.012374579 -0.25349134 -0.04553988
-2.2314436e-05 0.16832055 0.554704 -0.0001803094 -0.03380128 0.000106621876 -0.0015154645 0.4462026

fc.3.bias f4 [32]
00000000: 00b2 33b6 08db 073b a0e4 b6ba ceb6 e7ba
00000010: c228 c4ba 9b75 793a ed84 ff3a e28d 733a
00000020: 7ebd 283b 22bd da3a 0bdc 6939 7727 cbba
00000030: ca63 1c3a a647 f03a 127c edb9 fbed 59ba
00000040: 2592 e03a 1c60 14b9 e88e 8539 74b0 dcba
00000050: 2c0d b4ba c501 d23a 3af1 33ba fcf8 4eb9
00000060: 00b0 ce39 5d11 6ebb f26e 58ba 2f4e 9c3a
00000070: 8061 b738 eef0 2e3a 9a5c b13a f4b6 93ba
-2.6776688e-06 0.0020729918 -0.0013953634 -0.0017678381 -0.001496576 0.0009516121 0.0019494571 0.00092908565
0.0025747712 0.0016688446 0.00022302584 -0.0015499432 0.00059657975 0.00183319 -0.00045296602 -0.0008313355
0.0017133398 -0.00014150183 0.0002547421 -0.0016837255 -0.0013736836 0.0016022256 -0.00068642537 -0.00019738445
0.00039422512 -0.0036326267 -0.0008256278 0.0011925156 8.744281e-05 0.00066734746 0.0013531626 -0.0011269734

fc.4.weight f4 [32]
00000000: 57dc 3d3f 2410 473f d815 07b8 d57c 5e3f
00000010: a84b cd3a 4232 6b3f b7bc 423f 1417 1e3f
00000020: 6420 353f 93d5 7e3f f947 213f 6fa6 3d3e
00000030: d6a4 cfb7 00b2 7a3f 8662 1d3f a490 ba3e
00000040: a179 053f 7861 613f 1411 203f 74b6 093f
00000050: da2f 533f b8fe 413f 6f23 04b9 7dd0 a73e
00000060: b9d7 ae3f 50c0 2e3f 1d5c 173f dd5c b43e
00000070: 8d65 413f b767 a83e 1bf1 ad3e 30d7 5b3f
0.74164337 0.77759004 -3.220685e-05 0.8690923 0.0015662806 0.9187356 0.76069206 0.61753964
0.7075255 0.9954464 0.63000447 0.1852052 -2.475308e-05 0.97927856 0.6147846 0.36438477
0.52138716 0.8803935 0.6252606 0.53794026 0.8249489 0.75779295 -0.00012601701 0.3277625
1.3659583 0.68262196 0.5912493 0.352271 0.7554558 0.32891628 0.3397301 0.85875225

fc.4.bias f4 [32]
00000000: 1417 6b3f 5b2e 7a3f 7e4c 8ab8 8440 4d3f
00000010: 84e5 ae36 3c3b 543f 446e 003f caa3 6f3e
00000020: 1eaf 2d3f 8909 133f 9e29 463f 8661 11bc
00000030: ba91 3cb8 fd1f 493f 2d7e 873f 27fb a53d
00000040: 7f78 843f b692 443f e5a5 873f c5d6 0d3f
00000050: 400d 443f 059f 7b3f e372 c137 30e5 19bc
00000060: 599c ee3e 04fc cd3e 77c7 863f 4445 033f
00000070: 54e1 7b3f 76d6 ba3d 6065 ad3e bacd 763f
0.9183209 0.9772698 -6.5946006e-05 0.8017657 5.2123232e-06 0.82902884 0.5016825 0.23402324
0.6784533 0.57436424 0.7740725 -0.008873349 -4.495841e-05 0.78564435 1.0585381 0.08104544
1.0349272 0.76786363 1.0597502 0.5540584 0.7658272 0.9828952 2.3060891e-05 -0.009393021
0.4660366 0.40231335 1.0529622 0.51277566 0.983907 0.091229364 0.33866405 0.96407664

fc.4.running_mean f4 [32]
00000000: 3ef9 aebf b09d 04bf a853 47ba 94b0 00bf
00000010: 03eb 733a 74ea 3ec0 6bea 1040 7036 c63f
00000020: 8b1e f9bf e2b0 fbbf 63ed 9cbf 8693 8b3d
00000030: 1147 90b9 4139 42c0 2cb4 07c0 406f 043f
00000040: 96a8 debf 1bed 5cbf d770 32c0 7d96 92bf
00000050: c7db 1cc0 f1ea 91bf 05a9 e039 0d5d 153d
00000060: 5760 c0bf dda9 ce3f d03f d7bf ea28 26bf
00000070: a21f 0ec0 2736 dc3e dce4 653f 3243 4bc0
-1.3669813 -0.5180311 -0.00076037133 -0.50269437 0.0009304734 -2.98306 2.2643077 1.5485363
-1.9462446 -1.9663355 -1.2259945 0.06815247 -0.0002751877 -3.0347445 -2.1203718 0.51732254
-1.7395198 -0.86299294 -2.7881372 -1.1452175 -2.4509141 -1.1399823 0.0004285054 0.036465693
-1.50294 1.6145588 -1.6816349 -0.6490618 -2.2206807 0.43010065 0.89802337 -3.1759763

fc.4.running_var f4 [32]
00000000: fdf5 ce40 cb3b a440 3ae6 2135 390b e340
00000010: 7eff 4837 af89 8740 3b58 6e40 3082 0d40
00000020: dce6 5f40 42ab b340 7ca2 5240 de41 2b3c
00000030: 087d 2035 1b9f 8b40 e734 b240 eb52 633f
00000040: 255a b840 1e0b e640 1421 f240 e869 1140
00000050: 2d0a 4240 2cb5 c140 d2c9 fe35 2f93 d43b
00000060: c8c8 8c40 d8b2 5540 165c ca40 2507 c83f
00000070: b1cc b540 727e 383f fa6d 4b3f 9125 e040
6.467528 5.132299 6.03122e-07 7.09512 1.1980415e-05 4.235557 3.7241352 2.211071
3.4984655 5.6146555 3.2911673 0.010452716 5.978659e-07 4.363172 5.568958 0.887984
5.761004 7.188857 7.566538 2.272089 3.031871 6.0533657 1.8983212e-06 0.006487272
4.3995094 3.3390408 6.323741 1.562718 5.6812367 0.7206794 0.79464686 7.0045857

fc.6.weight f4 [1, 32]
00000000: ea28 e43e 3758 023f e203 d636 a850 eb3e
00000010: 73f9 d438 5084 033f d56c af3e 13f1 603e
00000020: f4cf b33e 6f1a c53e fb65 b33e 0410 0abc
00000030: 48f2 9736 f2c1 fe3e f26b f93e f83f e03d
00000040: 4d50 d83e bc69 d53e bf3b 013f 6521 843e
00000050: 3f91 bc3e e852 053f abc4 11b7 b6fe 55bc
00000060: f48c 213f 4250 983e c8ae e73e 5f15 553e
00000070: de51 fc3e 0063 dc3d d514 003e 8f43 133f
0.44562465 0.50915855 6.378149e-06 0.45959973 0.00010155411 0.5137377 0.3426272 0.21966963
0.35119593 0.3849673 0.35038742 -0.00842667 4.528356e-06 0.49757344 0.48715168 0.10949701
0.42248765 0.4168223 0.5048179 0.25806728 0.36829564 0.5207963 -8.688464e-06 -0.013061216
0.631057 0.29748732 0.45250535 0.20808934 0.4928121 0.1076107 0.12507947 0.5752496
