best_model.pt (torch, 18146 bytes, 13 tensors)

fc.0.weight f4 [64, 10]
0	0x3ebd5a4d	0.36982957
1	0x3c898aae	0.01678976
2	0x3e1f8332	0.15577391
3	0xbf929c42	-1.1453936
4	0x3f84a0a9	1.036153
5	0x3efb1878	0.49042106
6	0xbd8ccaac	-0.06874594
7	0xbe5b3a75	-0.21409018
8	0xbcdf250c	-0.027239345
9	0x3e909fb5	0.28246847
10	0x3ee13f16	0.43993443
11	0x3f540e1b	0.82834023
12	0x3dfe6bfd	0.12422941
13	0xbfe14e1f	-1.7601966
14	0x3f31960c	0.6936958
15	0xbf10e65e	-0.5660151
16	0xbf0e9375	-0.5569375
17	0xbed3d1b6	-0.41370934
18	0xbe618391	-0.22022845
19	0x3ee73afe	0.45162195
20	0x3e0ded05	0.13859947
21	0x3e989a0d	0.2980503
22	0x3ed6d257	0.41957352
23	0x3e2c9bf4	0.16856366
24	0xbdb4168e	-0.087933645
25	0xbde26548	-0.11054474
26	0xbc9e1155	-0.019295374
27	0xbd86bbe8	-0.06578809
28	0x3e228a4b	0.15873067
29	0xbe07630a	-0.13221374
30	0x3f07e35e	0.5308131
31	0x3de637c7	0.112411074
32	0x3db5e5c1	0.08881713
33	0xbfa2af81	-1.270981
34	0x3f726d4e	0.94698036
35	0x3f008340	0.5020027
36	0x3e91f5e8	0.28507924
37	0xbeec5ee9	-0.4616616
38	0x3e8acc6b	0.27109084
39	0x3e71f2fb	0.23627846
40	0xbe4da04e	-0.20080683
41	0x3ec97d88	0.39353585
42	0x3d71ac1d	0.05900203
43	0x3f900d31	1.1254026
44	0xbe0cc810	-0.13748193
45	0xbd2dc151	-0.04242069
46	0x3ecf88ee	0.40534157
47	0x3e5a7939	0.21335305
48	0x3e6cef3f	0.2313814
49	0xbe235f9f	-0.15954445
50	0x3e3adcae	0.18248245
51	0x3fabe462	1.3429072
52	0x3e7ad964	0.2449699
53	0x3dca2616	0.098705456
54	0xbf47c3a7	-0.78032917
55	0x3e7a7c0b	0.24461381
56	0xbcda2cca	-0.026632685
57	0xbef873e4	-0.48525918
58	0xbe98dea8	-0.29857373
59	0x3f6ca401	0.9243775
60	0xbe4bbbfc	-0.19895929
61	0xbfc15280	-1.5103302
62	0x3e7e6486	0.24843034
63	0xbdce4f59	-0.10073728
64	0x3f43dd99	0.76510006
65	0x3e774090	0.24145722
66	0xbe6e71f1	-0.23285653
67	0xbe5f7e6e	-0.21825573
68	0xbe98cfbb	-0.29845986
69	0x3edf8335	0.4365479
70	0xbde288e4	-0.11061266
71	0x3ee38db0	0.44444036
72	0x3e80a7d5	0.25128046
73	0xbfdd032b	-1.7266592
74	0xbeeedb0e	-0.466515
75	0x3d7566ec	0.059912607
76	0x3f155459	0.5833183
77	0x3e7d3987	0.24728976
78	0xbeccad7e	-0.39976114
79	0x3f546603	0.8296816
80	0x3d210464	0.039310828
81	0x3c59830f	0.013275876
82	0x3d598505	0.053105373
83	0xbfd7f8b3	-1.6872772
84	0x3f14704f	0.5798387
85	0x3e9fcdae	0.3121161
86	0xbef098a7	-0.46991464
87	0x3eca7c27	0.39547846
88	0xbdb883cb	-0.090095125
89	0xbdc18bf4	-0.09450522
90	0xbd9a7d00	-0.07543373
91	0x3e1e6ae2	0.1547046
92	0x3eed1189	0.4630244
93	0x3e54f387	0.20796023
94	0x3d1e4fd0	0.038650334
95	0x3e5ea2e2	0.21741822
96	0xbd3bbdac	-0.045835182
97	0x3f1228de	0.5709361
98	0x3eb32c37	0.3499467
99	0xbfbbb600	-1.4664917
100	0xbf36b1ab	-0.7136485
101	0x3eb65b63	0.35616598
102	0x3ddd343e	0.1080098
103	0x3f21885f	0.6309871
104	0x3e07cbfb	0.13261406
105	0x3e9b0aa0	0.30281544
106	0xbd34d1c1	-0.04414535
107	0x3ea1cfb7	0.31603786
108	0x3ea1a613	0.31572017
109	0xbfbad008	-1.4594736
110	0x3f376fe9	0.71655136
111	0x3f7c9699	0.98667294
112	0x3e963b87	0.2934229
113	0xbf6b4628	-0.91903925
114	0x3f00cccf	0.50312513
115	0xbd15116c	-0.036393568
116	0xbc22ab79	-0.009928578
117	0x3dadc4a7	0.08484774
118	0x3e079124	0.1323896
119	0xbf01e300	-0.50737
120	0xbd89c867	-0.06727677
121	0x3ec18ba3	0.37801847
122	0xbe7beaa3	-0.24601226
123	0x3f35c956	0.7101034
124	0xbe11cb2f	-0.14237665
125	0xbeb38c76	-0.350681
126	0xbc64ec4b	-0.013972352
127	0x3e65caa1	0.22440578
128	0x3e8c2557	0.27372238
129	0xbf367319	-0.71269375
130	0xbf47ae97	-0.7800078
131	0xbf51bc66	-0.819281
132	0x3ddc92ad	0.10770164
133	0xbf15a4f0	-0.584548
134	0x3f14e562	0.5816251
135	0xbf6d11bb	-0.9260518
136	0x3e0dc8c0	0.13846111
137	0x3f2118f0	0.62928677
138	0xbeb8a836	-0.36065835
139	0x3dc2d965	0.09514121
140	0xbe15a7bd	-0.14614768
141	0x3e9aa537	0.30204174
142	0x3e898fab	0.26867422
143	0x3d4f753f	0.050648924
144	0x3ef767d6	0.48321408
145	0x3d256b7b	0.040385704
146	0xbe087239	-0.13324822
147	0x3ed68895	0.4190108
148	0x3eaa174a	0.33220893
149	0xbfbd6c01	-1.4798585
150	0x3ed3d115	0.41370454
151	0x3e6d3dca	0.23168102
152	0x3c72a3e4	0.014809582
153	0xbef7bfb2	-0.4838844
154	0xbf8aa5e3	-1.0831875
155	0xbef017b4	-0.46893084
156	0x3f05c213	0.5224926
157	0xbcb0bb85	-0.021573791
158	0x3ec34252	0.38136536
159	0x3e19142e	0.14949104
160	0xbf087e5b	-0.53317803
161	0x3f59770d	0.8494728
162	0xbe00c267	-0.12574159
163	0x3efe7a8e	0.49702877
164	0x3c86eb5d	0.016469652
165	0x3d6152d4	0.05501063
166	0xbcc08d2f	-0.023504822
167	0x3ed1c7ca	0.4097274
168	0x3eb97f0c	0.36229742
169	0xbfb4e282	-1.4131625
170	0x3edcf296	0.43153828
171	0x3d4e4a7d	0.050364006
172	0x3de33722	0.110945
173	0x3c267212	0.010159032
174	0x3ed64b12	0.4185415
175	0xbeb8a67d	-0.3606452
176	0xbf082807	-0.53186077
177	0xbf860fa9	-1.0473529
178	0xbeb44bab	-0.3521398
179	0x3fa30bbf	1.273796
180	0xbea0b63b	-0.3138903
181	0xbdf5a028	-0.11993438
182	0x3ea87828	0.32904172
183	0x3bb51c72	0.0055270726
184	0x3e2f1fff	0.1710205
185	0x3eb6c0d8	0.35694003
186	0x3ec1958c	0.37809408
187	0x3eaf5b19	0.3424919
188	0x3e620c51	0.22075011
189	0xbf7fe81a	-0.99963534
190	0xbed3923f	-0.41322514
191	0xbe60811e	-0.21924254
192	0x3e0a571c	0.13509792
193	0x3eb0d23f	0.34535405
194	0x3f455a46	0.7709087
195	0x3e4fde53	0.20299654
196	0xbe1be56d	-0.15224238
197	0x3eb57b17	0.35445473
198	0x3ed15b31	0.40889886
199	0xbfaed92f	-1.3660029
200	0xbf9f69f6	-1.2454212
201	0x3d271206	0.040788673
202	0xbe0df1b2	-0.1386173
203	0x3ee6fd22	0.45115
204	0x3f721713	0.9456646
205	0xbf354d9a	-0.70821536
206	0xbf015c90	-0.50531864
207	0x3f3abcb4	0.7294419
208	0x3d6c94bb	0.057759028
209	0xbf358234	-0.709018
210	0x3f56c08b	0.8388755
211	0x3e0b0046	0.13574323
212	0x3e9507b4	0.2910744
213	0xbfd2e27d	-1.6475369
214	0x3f5f1d07	0.8715367
215	0xbf4a9c95	-0.79145175
216	0xbf8adf22	-1.0849345
217	0x3d942627	0.072338395
218	0xbd6bb068	-0.05754128
219	0xbe4db875	-0.20089896
220	0x3eb50921	0.35358527
221	0x3e191470	0.14949203
222	0xbda72a91	-0.08162416
223	0xbfa01ce6	-1.2508819
224	0xb9fcc2a0	-0.00048210192
225	0x3e38b781	0.18038751
226	0xbf122e02	-0.5710145
227	0xbdcda70d	-0.10041628
228	0xbef1fa9d	-0.47261515
229	0x3da03882	0.07823278
230	0x3d98ce1c	0.07461187
231	0xbca5edf1	-0.02025506
232	0x3f593f3c	0.84862113
233	0x3f454e6e	0.770728
234	0xbf2cdfc9	-0.6752897
235	0xbf831e2d	-1.0243584
236	0x3eb374e1	0.3505011
237	0xbedadaf8	-0.42745185
238	0xbeee07bb	-0.46490273
239	0x3f42b5ef	0.7605886
240	0x3d17e197	0.037080374
241	0x3d789e08	0.060697585
242	0x3ef723e8	0.48269582
243	0xbf44b5e8	-0.76840067
244	0xbe446b7c	-0.19181627
245	0x3e48b93b	0.1960191
246	0xbe7755e4	-0.24153858
247	0x3e2d6647	0.16933547
248	0xbf2f4abd	-0.68473417
249	0x3ecd25ea	0.4006799
250	0x3d426ef3	0.04746909
251	0xbf243f00	-0.6415863
252	0xbf05d794	-0.5228207
253	0xbf14b6a3	-0.5809118
254	0x3f76b0b0	0.96363354
255	0xbef2c6bc	-0.47417247

fc.0.bias f4 [64]
0	0x3a573f90	0.00082110707
1	0x3994f7b8	0.00028413325
2	0x3a9ebeb2	0.0012111275
3	0x3a6ea38f	0.00091033516
4	0xbb04acfa	-0.0020244704
5	0x3accf0b2	0.0015635698
6	0x3a3c4088	0.0007181247
7	0xba260e79	-0.0006334554
8	0x39cd503f	0.00039160435
9	0xbb3e1479	-0.0029003902
10	0x3ab1674e	0.0013534816
11	0xb91ea3e0	-0.00015129102
12	0x39eedcf4	0.0004555952
13	0x3a1718b6	0.0005763875
14	0x3a0c7a54	0.00053588045
15	0xba249a5e	-0.0006279106
16	0x3aeb3c83	0.0017947111
17	0xba862088	-0.0010233084
18	0x39cce824	0.0003908287
19	0x39016428	0.0001233971
20	0xbb29784a	-0.0025859051
21	0xb9cb917e	-0.00038827577
22	0xb8bb54e0	-8.932664e-05
23	0x3a966dbf	0.0011476799
24	0x39fed08d	0.00048602038
25	0xb98baf62	-0.00026642816
26	0xb9fddedc	-0.00048421964
27	0xbb49eee6	-0.003081256
28	0xbaaca45c	-0.0013171542
29	0xbac68d9e	-0.0015148406
30	0x3a2de8a2	0.0006634091
31	0x3aa53a16	0.0012605812
32	0xbae22581	-0.0017253609
33	0xbaf07d47	-0.0018347882
34	0x37036810	7.832437e-06
35	0xba8cd466	-0.0010744452
36	0x3812ffa0	3.5047182e-05
37	0xbb02bab4	-0.001994771
38	0xb94245e4	-0.00018527318
39	0x396b6740	0.0002244981
40	0xbabb8a8c	-0.0014308258
41	0x3b2699ac	0.0025421185
42	0x3986b068	0.00025689905
43	0xbab864bf	-0.0014068111
44	0xba59260c	-0.00082835625
45	0xba6fbbde	-0.0009145121
46	0x393bb0ba	0.00017899545
47	0x3b06a868	0.0020547155
48	0xba08cfb6	-0.00052189396
49	0x39835c26	0.00025054923
50	0x3ad36768	0.001612884
51	0x397d2d70	0.00024144887
52	0x3893948e	7.037177e-05
53	0x38c1fb5e	9.249778e-05
54	0xb9cf60d6	-0.00039554265
55	0x394ee742	0.00019731841
56	0xbaba61c5	-0.0014219811
57	0x39734204	0.00023198879
58	0x3a39a7c2	0.0007082188
59	0x3b149d5f	0.0022676808
60	0xbab27607	-0.0013615497
61	0xba834ee6	-0.001001802
62	0x3b99ac28	0.004689712
63	0x3a2ac9a4	0.0006515032

fc.1.weight f4 [64]
0	0x3f51b95d	0.81923467
1	0x3fa1ba47	1.2634972
2	0x3e56b650	0.20967984
3	0x3f44f28f	0.76932615
4	0x3edca2ee	0.43093055
5	0x3f8863ac	1.0655417
6	0x3fe10db3	1.7582306
7	0x3faea799	1.3644897
8	0x3f84d044	1.0376058
9	0x3f63b673	0.8895027
10	0x3fb7eb4f	1.4368685
11	0x3f0e5e9f	0.5561313
12	0x3edd4415	0.43216005
13	0x3f396728	0.7242303
14	0x3f7ca04d	0.986821
15	0x3f44f24f	0.76932234
16	0x3f652e47	0.8952374
17	0x3f994490	1.1974049
18	0x3ed169f4	0.40901148
19	0x3f9bc622	1.216984
20	0x3fc138ba	1.5095437
21	0x3fa987a0	1.3244514
22	0x3f45c422	0.772524
23	0x3f7eb43e	0.9949378
24	0x3f37c119	0.7177902
25	0x3fd1c308	1.6387644
26	0x3f1fa9de	0.6236857
27	0x3eb1cbe8	0.3472588
28	0x3eb38314	0.35060942
29	0x3f9fd52c	1.248693
30	0x3f887dd6	1.0663402
31	0x3fde0cc9	1.7347652
32	0x3f58748e	0.8455285
33	0x3f000e0b	0.5002143
34	0x3f9424a2	1.157368
35	0x3fc8a615	1.5675684
36	0x3f33a7ad	0.7017773
37	0x3fb82203	1.438538
38	0x3fa2a6ba	1.2707131
39	0x3ed1be78	0.4096563
40	0x3e5ec04c	0.21753043
41	0x3f65140e	0.89483726
42	0x3f360eaf	0.71116155
43	0x3f934c40	1.1507645
44	0x3f907f02	1.128876
45	0x3f5ed61a	0.87045443
46	0x3f102025	0.5629905
47	0x3f132f56	0.57494104
48	0x3ea88ba1	0.32919028
49	0x3fa69d27	1.3016709
50	0x3f919d9a	1.1376221
51	0x3fa721c7	1.3057183
52	0x3f17aec6	0.5925106
53	0x3fda41e3	1.7051357
54	0x3f974dee	1.1820657
55	0x3f89f968	1.0779238
56	0x3fabd118	1.3423185
57	0x3fbc830f	1.4727496
58	0x3fafc4b0	1.3731899
59	0x3f0a4b51	0.54021174
60	0x3f62509b	0.88404244
61	0x3f422475	0.7583688
62	0x3f895f47	1.0732201
63	0x3f02d445	0.5110515

fc.1.bias f4 [64]
0	0x3ecb91ba	0.39759618
1	0xbecb1c85	-0.39670196
2	0xbed378a3	-0.41302976
3	0x3ebf789b	0.37396702
4	0x3ea01b13	0.31270656
5	0x3f150211	0.5820628
6	0xbf3c99ad	-0.7367199
7	0xbea67b21	-0.32515815
8	0x3f8b8a6c	1.0901618
9	0x3ec148b2	0.37750775
10	0x3f2df368	0.67949533
11	0x3f605850	0.87634754
12	0x3e4ee1ca	0.20203319
13	0xbd1f8a5e	-0.038950317
14	0x3ef0741c	0.46963584
15	0xbe3e47fa	-0.18582144
16	0x3ec2ba2a	0.38032657
17	0x3e829fc3	0.25512514
18	0x3eaec9b2	0.34138256
19	0x3f30d98d	0.69081956
20	0xbeb3dd3f	-0.35129735
21	0xbf1efb79	-0.62102467
22	0x3f265647	0.649754
23	0x3ed568f0	0.41681623
24	0x3d477512	0.04869563
25	0xbbc2c4ab	-0.005943855
26	0x3fa3e529	1.2804309
27	0x3ee89186	0.45423526
28	0xbe9f09e7	-0.31062242
29	0x3f65e991	0.8980952
30	0x3ed67323	0.41884717
31	0xbf8998d8	-1.0749769
32	0xbf985e42	-1.1903765
33	0x3e4a18b7	0.1973599
34	0xbe3352f2	-0.1751211
35	0xbefe47be	-0.4966411
36	0xbecf551d	-0.40494624
37	0x3d9451c2	0.072421566
38	0xbbbdbc7a	-0.0057902904
39	0x3e9052a8	0.28188062
40	0xbefa1b16	-0.4884879
41	0x3dc1dd23	0.094660066
42	0x3e466810	0.19375634
43	0x3dde0122	0.1084006
44	0xbe7f102b	-0.24908511
45	0xbd807020	-0.06271386
46	0xbf3ba605	-0.733002
47	0x3ea0dc8f	0.31418273
48	0xbea9a38b	-0.33132586
49	0x3e5aaf92	0.21356037
50	0x3f2a7b1c	0.665941
51	0xbead3eee	-0.33837074
52	0xbe8c64a9	-0.27420548
53	0x3ec19fed	0.37817326
54	0xbe113598	-0.141806
55	0xbe302a75	-0.17203696
56	0x3f1c8a3f	0.61148447
57	0x3f427be5	0.759703
58	0x3f8ba798	1.091052
59	0x3f0eb654	0.5574696
60	0x3e1a39cc	0.1506111
61	0xbf7985a6	-0.97469556
62	0x3f787627	0.97055286
63	0x3f4c21e7	0.7973923

fc.1.running_mean f4 [64]
0	0x3ba83012	0.0051326836
1	0xbd60c357	-0.05487379
2	0x3cc93e64	0.024565883
3	0x3ca47777	0.020076497
4	0x3e126d6c	0.14299554
5	0x3db3a69d	0.08772013
6	0xbdc6fa08	-0.097156584
7	0x3e811f24	0.2521907
8	0x3d6e7772	0.05821938
9	0xbde431ae	-0.11142288
10	0xbe7ee695	-0.24892648
11	0x3a9ca260	0.0011950247
12	0xbd2265b3	-0.03964777
13	0x3dca2522	0.09870364
14	0xbe3d69aa	-0.18497339
15	0x3e3e0013	0.18554716
16	0xbe2b7b8d	-0.1674635
17	0xbd941f4e	-0.072325334
18	0xbde158f1	-0.11003292
19	0xbe3c459a	-0.18385926
20	0xbb899f55	-0.004199902
21	0xbd433a70	-0.047663152
22	0xbe339b7d	-0.17539783
23	0x3a0cc840	0.0005370416
24	0xbc40af98	-0.011760615
25	0xbe3dc0ea	-0.18530622
26	0xbd13b472	-0.036060758
27	0x3da4f24a	0.080540255
28	0xbdc50a5c	-0.096211165
29	0xbdbd641d	-0.09247611
30	0xbc9b6c54	-0.018972553
31	0x3cc87ff1	0.02447507
32	0xbae8e160	-0.0017767362
33	0xbdf82e45	-0.121182
34	0xbcbe0240	-0.023194432
35	0xbe227bb9	-0.15867509
36	0xbe476b89	-0.19474615
37	0x3d15f9d3	0.036615204
38	0x3e1e6dc9	0.15471567
39	0xbd80f78d	-0.062972166
40	0xbe0e7065	-0.13910063
41	0x3cd504af	0.02600321
42	0x3ddf2fad	0.10897765
43	0xbdd47264	-0.10373381
44	0xbdcb3521	-0.09922243
45	0x3e04df10	0.12975717
46	0x3dcef112	0.10104574
47	0x3e22f386	0.1591321
48	0xbd3d04bf	-0.046147104
49	0xbdee4a2d	-0.11635242
50	0x3c1b7562	0.009488435
51	0xbdda31db	-0.106540404
52	0xbdd3d9ad	-0.10344253
53	0x3e62874f	0.22121929
54	0x3e471be4	0.19444233
55	0xbcdbf622	-0.026850764
56	0xbe393824	-0.18087822
57	0xbcb02d88	-0.021506086
58	0x3d357a34	0.044305995
59	0x3dfe64fe	0.124216065
60	0xbd2daf73	-0.04240365
61	0x3d484981	0.048898224
62	0x3e0a46ba	0.13503543
63	0xbe35caa5	-0.17753084

fc.1.running_var f4 [64]
0	0x3e60d314	0.2195552
1	0x3fd1d06f	1.6391734
2	0x3f28f2a7	0.6599526
3	0x3f87c1e4	1.0606046
4	0x40301d35	2.7517827
5	0x3f8d5406	1.1041267
6	0x3f959969	1.1687442
7	0x3fbcdb84	1.4754491
8	0x3fbb1ccc	1.4618163
9	0x4021a543	2.5257118
10	0x3ffb9246	1.9654014
11	0x402862bf	2.631027
12	0x3f0e5280	0.55594635
13	0x408dba98	4.4290276
14	0x4008dd5f	2.1385114
15	0x3f45b2e3	0.77226084
16	0x3ff4a37b	1.911239
17	0x3f62684d	0.884404
18	0x3fba2b08	1.4544382
19	0x3fe0f091	1.7573415
20	0x3fac4461	1.3458368
21	0x402e27aa	2.721171
22	0x3fe965c9	1.8234187
23	0x3f0384d6	0.51374567
24	0x3f16a675	0.58847743
25	0x3fffa34a	1.9971707
26	0x401968bc	2.3970175
27	0x403e6850	2.9751167
28	0x3edd12ce	0.4317841
29	0x3ebaaaaf	0.36458346
30	0x3f0b5fc6	0.54443014
31	0x3f21397d	0.62978345
32	0x4074c54e	3.8245425
33	0x3f711318	0.9416976
34	0x4033b003	2.807618
35	0x3f2baac2	0.6705743
36	0x3e8a06a2	0.26958185
37	0x3fc65d79	1.5497276
38	0x3f10753c	0.56428885
39	0x4075af48	3.8388233
40	0x3f832645	1.0246054
41	0x3fd4ecf9	1.6634818
42	0x3ee0d101	0.43909457
43	0x3e84d56c	0.25944078
44	0x3f9116c7	1.1335076
45	0x3e95903d	0.29211608
46	0x3fa7cbe0	1.3109093
47	0x3fb8e479	1.4444724
48	0x3ea258d4	0.31708395
49	0x3faa63f5	1.3311754
50	0x400f91ec	2.2432814
51	0x40145142	2.3174596
52	0x3fa51d77	1.2899617
53	0x3ec5aa8d	0.38606682
54	0x3f4cfec4	0.8007624
55	0x3ef1ccc5	0.4722654
56	0x3ed11447	0.40835783
57	0x3dfd5555	0.123697914
58	0x3f6553f4	0.8958123
59	0x3fe12287	1.7588662
60	0x3f3bed3f	0.73408884
61	0x3f90538d	1.1275498
62	0x404cb9a1	3.19883
63	0x400c1086	2.1885085

fc.3.weight f4 [32, 64]
0	0xbe585a92	-0.211283
1	0xbe97f6f3	-0.29680595
2	0xba84a662	-0.0010120387
3	0xbd2ecd44	-0.042676225
4	0x3dd7b1d3	0.10531964
5	0x3f13cfe9	0.5773912
6	0xbee3eea0	-0.44517994
7	0xbec7002f	-0.38867328
8	0xbeb13549	-0.34610966
9	0xbdbc9175	-0.09207431
10	0xbda62762	-0.081129804
11	0xbe832111	-0.25611165
12	0x3e204a85	0.15653427
13	0xbd565732	-0.05232925
14	0xbebb81e7	-0.36622545
15	0xbe1f5a44	-0.15561777
16	0xbd010494	-0.031498507
17	0x3e599240	0.21247196
18	0xbd96dbf7	-0.07366174
19	0xbe58ad83	-0.2115994
20	0xbee1cee9	-0.44103172
21	0xbf028dc3	-0.5099756
22	0xbe29cc64	-0.16581875
23	0x3f073ab0	0.52823925
24	0xbc818137	-0.015808685
25	0xbe8606d7	-0.26177093
26	0xbea92d19	-0.3304222
27	0xbc55b606	-0.013043886
28	0xbd285f2f	-0.0411064
29	0xbf3c24de	-0.73493755
30	0xbf11f3f5	-0.57012874
31	0xbe9150a7	-0.28381845
32	0xbe3fc663	-0.18728022
33	0x3e737f6c	0.23779076
34	0xbec4aef4	-0.3841473
35	0x3f28a375	0.65874416
36	0xbea293fb	-0.31753525
37	0xbe8275ae	-0.25480407
38	0x3f3933a0	0.723444
39	0xbda504b4	-0.08057538
40	0x3e1572d0	0.14594579
41	0xbe5e0a1c	-0.21683544
42	0x3e762545	0.24037655
43	0x3e61af6d	0.22039576
44	0x3f082c21	0.53192335
45	0x3f146095	0.5795987
46	0x3dcbe815	0.099563755
47	0xbbc8fb3e	-0.006133466
48	0xbd6893d9	-0.056781624
49	0xbe913f2b	-0.28368506
50	0xbe5e14ce	-0.21687624
51	0xbf3841f0	-0.7197561
52	0x3dd46bc2	0.10372116
53	0x3ccb6fec	0.024833642
54	0xbef1c6fd	-0.4722213
55	0xbf516327	-0.8179192
56	0xbf629312	-0.8850566
57	0x3fa909b2	1.3206084
58	0x3e413622	0.18868306
59	0x3d2a7c97	0.041622724
60	0x3ca6537b	0.020303478
61	0xbe4553e0	-0.19270277
62	0x3d64a088	0.055817157
63	0xbd7e67c8	-0.062110692
64	0xbf5ad9fa	-0.85488856
65	0xbe924b70	-0.2857318
66	0xbb97e73e	-0.0046357205
67	0xbf17716c	-0.59157443
68	0xbe0de3ec	-0.13856477
69	0xbe2253d7	-0.15852295
70	0xbf773844	-0.9657023
71	0xbdf9035b	-0.12158843
72	0x3e82eef7	0.2557294
73	0xbd90e165	-0.070742406
74	0x3e76a933	0.24087982
75	0xbea76a67	-0.32698366
76	0x3dcb81e5	0.09936885
77	0x3d162bfc	0.03666304
78	0x3da1e341	0.07904673
79	0x3ed148d0	0.40875864
80	0x3e2c915f	0.1685233
81	0xbef494e9	-0.4776986
82	0x3a85b1a4	0.0010200036
83	0xbdfafdde	-0.122554526
84	0x3de0fe0d	0.10985956
85	0xbdbef12e	-0.09323345
86	0x3e136c36	0.14396748
87	0x3eced714	0.40398467
88	0x3e6b8ab2	0.23002127
89	0xbf27c8d0	-0.6554079
90	0x3d273dfc	0.040830597
91	0xbe35b13a	-0.17743388
92	0xbe061ed1	-0.13097693
93	0xbf4b223d	-0.7934912
94	0xbf2c7ca4	-0.67377687
95	0xbf32ab92	-0.69793046
96	0xbe29d5d1	-0.1658547
97	0xbec0033b	-0.37502465
98	0x3e20b66c	0.15694588
99	0x3eee3edb	0.4653233
100	0x3ee64409	0.44973782
101	0x3eb5b276	0.35487717
102	0x3fa1fb8b	1.265489
103	0xbe3c5a1f	-0.18393753
104	0x3a67ee4a	0.00088474585
105	0xbd61632d	-0.055026222
106	0x3e9ca91c	0.3059777
107	0x3f28dfbb	0.65966386
108	0xbde8e956	-0.1137263
109	0x3eb6ec28	0.35727048
110	0xba0d3830	-0.0005387096
111	0x3e8628a8	0.26202893
112	0xbe1eec97	-0.1551994
113	0xbf135373	-0.5754921
114	0x3e23b53e	0.15987107
115	0xbdf3a99b	-0.11897584
116	0x3e91a47e	0.2844581
117	0xbf578602	-0.84188855
118	0xbe8121b0	-0.25221014
119	0xbe1f0db5	-0.15532573
120	0xbeeb5490	-0.45962954
121	0x3f2b080d	0.6680916
122	0x3ea921ea	0.33033687
123	0xbe050086	-0.12988481
124	0x3bf67223	0.0075209304
125	0xbec1fc35	-0.3788773
126	0xbcf90a2e	-0.030400362
127	0xbe70eebe	-0.23528573
128	0x3d4c7d88	0.049924403
129	0x3cbfab0b	0.02339699
130	0xbd8a3cca	-0.06749876
131	0x3a56f245	0.0008199553
132	0xbc1652c1	-0.0091750035
133	0xbd287116	-0.041123472
134	0xbdb0f0da	-0.08639689
135	0x3e1db4be	0.15400979
136	0x3e2ae817	0.16690098
137	0xbe0d03d1	-0.13770987
138	0x3a014704	0.00049315416
139	0xbdf4794f	-0.119372
140	0xbe2089b5	-0.15677531
141	0xbc4cc2bc	-0.0124976
142	0xbd7c7f41	-0.061644796
143	0x3de54a0f	0.11195766
144	0xbc722840	-0.014780104
145	0x3d2b8288	0.04187253
146	0xbe03edfc	-0.12883753
147	0xbda2df11	-0.07952703
148	0x3b1b86d8	0.0023731496
149	0x3d9a1a9b	0.07524606
150	0x3e80f878	0.25189567
151	0x3c265722	0.01015261
152	0x3ca7b890	0.020473748
153	0xbd24b00e	-0.04020696
154	0x3dad8932	0.084734336
155	0x38fbf78c	0.00012014722
156	0x3855a0fd	5.093309e-05
157	0x3e2ba037	0.16760336
158	0x3e0d3959	0.13791408
159	0x3d7461e7	0.05966368
160	0x3d2c6140	0.042084932
161	0xbd39207c	-0.045196995
162	0xbd398393	-0.045291495
163	0xbddbbc1e	-0.1072924
164	0x3da4b829	0.08042938
165	0x3e1383a4	0.14405686
166	0x3e02b9d2	0.12766197
167	0xbd55149a	-0.0520216
168	0xb61ffd4c	-2.3840284e-06
169	0x3d86a0d4	0.06573644
170	0x3d503f3a	0.050841548
171	0xbec2aaf9	-0.38021067
172	0xb88bdcd9	-6.6691726e-05
173	0xbe4087e6	-0.18801841
174	0xbad067d9	-0.001590009
175	0x3c662de3	0.014049026
176	0xb91bf27d	-0.00014872286
177	0x3dcdd66b	0.100506626
178	0x3e1a4f2a	0.15069261
179	0xbe469a07	-0.19394694
180	0xbd977bc0	-0.0739665
181	0xbe99f439	-0.3006914
182	0x3af4e962	0.0018685276
183	0xb9ca4b15	-0.00038584383
184	0x3d462e67	0.048384096
185	0x3ecacf41	0.39611247
186	0xbe86ce3a	-0.26329213
187	0xb81f1221	-3.7925438e-05
188	0xbe17ddcc	-0.14830703
189	0x3d9b0e64	0.07571104
190	0xbe645ba1	-0.22300579
191	0xbe1b56a5	-0.15169771
192	0xbe7a8264	-0.24463803
193	0xbf7df623	-0.992037
194	0xbaec7a46	-0.0018041811
195	0xbe249f94	-0.16076499
196	0x3e851011	0.2598882
197	0x3dd62bf4	0.10457602
198	0xbf2b33a0	-0.6687565
199	0xbf6a7f25	-0.9160026
200	0xbf3510ef	-0.70728964
201	0x3ddc8f88	0.10769564
202	0x3ea4e7c5	0.32208076
203	0x3e856614	0.26054442
204	0x3df76cb4	0.1208128
205	0xbf388148	-0.7207227
206	0x3e69a805	0.22818
207	0xbebfc950	-0.37458277
208	0x3dd77236	0.10519831
209	0x3e057c0a	0.13035598
210	0xbc1afd3d	-0.009459791
211	0x3bb9f129	0.0056745005
212	0xbf0924b0	-0.53571606
213	0xbf7fc94e	-0.9991654
214	0xbf4d1b82	-0.801201
215	0x3e4b8e21	0.19878437
216	0xbea764a7	-0.3269398
217	0xbf47d1c4	-0.7805445
218	0xbf2db07e	-0.6784743
219	0x3e7a74ba	0.2445859
220	0x3d88ef50	0.0668627
221	0xbe4bd707	-0.19906245
222	0xbc845e23	-0.01615817
223	0xbf06ed07	-0.52705425
224	0xbe60e3af	-0.21961854
225	0xbd7f692d	-0.062356163
226	0xbe84115b	-0.2579449
227	0x3ec7864b	0.38969645
228	0x3dc51c4e	0.09624539
229	0xbf26565a	-0.6497551
230	0x3e65bf91	0.22436358
231	0x3e2107a7	0.15725575
232	0xbdba0cbb	-0.090844594
233	0xbf1c6714	-0.61094785
234	0x3ecbeb04	0.3982774
235	0x3e3d99c7	0.18515693
236	0x3e1ef0b3	0.15521507
237	0xbd273a5c	-0.04082714
238	0xbe1abd49	-0.15111269
239	0xbf1f0f57	-0.6213278
240	0x3d39238a	0.04519991
241	0xbefa5120	-0.48890018
242	0xbfae18cd	-1.3601319
243	0xbf0ee13b	-0.55812424
244	0xbbd9ef28	-0.006650824
245	0xbd4c0d0f	-0.04981714
246	0xbf5b39a0	-0.85634804
247	0x3c86377f	0.016383884
248	0x3d3d89ae	0.04627388
249	0x3f1c2ef3	0.6100914
250	0x3eff6cda	0.49887735
251	0x3ec7fb0f	0.3905873
252	0x3e5e4257	0.21704994
253	0xbdccf726	-0.10008077
254	0x3ebff999	0.37495115
255	0x3e905c78	0.28195548

fc.3.bias f4 [32]
0	0x3a003456	0.0004890611
1	0x3a6bcec4	0.0008995349
2	0x3ab8121b	0.0014043482
3	0x3aa2dbf8	0.0012425175
4	0xb8ceb160	-9.855884e-05
5	0xba11ca5c	-0.0005561465
6	0xbad52844	-0.001626261
7	0xba2b3a48	-0.0006531817
8	0x3afab835	0.0019128384
9	0x3ae349ca	0.0017340716
10	0x39b5a0c4	0.0003464279
11	0xb80fa0b8	-3.4243538e-05
12	0x3a3f267c	0.00072918064
13	0xb8393e20	-4.4165296e-05
14	0x3a515c2e	0.0007986453
15	0x3b569960	0.0032745227
16	0xb9aa3b38	-0.00032469048
17	0xb8c025e0	-9.162328e-05
18	0xb8ecb20c	-0.00011286521
19	0xbaa5d505	-0.0012651986
20	0x3aaa12d0	0.0012975577
21	0xbae7ecf6	-0.0017694521
22	0x38577af8	5.1374518e-05
23	0x3a7c5a81	0.0009626523
24	0x3ae9bc32	0.0017832576
25	0x3b0f965e	0.0021909694
26	0xba8713ca	-0.001030558
27	0x3ab3ffb8	0.0013732826
28	0x39082660	0.00012984267
29	0xbaea11f0	-0.0017858129
30	0xbaf7fca1	-0.0018919894
31	0x3a1233ee	0.0005577196

fc.4.weight f4 [32]
0	0x3f7cff78	0.98827314
1	0x3f94f379	1.1636802
2	0x3e694e03	0.22783665
3	0x3f31facc	0.6952331
4	0x3e8626de	0.26201528
5	0x3f556c95	0.8336881
6	0x3f1f2255	0.6216176
7	0x3e8a5aec	0.27022493
8	0x3f3c0611	0.73446757
9	0x3f4bdd27	0.79634327
10	0x3f5588c6	0.83411825
11	0x3f1c376b	0.6102206
12	0x3e876eae	0.2645163
13	0x3f918178	1.1367636
14	0x3f7a7361	0.97832304
15	0x3ef57df3	0.47947654
16	0x3f524097	0.82129806
17	0x3f4e3058	0.80542517
18	0x3f543ceb	0.82905453
19	0x3f2c64f9	0.6734157
20	0x3f49d9e4	0.788481
21	0x3f3db57c	0.7410505
22	0x3e541282	0.20710185
23	0x3f293cc5	0.6610835
24	0x3f34fac0	0.70695114
25	0x3f57f236	0.8435396
26	0x3f4252d5	0.7590764
27	0x3f3b9d44	0.73286843
28	0x3f2b9213	0.67019767
29	0x3efc3391	0.49258092
30	0x3f2c2224	0.67239594
31	0x3f7c6eff	0.98606867

fc.4.bias f4 [32]
0	0x3f48b924	0.784075
1	0x3f06a2f5	0.525924
2	0xbe907836	-0.28216714
3	0x3f7a6f50	0.978261
4	0xbe53ba81	-0.20676614
5	0x3f501e5d	0.8129633
6	0x3f1d7398	0.6150451
7	0x3f3b1fc4	0.73095345
8	0x3efccaee	0.49373573
9	0x3f6aea78	0.9176402
10	0x3ed95e94	0.4245497
11	0x3e22edad	0.15910979
12	0xbe940182	-0.289074
13	0x3f50aaf6	0.81510866
14	0x3f68b359	0.9089866
15	0x3dee84fc	0.116464585
16	0x3f77910b	0.96705693
17	0x3f7d8431	0.99029833
18	0x3f614039	0.8798862
19	0x3ead432a	0.33840305
20	0x3f767142	0.9626657
21	0x3f663e2f	0.89938635
22	0xbe5a9cec	-0.21348923
23	0x3eb01233	0.34388885
24	0x3f7f80d9	0.9980598
25	0x3ea5c180	0.3237419
26	0x3f53cfd2	0.82738984
27	0x3eebeac8	0.4607756
28	0x3f458196	0.7715086
29	0x3d0472d8	0.032336086
30	0x3e9425ca	0.2893508
31	0x3f763d83	0.9618761

fc.4.running_mean f4 [32]
0	0xc027fcb6	-2.6247993
1	0xc00c4dc4	-2.1922464
2	0xbe33010e	-0.17480871
3	0xc08246f9	-4.0711637
4	0x3fd27125	1.6440779
5	0xc0b825b2	-5.7546015
6	0xc149807d	-12.593869
7	0xc12076f6	-10.029043
8	0x410c4041	8.765687
9	0xc085254a	-4.160802
10	0x400b502b	2.176768
11	0x409b3b78	4.8510094
12	0xbf265ee8	-0.64988565
13	0xc0e5d165	-7.181811
14	0xc131c583	-11.110721
15	0x40453ac4	3.0817118
16	0xbf863372	-1.048445
17	0xbfebe003	-1.8427738
18	0xc0c3c558	-6.11784
19	0x4018c091	2.3867533
20	0xbf1b8b3f	-0.6075935
21	0x3f9d5b1c	1.2293429
22	0x3dee2def	0.11629855
23	0x40863880	4.194397
24	0xc0444c6e	-3.067165
25	0x40b58699	5.6726804
26	0xc1253ee9	-10.327859
27	0xc114aee8	-9.292702
28	0x4037fc54	2.874776
29	0x40601ac8	3.5016346
30	0xc10e3991	-8.889054
31	0xc1261426	-10.379919

fc.4.running_var f4 [32]
0	0x41a9787a	21.183826
1	0x4191b9af	18.215666
2	0x40518f9a	3.2743897
3	0x42ad7ec8	86.74762
4	0x40a08ca6	5.017169
5	0x41ae83f3	21.814428
6	0x422c1aa6	43.026024
7	0x416fc38e	14.985243
8	0x42960cec	75.02524
9	0x42778064	61.87538
10	0x420cdff6	35.21871
11	0x4194633b	18.548452
12	0x4026b7e7	2.6049745
13	0x4247651f	49.84875
14	0x425f765d	55.86559
15	0x410a5e58	8.648033
16	0x4260155e	56.020866
17	0x427ec575	63.69283
18	0x4283988c	65.79794
19	0x420c722b	35.111492
20	0x4283c74b	65.889244
21	0x42c170e5	96.7205
22	0x408de9bf	4.4347835
23	0x41acabab	21.583822
24	0x4294a3a9	74.31965
25	0x41bddd9d	23.73321
26	0x42284f66	42.077538
27	0x421aa350	38.659485
28	0x42891e16	68.55876
29	0x411435de	9.263151
30	0x4204b344	33.175064
31	0x42774b25	61.823383

fc.6.weight f4 [1, 32]
0	0x3ef39d85	0.47581115
1	0x3ef76cc4	0.4832517
2	0x3cacc6ad	0.02109083
3	0x3f017db5	0.5058244
4	0x3c0a0e56	0.0084262695
5	0x3eeb14bb	0.45914254
6	0x3ea0c617	0.3140113
7	0x3e9e463a	0.30912954
8	0x3e7edd72	0.24889162
9	0x3eef83c4	0.46780217
10	0x3e8e1e57	0.27757522
11	0x3e33a6d2	0.17544106
12	0x3cac90a7	0.02106507
13	0x3f13fb5a	0.5780541
14	0x3f03dce3	0.5150892
15	0x3de830cf	0.113374345
16	0x3ef03384	0.46914303
17	0x3f054549	0.52058846
18	0x3eefebb3	0.46859512
19	0x3e5d67d7	0.21621643
20	0x3eec18bc	0.4611262
21	0x3ef13fe6	0.47119063
22	0x3cac9fe7	0.021072341
23	0x3e7f1f27	0.24914227
24	0x3f0cca15	0.5499585
25	0x3e9d052b	0.30668005
26	0x3ecc9ed2	0.3996492
27	0x3e9481ea	0.29005367
28	0x3eb27512	0.34854943
29	0x3df879fb	0.12132641
30	0x3e6706ca	0.22561184
31	0x3f188285	0.59574157
