best_model.pt (torch, 18146 bytes, 13 tensors)

fc.0.weight f4 [64, 10]
000000 8f 40 0d 3e 64 3b 4a 3f be b1 82 3e 06 d9 ec bf
       0.13794158 0.7899687 0.25526232 -1.850373
000010 e7 5e c4 3d a8 2f 21 3e 47 81 ad be 56 7f a8 bd
       0.09588414 0.15740836 -0.33887693 -0.082274124
000020 48 c9 2e be 98 91 eb 3d 76 0c 59 b9 8a 51 d2 b8
       -0.1706897 0.11502379 -0.00020699375 -0.00010028768
000030 c0 a4 83 38 d0 2f 1e 39 6b 65 e0 37 03 f9 5b 39
       6.277254e-05 0.00015085866 2.6750107e-05 0.00020978232
000040 a7 e0 bd 38 03 bd 19 38 50 16 0e 38 a2 3c 7c b9
       9.054067e-05 3.6654073e-05 3.387622e-05 -0.0002405518
000050 f0 6d 5a 36 18 23 08 b9 73 06 f8 b8 c9 fe fc 38
       3.2548523e-06 -0.00012983044 -0.00011826763 0.00012063754
000060 34 b0 2e b7 a2 1c bc b7 43 57 3f 38 24 99 8a 37
       -1.0412234e-05 -2.242468e-05 4.5619217e-05 1.6522194e-05
000070 20 28 0a b9 fa a9 67 38 d0 f7 4a be ac 45 04 3b
       -0.00013175653 5.5232995e-05 -0.19821095 0.002018313
000080 a5 7a 55 bd ef 53 ee be de 8a 37 3f 26 61 c1 be
       -0.052118916 -0.4654841 0.7169627 -0.3776943
000090 d3 4e 31 bf 16 f7 c7 3c 16 e7 d6 3c c6 0a 00 bd
       -0.692609 0.024409812 0.026233237 -0.031260274
0000a0 8d b0 21 39 64 5d 0a b9 3c 4a 10 39 9e b9 1f b9
       0.00015419927 -0.00013195496 0.00013760565 -0.0001523257
0000b0 11 ca 04 b9 66 19 c8 b8 f1 1e 16 b9 8b b5 34 b9
       -0.00012663777 -9.541474e-05 -0.00014316641 -0.00017233768
0000c0 f4 46 6f b8 38 4e 30 b8 ea 31 04 be bd 62 98 3b
       -5.704812e-05 -4.2034517e-05 -0.12909666 0.0046504424
0000d0 50 62 00 3b 61 91 c5 3b 5b 07 dd 3b 39 8d 74 3b
       0.0019589849 0.0060292934 0.0067452616 0.003731562
0000e0 da b0 14 bc 26 0a bd bb 86 40 a7 be ff fa a6 3c
       -0.009075368 -0.005769032 -0.32666415 0.020383356
0000f0 fa 09 d3 37 da 44 40 39 2b 21 8c b8 54 50 97 36
       2.5157806e-05 0.00018336196 -6.681898e-05 4.509502e-06
000100 f1 ab df 3e 9e 71 3a b8 f0 fe ae 37 9f 54 12 38
       0.43685868 -4.445167e-05 2.086113e-05 3.4887922e-05
000110 d0 56 f3 36 f7 18 f0 37 80 3c 83 35 29 20 28 b8
       7.2520706e-06 2.8621855e-05 9.777868e-07 -4.0084273e-05
000120 26 91 39 b8 46 82 2b b9 68 f8 01 37 8a db fa 37
       -4.4242617e-05 -0.00016356361 7.746836e-06 2.9904553e-05
000130 eb ad 4a 39 7e 24 1b 39 b4 a2 80 b7 72 94 95 b8
       0.0001932901 0.00014795546 -1.5334554e-05 -7.132524e-05
000140 70 89 d0 38 e0 8b 70 b6 46 c2 8e b9 de 29 cc b8
       9.9438126e-05 -3.5844205e-06 -0.00027229096 -9.7352764e-05
000150 dc 63 43 38 4b d1 dd 38 8a 9c 08 b9 15 e2 13 b9
       4.6584624e-05 0.00010577085 -0.00013028286 -0.00014103235
000160 5c 23 67 38 74 5a a0 b8 a6 92 08 bf 77 77 23 bf
       5.5107623e-05 -7.646243e-05 -0.5334877 -0.63854164
000170 22 40 88 be 30 e3 b8 bd 93 1a 67 3f c0 e2 03 bf
       -0.2661143 -0.090277076 0.90274924 -0.5151787
000180 43 51 35 bf c4 7e 3f 3e 38 c7 6a bd 67 22 04 bd
       -0.7082712 0.18700701 -0.057318896 -0.03225937
000190 58 33 b2 3d f9 00 e8 3e 8e cf 0b be 23 0c 03 bf
       0.08701199 0.45313242 -0.13653395 -0.51190394
0001a0 f5 a4 a7 3d 52 a1 a8 3e e0 4b bd 3d c8 93 9f bd
       0.0818576 0.32935578 0.09242988 -0.07791859
0001b0 4e 36 8c 3d 0d 62 cc 3e 6a 01 2b 39 8f 45 88 39
       0.06846295 0.39918557 0.00016308358 0.00025991767
0001c0 76 fb 75 38 00 52 00 bb d9 64 04 ba 7a 72 92 39
       5.8646743e-05 -0.0019580126 -0.0005050428 0.00027932582
0001d0 a9 00 7f b9 10 2f 07 39 4d fd 43 b9 6a ef 2e b9
       -0.00024318941 0.00012892135 -0.00018691011 -0.00016683122
0001e0 0c d0 1b b8 89 0e 94 b9 b6 83 5e 38 27 52 db b9
       -3.714864e-05 -0.0002823959 5.305159e-05 -0.00041832143
0001f0 38 c8 fc 39 6b 4f c3 38 11 b7 4c b9 f4 44 5e b9
       0.0004821436 9.313117e-05 -0.00019523154 -0.00021197257
000200 82 5b 20 b9 90 76 b9 36 a4 f8 19 3e ca 62 20 3f
       -0.00015292878 5.527232e-06 0.15036255 0.6265074
000210 96 dd a5 bd cd bc 1e bf c2 3a 50 bc eb 89 49 bf
       -0.08098905 -0.6200684 -0.012709321 -0.7872607
000220 32 5a 1f bc a6 f7 fe be 9d 35 03 3e 69 79 82 3d
       -0.009726094 -0.49798316 0.1281342 0.063708134
000230 60 0a 13 b6 19 31 d6 38 5e 0e bc b8 44 c5 cd 39
       -2.1910746e-06 0.0001021346 -8.967215e-05 0.0003924762
000240 dc ee 1c 3a 5c 73 0a 3a 4f 43 6b 39 65 99 af b8
       0.00059865206 0.0005281472 0.00022436421 -8.373222e-05
000250 69 55 f4 b8 b6 75 f4 b8 42 ca f5 b8 4e 5e 24 39
       -0.000116507355 -0.00011656752 -0.00011720184 0.0001567539
000260 14 86 cf b7 7c 7a f0 b9 c1 2d b1 b8 77 96 25 b9
       -2.4738758e-05 -0.00045867625 -8.44854e-05 -0.00015791679
000270 70 f6 15 b7 63 f2 4c 38 0c 36 b5 b8 fe 0f a9 b8
       -8.93847e-06 4.886313e-05 -8.6408196e-05 -8.061527e-05
000280 8b 41 d1 b9 56 9a ae b9 4e a4 52 ba 33 70 33 3a
       -0.0003991242 -0.00033302855 -0.00080353476 0.0006845027
000290 c0 53 c4 b9 bd b8 c3 b9 0a ec 49 b9 d8 45 4a b7
       -0.00037446432 -0.0003733094 -0.00019256785 -1.20564e-05
0002a0 f0 ef 29 38 f9 4d de 38 b2 82 84 39 e9 84 6a 38
       4.05162e-05 0.000106003085 0.00025274378 5.591373e-05
0002b0 66 91 47 b8 de a5 b6 b8 10 bf de b9 df ab 1c b9
       -4.758071e-05 -8.7093315e-05 -0.00042485492 -0.00014941346
0002c0 84 c4 b5 b8 1d ed ee b9 00 ec 4d 38 60 73 0b 35
       -8.6673565e-05 -0.0004557156 4.90956e-05 5.194943e-07
0002d0 ec 69 7a 39 40 3c a8 36 03 82 de 38 4b 88 15 b8
       0.00023881317 5.013804e-06 0.000106100015 -3.56513e-05
0002e0 c5 68 b1 39 18 da 9f 39 ee 08 b6 38 ea 73 6f 39
       0.0003383813 0.00030489336 8.6800996e-05 0.00022835998
0002f0 05 fa e9 39 1b e9 82 38 a1 92 c5 3d 18 82 26 b9
       0.00044627502 6.242302e-05 0.09647108 -0.00015879457
000300 64 63 14 bc 9c a4 0b 3d 70 d4 83 3d b7 6b cb 3c
       -0.0090569 0.03409253 0.064370036 0.024831636
000310 b3 80 8b bf b4 c3 b6 be d4 35 0f bc 02 fe 3d 3e
       -1.0898651 -0.35696185 -0.008740861 0.18553928
000320 56 73 8a 38 48 1c 90 36 2c ae 40 b9 3a 0c 6d b8
       6.601836e-05 4.294827e-06 -0.00018375431 -5.651659e-05
000330 3c 87 bc 38 42 d6 f4 b7 ca fa 27 b9 e5 ce db b8
       8.989728e-05 -2.9186838e-05 -0.00016019787 -0.00010481271
000340 87 26 9c 38 28 c1 7d b9 65 0d a1 3e 4a 8d 81 3d
       7.445836e-05 -0.00024199917 0.31455532 0.06325777
000350 86 55 7c 3e cb a5 13 bf 23 a2 54 3f 57 48 20 3f
       0.24642 -0.57674855 0.830599 0.6261038
000360 b7 71 b7 be 79 03 19 bd 19 5b 90 3e 1d b5 ef be
       -0.35828945 -0.037356827 0.28194502 -0.46817866
000370 7d db 84 bd 63 f1 27 3c 0e ac 3f 3f f6 a1 8e 3e
       -0.064871766 0.010250422 0.7487191 0.2785794
000380 b3 46 26 bf 7a 93 00 3f 7b 15 0e be 57 cc c1 bd
       -0.6495163 0.5022503 -0.13875382 -0.09462803
000390 d0 fd a5 3e 3b d7 b1 bb c0 33 43 36 1e cd b6 38
       0.32420206 -0.005427269 2.9087387e-06 8.716642e-05
0003a0 8f 92 2a 39 48 6d a2 38 a0 6d 35 b8 96 37 19 38
       0.0001626706 7.745117e-05 -4.325586e-05 3.652981e-05
0003b0 04 2b 1b b7 8c 40 d0 38 7d 8a 8b b8 30 96 24 38
       -9.248735e-06 9.930236e-05 -6.653832e-05 3.924052e-05
0003c0 00 84 a8 bd 3f 0c ec 3e 0b 9a 18 3f e6 d3 7d 3f
       -0.08228302 0.46103093 0.5961005 0.99151456
0003d0 2c 89 b2 bd 85 3f 27 be af 5d a7 be 5a d1 36 bd
       -0.0871757 -0.16332825 -0.32688662 -0.044633247
0003e0 1a 1f c3 be 72 a8 6b 3f 9a 38 92 3e eb b8 2f 3e
       -0.38109666 0.920539 0.2855881 0.17160384
0003f0 ab 28 b1 bf 95 9a 27 3d b3 1f d2 bd 6e 08 91 3a
       -1.3840536 0.040918905 -0.102599524 0.0011065134

fc.0.bias f4 [64]
000000 dc 5d 6e 3b b6 71 db b8 8e 96 dc ba a6 c2 50 3a
       0.0036371863 -0.00010463914 -0.0016829537 0.0007963575
000010 38 63 90 3a 1c dd 8f ba 5f 75 99 ba 39 35 8e 3a
       0.0011015898 -0.001097593 -0.0011707953 0.0010849602
000020 40 91 f5 38 db e3 88 3a 8a 88 6b ba ea 17 88 ba
       0.00011709565 0.0010443883 -0.00089848845 -0.0010383104
000030 4b cb e3 ba b6 d6 28 3b 00 92 c4 36 6c 15 95 ba
       -0.0017379312 0.0025762743 5.858252e-06 -0.0011374182
000040 84 4e 37 ba 30 39 de b9 50 4b c3 39 a1 0c 13 ba
       -0.0006992596 -0.00042385748 0.0003724941 -0.0005609487
000050 6c 09 22 bb 33 d7 61 3a d8 6c 47 b9 96 22 c8 ba
       -0.0024724854 0.0008615136 -0.00019018666 -0.0015269096
000060 39 6e 23 3b 8b 0a 82 3a e4 4c 44 3b 20 b5 f6 b8
       0.0024937524 0.0009921355 0.0029953057 -0.00011763931
000070 00 08 1a b7 4d 77 05 3b 8e 56 1c bb d2 f1 66 3a
       -9.180978e-06 0.0020365298 -0.0023855302 0.0008809838
000080 5c a0 ed 3a 97 cb ed 3a 42 89 a7 3a a0 b7 84 39
       0.0018129456 0.001814234 0.0012781995 0.00025313813
000090 6a 78 be 39 6a 38 32 3b c8 28 f1 3a 10 af 32 3b
       0.0003632934 0.002719427 0.0018398995 0.002726499
0000a0 a3 fc 00 bb da 25 4a 3b d3 39 8d 39 bc 9b cc ba
       -0.0019681833 0.0030845315 0.00026936698 -0.0015610377
0000b0 3c 45 c9 bb bc 38 bd b9 46 3a c7 3a c2 38 d4 39
       -0.0061422866 -0.0003609116 0.0015199862 0.0004047808
0000c0 35 de 0e 3a c4 d0 9f 39 60 b8 af ba b9 df 78 ba
       0.00054499815 0.00030482386 -0.0013406388 -0.00094937865
0000d0 86 e0 c4 39 a0 a3 b0 3a ac 0b 30 3a 38 7b 8d ba
       0.00037551316 0.0013476498 0.00067156064 -0.0010794168
0000e0 65 f5 0f 3a b7 d6 52 3b 74 7e 34 3a e0 a1 ff 38
       0.0005491584 0.0032171437 0.0006885298 0.00012189499
0000f0 14 0c 92 39 40 ed 66 39 35 9e f0 3a 1d fd 06 bb
       0.0002785629 0.00022022892 0.0018357696 -0.0020597645

fc.1.weight f4 [64]
000000 b7 d2 f5 3f 0e 0a 67 b8 4a 3f 3b 37 c4 cf 50 3f
       1.920493 -5.5084056e-05 1.1160804e-05 0.81567025
000010 74 97 5e 38 5c 81 c5 3d 4e 57 87 b7 44 c0 0d 39
       5.3069976e-05 0.09643814 -1.6133909e-05 0.00013518432
000020 36 50 67 b8 14 32 a0 3f 32 25 1d 3f 99 39 09 39
       -5.5149394e-05 1.2515283 0.6138488 0.00013086795
000030 be d6 9d 38 9b cd 54 3f 9b ab 41 38 4a 72 09 b9
       7.526342e-05 0.8312623 4.6174606e-05 -0.00013107914
000040 73 21 87 b8 d0 46 f0 b6 81 e2 25 b8 72 ff 6b 3f
       -6.443532e-05 -7.160801e-06 -3.9550014e-05 0.92186654
000050 b6 71 11 38 2b b9 20 3f 05 35 a8 3e 48 b9 89 37
       3.4676596e-05 0.62782544 0.3285295 1.6417951e-05
000060 ab 9a 8b 3f d8 92 0f 3f 19 e9 21 39 39 44 53 ba
       1.0906576 0.5608344 0.00015440992 -0.0008059177
000070 08 53 32 37 56 00 09 b8 fa 76 f4 38 8b 18 70 3f
       1.0628959e-05 -3.266366e-05 0.00011656988 0.9378745
000080 b9 3e 5b 3f 16 46 2f 3e 3b 3e a2 3f a0 62 3c b7
       0.8564258 0.1711658 1.2675241 -1.1228636e-05
000090 38 fc 00 3f ac e5 08 38 b3 2c e9 38 b5 ec a6 b8
       0.50384855 3.2638825e-05 0.00011118632 -7.959587e-05
0000a0 09 9b 82 3f d9 12 97 3f 54 a3 8d 3f f2 a7 82 3f
       1.0203563 1.1802627 1.1065469 1.0207503
0000b0 8a 65 9d b8 40 02 76 b8 89 24 a6 3f 92 12 89 38
       -7.5052565e-05 -5.8653066e-05 1.29799 6.536128e-05
0000c0 8e 89 a8 b8 db 15 e6 38 fc 84 3f b7 ca 28 77 3e
       -8.036486e-05 0.000109713255 -1.141545e-05 0.24136654
0000d0 50 4f 44 3f a0 08 56 b9 75 a4 92 b8 04 5f e7 b7
       0.7668352 -0.00020411843 -6.992455e-05 -2.7581591e-05
0000e0 ee d6 89 3f c0 80 69 39 43 0b 5d 3f a8 32 21 3d
       1.0768716 0.00022268575 0.8634531 0.03935495
0000f0 37 7c d8 37 6a dc b1 b7 b9 48 f4 3e 80 2b d6 b9
       2.5807049e-05 -2.1202683e-05 0.47711733 -0.0004084967

fc.1.bias f4 [64]
000000 cc a0 de 3e 3c 31 dd 38 de 41 11 b9 ec 68 4f bd
       0.43482053 0.00010547272 -0.00013852815 -0.05063717
000010 58 09 44 b9 30 a6 33 3b 00 fd 3e b3 21 4a bf 38
       -0.00018695497 0.0027412288 -4.4467924e-08 9.121397e-05
000020 32 f7 da 38 62 b7 50 bd f6 4d d3 be 97 1e 05 b9
       0.00010441094 -0.050956137 -0.41270417 -0.00012695264
000030 af 5c f8 39 5f 91 09 3d 76 46 19 b8 f0 7c 5f 37
       0.000473713 0.033585902 -3.6543664e-05 1.3320925e-05
000040 6e 4c 2d b9 12 7d c3 b8 0e 8b b2 38 1c c2 50 bf
       -0.00016527038 -9.321621e-05 8.5136024e-05 -0.8154619
000050 94 4f 32 b8 d1 12 42 3e 38 43 2e bd 8a 7d 89 38
       -4.251262e-05 0.1895249 -0.042544574 6.5560525e-05
000060 a4 26 fc be 8f e3 13 be 73 b8 ba 39 50 80 3f b8
       -0.4924823 -0.14442275 0.0003561411 -4.565745e-05
000070 95 13 c1 38 7c 50 8d b8 72 b5 05 ba 5f c4 33 bc
       9.2066046e-05 -6.738395e-05 -0.0005100585 -0.0109721115
000080 ef 6a cb 3d 55 c2 04 3f 4d f7 72 3e a9 bd 88 b8
       0.09932505 0.5185903 0.2372715 -6.520312e-05
000090 54 c5 46 3f 34 de 05 39 f8 8c 03 b8 d3 11 1f 39
       0.7764485 0.00012766646 -3.136412e-05 0.00015170062
0000a0 ad 8d ba 3e ea c1 84 3f fe 41 b9 bd 52 04 b5 bf
       0.36436215 1.0371678 -0.0904579 -1.4141943
0000b0 10 98 9a 38 1a d7 bf b8 e9 00 1e 3f 6c c3 0b 39
       7.371616e-05 -9.1476555e-05 0.6172014 0.00013328873
0000c0 3c 73 3f 39 62 80 2c b8 7d a7 01 38 2b 21 a5 3e
       0.00018258108 -4.112756e-05 3.0911982e-05 0.32251868
0000d0 cb af 67 3f 87 f6 8e 39 d8 80 11 b7 f8 18 ef 36
       0.90502614 0.00027268028 -8.672672e-06 7.125662e-06
0000e0 39 94 70 3f 8a 8b b0 38 e1 c5 5e bf 9c b0 10 3f
       0.9397617 8.418325e-05 -0.8702069 0.56519485
0000f0 c8 23 6e b8 9e 5b f1 38 6a d9 34 3f 8e 06 09 39
       -5.6776946e-05 0.000115088405 0.7064425 0.0001306778

fc.1.running_mean f4 [64]
000000 b5 23 7b bc ea db f3 38 00 a0 ba b9 fa 7b 91 3d
       -0.015328337 0.00011628105 -0.00035595894 0.07103725
000010 5a 44 83 39 18 92 ac bd 3c 4a 84 bc b2 9b fb b8
       0.00025037193 -0.08426303 -0.016148679 -0.00011997613
000020 4f cf b6 b9 d1 fc 23 3e c4 aa ee 3d b5 25 1d 39
       -0.00034868202 0.1601441 0.11653665 0.00014986734
000030 0a b4 50 3a e5 9c d5 bd 0c 52 19 b9 c5 da 11 ba
       0.0007961398 -0.10430316 -0.00014621782 -0.000556391
000040 ab 27 9c 37 0e 9c ac 38 c8 b5 52 39 42 5a 09 bd
       1.8615121e-05 8.2306666e-05 0.0002009488 -0.033533342
000050 08 a0 84 3a 43 96 02 be 5e f8 5e 3c 64 f8 ce b9
       0.0010118494 -0.12752633 0.01360902 -0.00039476447
000060 7a 0a bc 3d 9e 10 dd 3b 6e 4b e2 b9 24 0c a9 39
       0.09181686 0.0067463657 -0.0004316228 0.00032243237
000070 8a 08 f2 39 08 15 ed 38 3c 2f 65 38 28 59 6a be
       0.000461642 0.00011304958 5.4641845e-05 -0.22885573
000080 3b 00 7b 3c 87 1b ad bc c9 67 d2 3d 2d 2f 69 39
       0.015319879 -0.02113129 0.10273702 0.00022238186
000090 b8 a7 6c 3b 68 9f 59 b8 81 2b 5d 39 48 f9 d5 39
       0.003611071 -5.188529e-05 0.00021092409 0.00040812255
0000a0 2d 30 44 be 4e 2e 8f bd 4b a7 6d 3d 7e 43 a6 bc
       -0.19159003 -0.06991254 0.05802087 -0.020295855
0000b0 3a f4 6a b9 df 75 90 38 11 04 b3 3d 8b 81 89 b9
       -0.0002240696 6.88841e-05 0.0874101 -0.00026227193
0000c0 9c 63 9f 38 92 46 4a b8 73 6a 9c 39 ed 54 46 bd
       7.6002645e-05 -4.8226277e-05 0.0002983395 -0.048420835
0000d0 be fd 4d 3d c6 4c 44 39 c7 e9 98 37 ba 0c d4 b8
       0.050290816 0.00018720617 1.8228673e-05 -0.00010111318
0000e0 c1 6e ee 3d 20 b6 46 38 cc 97 06 3e 87 51 e2 3c
       0.116422184 4.7376496e-05 0.13143843 0.027626766
0000f0 16 50 77 39 4f a7 c3 ba 26 c3 3d bd 5e ce 60 ba
       0.0002358559 -0.0014927181 -0.046328686 -0.0008575673

fc.1.running_var f4 [64]
000000 89 0d 8a 3f b5 0a 44 34 00 2d 96 33 ee 26 98 3f
       1.0785381 1.8257818e-07 6.993105e-08 1.188688
000010 05 fb 33 34 0f 21 77 3d 30 ba 47 3e 94 ad a6 33
       1.6761994e-07 0.06033426 0.19504619 7.761551e-08
000020 f4 9f 60 34 11 03 67 40 05 cd ea 3d 4d 24 06 36
       2.0919816e-07 3.6095622 0.114648856 1.9988686e-06
000030 5a d2 35 34 03 e5 5d 3f 56 d5 79 35 32 c6 c4 34
       1.6933464e-07 0.8667757 9.3070173e-07 3.665205e-07
000040 22 a1 13 36 f6 14 9e 34 ba 37 26 35 54 54 77 3f
       2.1998499e-06 2.9445044e-07 6.192091e-07 0.9661305
000050 78 fb 4d 33 92 fd e6 3f 9e 3b 20 3f 62 77 65 33
       4.795899e-08 1.8046134 0.6259097 5.3426795e-08
000060 ee a4 9c 3f fe 1f 0d 3f d1 98 83 34 67 cf 03 36
       1.2237833 0.5512694 2.451184e-07 1.9641245e-06
000070 b0 21 81 33 a0 04 4e 34 1a 0b 2c 35 54 b3 9b 3f
       6.013158e-08 1.9186928e-07 6.409115e-07 1.2164102
000080 aa 6a f8 3e 78 f8 0a 3e c9 8a a9 3f 1c 2e aa 34
       0.48518878 0.13571346 1.3245479 3.1698517e-07
000090 c1 93 c7 3e df cf 01 34 b3 0e c9 33 93 87 a6 33
       0.38979915 1.2089684e-07 9.362466e-08 7.754638e-08
0000a0 94 09 1d 40 61 04 ce 3f 28 6e 08 3f 66 ce 26 40
       2.4537096 1.6095086 0.53293085 2.6063476
0000b0 0e fa ac 33 35 e2 73 35 ef fc 13 3e d5 2d 7f 34
       8.054859e-08 9.085373e-07 0.14451955 2.3765399e-07
0000c0 ae c2 a9 34 fe 58 b9 33 11 87 ba 33 d4 3f 03 3f
       3.162035e-07 8.6309214e-08 8.6858684e-08 0.5126927
0000d0 1c 02 40 3f 9e e3 3f 34 e8 72 c5 33 65 d0 e6 32
       0.7500322 1.7871068e-07 9.194429e-08 2.687029e-08
0000e0 18 fb 05 40 09 7a 77 34 1d e9 41 3f 3f 2d 88 3e
       2.0934505 2.3048064e-07 0.7574633 0.2659702
0000f0 8c 21 b4 35 28 bf 79 3a f1 cd 3f 3f c7 28 d2 33
       1.3420809e-06 0.00095270807 0.74923617 9.7863044e-08

fc.3.weight f4 [32, 64]
000000 2b f1 7a 3e 80 05 8f 37 ea 06 69 39 96 8f bd 3c
       0.24506061 1.704949e-05 0.00022223187 0.023139756
000010 d8 cb 92 37 7a 05 a5 3b 26 f5 42 b8 20 2b c3 37
       1.7499478e-05 0.0050360532 -4.6481517e-05 2.3265893e-05
000020 f2 8f 37 38 05 7b 96 3c 7d 0d 15 bd 1f a9 44 b9
       4.376466e-05 0.018369207 -0.036389817 -0.00018755019
000030 7b 03 72 b9 bc 67 89 3a 90 e9 2b b8 00 b3 1f b5
       -0.00023080215 0.0010483186 -4.09871e-05 -5.9492595e-07
000040 d6 f2 be 39 43 f1 f5 39 ce 98 42 39 d6 83 73 3c
       0.0003642055 0.00046909795 0.00018558206 0.014862975
000050 c6 34 5c b9 cc 67 be be f1 4e 51 bc df 8a b7 38
       -0.00021000495 -0.37188566 -0.012775169 8.751987e-05
000060 13 29 be 3c 17 e2 e3 3d 40 7f d4 37 b0 ad a6 b9
       0.023212945 0.111271076 2.5331625e-05 -0.00031791395
000070 dc 09 91 38 e0 a5 4b 38 44 c6 00 3a 45 95 95 3b
       6.915975e-05 4.8553455e-05 0.00049123564 0.0045649135
000080 6b 68 87 bd c2 e5 07 bc a4 a5 d3 3c 29 96 63 b9
       -0.06611713 -0.008294525 0.02583582 -0.00021704346
000090 52 38 e2 be 20 16 e8 36 6e 5f 9f b8 5f 51 bc b8
       -0.44183594 6.9167145e-06 -7.599486e-05 -8.979695e-05
0000a0 6d 29 af bf d5 2a 48 bf 53 1e 9e 3c b3 72 c5 be
       -1.3684517 -0.78190356 0.01930157 -0.3856407
0000b0 d1 9f b4 38 3f 0e ea b8 ce 2f 7a bb f0 e9 20 b7
       8.612837e-05 -0.00011160643 -0.0038175466 -9.591211e-06
0000c0 d4 2b 2b 39 22 13 4f 37 88 ea d1 38 f7 50 81 bd
       0.00016324158 1.2342616e-05 0.000100095815 -0.06314271
0000d0 f0 db 45 3d f4 37 21 38 2e 63 be b8 ee b1 13 39
       0.048305452 3.84375e-05 -9.07838e-05 0.00014085296
0000e0 d9 01 4d 3d 95 1e 40 b9 3f 4c 84 3c 0d 15 18 3b
       0.05005059 -0.0001832194 0.016149638 0.0023205907
0000f0 cc 85 23 b8 0b 61 18 39 42 dc 30 be 84 a8 37 38
       -3.8986836e-05 0.00014532001 -0.17271522 4.3787542e-05
000100 86 8e b7 3e 4c 43 02 ba 42 48 25 39 bb fd 3a 3c
       0.35850924 -0.00049691345 0.00015762544 0.011413033
000110 ef 89 58 3a 7a 27 f0 b8 b4 28 42 b8 01 91 88 39
       0.00082603 -0.00011451445 -4.6291112e-05 0.00026047978
000120 60 90 08 37 d7 c2 7c 3c e8 7f 87 3a 2a f7 29 3a
       8.139847e-06 0.015427313 0.0010337802 0.00064836687
000130 28 7b 94 39 54 16 83 3b 18 8f ef 38 8c e5 10 b9
       0.00028320518 0.0040004645 0.000114230614 -0.00013818423
000140 f7 c5 80 ba d2 97 bd b9 fe a9 93 b8 40 0c 1e 3c
       -0.0009824623 -0.00036162004 -7.04117e-05 0.009646475
000150 c0 4c 25 ba c4 3e 1a 3c a4 e4 04 3c 99 b4 c8 39
       -0.0006305687 0.009414379 0.008111153 0.00038281528
000160 be 9a 52 3c 0d f3 af 3b e0 92 19 ba 6b af ad 39
       0.012854276 0.00536955 -0.0005858373 0.00033127828
000170 1e 32 ec b7 94 11 7c 39 24 53 bf b9 c8 82 df 3b
       -2.815673e-05 0.00024039141 -0.00036492303 0.0068210103
000180 57 65 2a bc 3a fe 51 bb 75 61 9e 3c 02 23 6e 39
       -0.010400138 -0.00320424 0.01933358 0.0002271049
000190 14 6a 3e 3c 57 9c 79 ba ff 02 b1 39 e9 10 4f b9
       0.011621971 -0.00095218926 0.00033762303 -0.00019747358
0001a0 16 5a b2 bb 6e 2d e1 bd 42 73 cf 3b c9 09 e0 3b
       -0.005442868 -0.10994993 0.0063308785 0.006837104
0001b0 2c 3b 44 b9 24 54 c1 b9 02 b7 40 ba df ed 22 3a
       -0.0001871406 -0.00036874518 -0.0007351489 0.0006215255
0001c0 38 3a 0e 3a 4c f5 c9 39 ce 7f 02 b9 ed 30 9c 3a
       0.00054255454 0.00038520468 -0.00012445377 0.0011916436
0001d0 5f d8 da 3b 7e 33 bc b9 04 8b 6d b9 08 ec 88 39
       0.0066786255 -0.0003589652 -0.00022653869 0.00026115798
0001e0 5e a7 56 3d fe b9 14 39 4d aa 23 3c 31 26 dd b9
       0.052405708 0.00014183667 0.009989333 -0.0004218086
0001f0 aa 65 88 3a c2 d2 97 b8 be 55 c7 3b d0 35 4b b9
       0.0010406275 -7.239498e-05 0.0060832193 -0.00019379635
000200 91 4a d2 be 60 3d a7 b6 b4 bf a5 b8 fc fb b1 be
       -0.41072515 -4.984133e-06 -7.9035206e-05 -0.3476256
000210 d8 05 f6 36 1a 63 dd ba e0 f4 b2 36 e0 dc f6 b6
       7.3320516e-06 -0.0016890496 5.3333206e-06 -7.3570845e-06
000220 f8 89 ef b6 de 11 25 bf 8e e2 c3 be fa 7c 9e 38
       -7.1388167e-06 -0.6448039 -0.38258785 7.557306e-05
000230 d6 4d f8 b8 ce 51 f4 be 21 06 51 38 06 3b 52 39
       -0.000118400596 -0.47718662 4.983519e-05 0.00020049149
000240 ac 57 cb b7 ec 7d 06 b8 4b 23 89 b9 1b 49 6a bf
       -2.4240311e-05 -3.2065363e-05 -0.00026156972 -0.915178
000250 80 54 89 35 85 ce 55 be 85 89 8d bc aa 7a c0 b6
       1.0231888e-06 -0.20879562 -0.017277488 -5.736326e-06
000260 dc be c3 3c 84 7a 41 3e ca 01 1a 39 da 77 94 37
       0.02389472 0.18894392 0.00014687251 1.7698785e-05
000270 62 20 b8 37 b7 e8 3b b8 e8 93 a8 b7 74 eb 1a bf
       2.1949589e-05 -4.4801007e-05 -2.0096035e-05 -0.6051552
000280 b1 ee ac bd f3 45 0d 3c 7a 42 2c bf 1a 8b 5b b8
       -0.08443964 0.008622634 -0.67288935 -5.2343217e-05
000290 e3 c3 e8 3c be 04 70 37 70 aa 47 39 ee 49 81 b7
       0.028413719 1.4306219e-05 0.00019041612 -1.5412425e-05
0002a0 5e 29 68 be 40 ab d0 3c 0e 7d fd be 32 93 03 bf
       -0.2267203 0.025472283 -0.49509472 -0.5139648
0002b0 a2 d2 df 38 b9 20 83 b9 34 31 08 3f ca 75 96 b7
       0.00010672702 -0.00025010647 0.5320008 -1.7936243e-05
0002c0 b8 65 af b8 61 6d d3 b8 ed e6 88 b7 60 56 69 3c
       -8.363597e-05 -0.000100816374 -1.6319997e-05 0.014241785
0002d0 7c 2f 2f be e4 74 80 38 12 d0 c0 b8 c1 d4 27 b8
       -0.17107958 6.125288e-05 -9.1940296e-05 -4.0014045e-05
0002e0 f2 56 8a be 40 bf 6d b9 48 56 0c bf 4d f4 59 bd
       -0.2701946 -0.00022673327 -0.54819155 -0.0532115
0002f0 76 ae c8 b8 54 2a 90 b8 57 ba d2 3c 24 c5 a8 b7
       -9.569239e-05 -6.874339e-05 0.02572362 -2.0118961e-05
000300 50 49 c4 37 ba e3 3a ba b8 c4 91 ba 2a 38 bd b8
       2.339916e-05 -0.0007129271 -0.0011121249 -9.022684e-05
000310 42 23 4c ba e0 46 54 39 10 08 70 39 d3 09 02 3a
       -0.0007787236 0.00020244299 0.00022891187 0.00049605704
000320 ca ab de b9 2f d6 76 38 60 20 cb b8 36 2a 0f 3a
       -0.00042471132 5.8850444e-05 -9.6858246e-05 0.0005461307
000330 ce 6f 81 39 3c a0 89 38 45 db e6 b9 e2 92 2e ba
       0.00024688098 6.562515e-05 -0.00044032387 -0.00066594605
000340 6e 80 9a 39 67 42 d2 39 f2 44 17 3a a6 1a 1b 39
       0.00029468857 0.00040103795 0.00057704665 0.00014791879
000350 7e ee c5 3a 5a 5a 7d 39 2f 4a 63 b9 d4 f3 11 ba
       0.0015100983 0.00024161619 -0.00021676043 -0.0005567644
000360 8e 1e da b8 b0 6a 50 38 ad c1 e7 39 c0 d2 83 37
       -0.00010400741 4.9690425e-05 0.00044204053 1.5714555e-05
000370 a1 4d 79 3a 3a 93 e9 b6 c6 e7 a8 b9 74 ce 83 b9
       0.0009510164 -6.9610805e-06 -0.00032216142 -0.00025140087
000380 9e 2f 91 37 3a 2f 4f b9 0a 46 11 ba 34 ec 46 b9
       1.730752e-05 -0.00019758652 -0.00055417477 -0.00018970744
000390 18 d8 a0 b8 10 66 a8 39 54 0f 37 b9 fa 3d 94 39
       -7.669645e-05 0.000321195 -0.0001745795 0.00028274936
0003a0 a8 38 39 38 90 29 eb 39 5d b0 d9 b9 0e 4d 65 38
       4.4160202e-05 0.0004485366 -0.00041520866 5.4669617e-05
0003b0 e7 c1 2c ba 38 98 34 b9 a4 e0 b3 37 1e 58 49 ba
       -0.0006590173 -0.00017222844 2.144307e-05 -0.0007680672
0003c0 c5 37 1f ba 12 61 2d b9 3c aa bb b9 46 ef 72 ba
       -0.0006073679 -0.00016534727 -0.00035794254 -0.0009267222
0003d0 68 b5 e7 38 74 7b 6f ba 70 15 6d 37 22 6c 8b b8
       0.00011048728 -0.00091355224 1.4131292e-05 -6.648178e-05
0003e0 52 7f 81 39 44 f6 01 b9 0a f5 b3 b8 9c a0 30 b8
       0.00024699658 -0.0001239414 -8.581027e-05 -4.211125e-05
0003f0 86 3a 20 3a 60 90 df b8 7a db 0b 39 1d 5f 33 b9
       0.00061122363 -0.000106603606 0.00013337834 -0.00017106203

fc.3.bias f4 [32]
000000 78 1e c5 3a a0 d4 35 3a 12 96 91 ba e7 c3 12 b9
       0.0015038988 0.00069362856 -0.0011107347 -0.00013996624
000010 0e 02 41 bb 28 9f 36 3a b9 8b ce 39 27 f4 71 ba
       -0.0029450688 0.0006966465 0.00039395483 -0.0009229802
000020 0d 70 2d 3b 25 52 a2 3a 60 70 ef 39 00 86 e7 b6
       0.0026464493 0.00123841 0.00045669358 -6.899936e-06
000030 37 8e f5 ba fe 25 0f 3a 9f d5 2c 3a 80 6f 3e b8
       -0.00187344 0.00054606784 0.00065931113 -4.5403372e-05
000040 95 bf d3 ba 0b 03 a0 ba d4 2d 13 ba fb 3b 54 bb
       -0.0016155118 -0.0012207938 -0.0005614434 -0.0032384384
000050 b8 0c 03 b9 da 59 e9 3a e1 65 0d 3b f8 8b 41 b9
       -0.00012497872 0.0017803267 0.0021575617 -0.00018458057
000060 3c 9b 3a 3b 20 d0 a1 b9 7d df f7 3a b6 76 d3 38
       0.0028473875 -0.00030863378 0.0018911209 0.00010083376
000070 44 68 4e 3b a4 d1 b0 b9 91 3e a0 3a 28 37 dc 3a
       0.0031495253 -0.0003372553 0.0012225677 0.0016801106

fc.4.weight f4 [32]
000000 9e 49 4d 3f 46 9c ed 3d 54 43 32 3f c2 38 49 38
       0.80190456 0.116020724 0.69633985 4.7974994e-05
000010 73 e2 23 3f 18 b0 50 3f 0d cb 2e 3f b9 31 86 b8
       0.6401741 0.815187 0.6827858 -6.3988795e-05
000020 92 da c7 b8 6b 8c 34 38 07 50 a8 3e 78 32 40 3f
       -9.529771e-05 4.304612e-05 0.32873556 0.7507701
000030 23 68 55 3f c3 b9 1a b8 2b af b2 3d dc 22 a3 38
       0.83362025 -3.6889465e-05 0.08724817 7.778939e-05
000040 4b fc ad 3c 40 58 3b b6 4e 25 71 3f 33 ba 7a 3f
       0.021238467 -2.791654e-06 0.9419755 0.9794037
000050 00 70 66 35 75 2a 82 b8 2b 7e 76 3f 6b d1 3a 3f
       8.584466e-07 -6.206791e-05 0.9628627 0.72975796
000060 d5 ef 2a 3f e2 4c 17 3f 04 fd 7e 37 f6 fd 26 3f
       0.66772205 0.5910169 1.519849e-05 0.65231264
000070 ba 35 72 3f a8 4e ba b6 ae de 11 3f de 31 6f 3e
       0.9461323 -5.5523888e-06 0.5698041 0.23358867

fc.4.bias f4 [32]
000000 d5 e9 65 3f fb 30 c2 3e ca 57 a4 3f 70 3e 75 b7
       0.89809924 0.37927994 1.2839291 -1.4617675e-05
000010 4a f0 81 3f 95 c3 1f 3f 7d 2e 4b 3e a4 2c 8b b7
       1.0151455 0.6240781 0.19841953 -1.6590879e-05
000020 08 17 55 b7 31 a4 46 38 b0 06 95 3f 09 20 50 3f
       -1.2701152e-05 4.7359794e-05 1.1642666 0.8129888
000030 a6 2f 9f 3f 08 f0 11 b7 73 1b a7 ba 10 66 dd 37
       1.2436416 -8.69856e-06 -0.0012749269 2.639278e-05
000040 44 c4 e8 ba a8 36 9b 38 fa 4e f8 3e 78 a9 3c 3f
       -0.0017758687 7.4011565e-05 0.48497754 0.7369609
000050 6c 92 3d 38 28 59 c0 36 67 c8 3d 3f bb 6e 79 3f
       4.5197477e-05 5.732425e-06 0.74133915 0.97434586
000060 d8 2c 67 3f bc 1a 6f 3f 98 5d db 36 dd 2f 65 3f
       0.903028 0.9340017 6.5376043e-06 0.8952616
000070 8d 45 66 3f 04 b3 da 37 6f 64 7b 3f 85 38 04 3e
       0.89949876 2.6070986e-05 0.98200125 0.12912185

fc.4.running_mean f4 [32]
000000 d3 b7 09 c0 dd 87 8d 3e d4 4e 10 c0 cc cb c9 b8
       -2.1518447 0.27642718 -2.2548113 -9.622387e-05
000010 c1 65 f4 bf 50 e4 a0 bd ce 56 6e 3f 83 e5 04 b7
       -1.9093553 -0.07856047 0.93101203 -7.9212505e-06
000020 85 5e 08 3a 25 7e bc b8 42 92 9a bf 53 d7 75 3e
       0.0005202073 -8.988035e-05 -1.2075884 0.24007921
000030 81 67 ec bf df 41 9a 39 01 a0 a2 3c 00 4f 13 3a
       -1.8469087 0.00029422247 0.019851686 0.0005619377
000040 79 7e 9f 3c 86 37 bf 39 3b c2 08 40 f4 2b eb bf
       0.019469487 0.00036471727 2.136855 -1.8372788
000050 43 39 23 38 00 d3 6e b9 87 d2 c3 3e 36 67 d9 bf
       3.8915558e-05 -0.00022776052 0.38246557 -1.6984622
000060 85 f4 99 bf f4 bc a9 bf 38 0f d8 b7 32 1a df bf
       -1.2027746 -1.3260789 -2.5756293e-05 -1.7429869
000070 f1 3c 64 3d ff 74 0a 3a e6 b5 a3 bf 40 cb 24 3e
       0.05572218 0.0005281716 -1.2789886 0.16093159

fc.4.running_var f4 [32]
000000 a0 fe a9 40 ac b6 95 3e 9e fa e0 40 ee 98 87 35
       5.312332 0.2924093 7.030593 1.0102792e-06
000010 b3 75 c9 40 97 05 79 40 b6 79 07 40 25 66 b4 34
       6.2956176 3.8909662 2.1168036 3.3601933e-07
000020 6a 3a 0b 36 c0 21 30 35 72 d3 61 40 70 df 84 40
       2.0746616e-06 6.561422e-07 3.5285306 4.152275
000030 b4 63 c2 40 b1 52 37 35 5e 5e 35 3c 85 e8 19 35
       6.074671 6.8293144e-07 0.011069862 5.73353e-07
000040 e9 b7 10 3b 3c c6 65 36 53 a9 1d 40 1e 2f 99 40
       0.0022082275 3.4239047e-06 2.4634597 4.7870016
000050 4a 05 02 35 19 b1 de 35 3a 2e 71 40 30 0c df 40
       4.843647e-07 1.6591831e-06 3.7684464 6.9702377
000060 b0 6d ad 40 fb 9b 97 40 e5 80 f3 34 bb 1e 9d 40
       5.4196396 4.7377906 4.535606e-07 4.9100013
000070 d6 d5 33 40 57 69 4d 35 db cb 83 40 d7 e5 94 3e
       2.8099265 7.652174e-07 4.1186347 0.29081604

fc.6.weight f4 [1, 32]
000000 15 1f 09 3f 8a 83 e3 3d 45 d5 3c 3f 5f 05 19 b7
       0.5356305 0.111090735 0.73762923 -9.120761e-06
000010 d3 81 f4 3e 64 4b c6 3e 5f 24 85 3e 36 14 d6 35
       0.47755298 0.38729393 0.2600431 1.5950125e-06
000020 24 28 3b 36 58 e2 30 b7 cb 55 04 3f e5 81 ed 3e
       2.7888536e-06 -1.0543117e-05 0.5169341 0.46388164
000030 e7 df 38 3f e3 f2 c6 b6 71 5c 0a bc 44 09 cf 35
       0.7221665 -5.9291356e-06 -0.008444891 1.5425398e-06
000040 8d b5 48 3b ec 1e e0 b6 6f c2 d7 3e c4 74 00 3f
       0.003062579 -6.67932e-06 0.4214053 0.5017817
000050 52 db 0b b7 70 90 d3 b5 a1 4f 06 3f 8d f5 0a 3f
       -8.33611e-06 -1.5762762e-06 0.52465254 0.5428093
000060 74 4c ee 3e ba 6d e5 3e da a6 10 b7 6b 2b db 3e
       0.46542704 0.44810277 -8.621917e-06 0.42806563
000070 21 41 10 3f f4 0c 9d 35 56 19 ec 3e d5 b0 69 3d
       0.5634938 1.1701181e-06 0.4611308 0.057053406
