best_model.pt (torch, 18210 bytes, 13 tensors)

fc.0.weight f4 [64, 10]
00000000: aac5 133e 87cf 423d baec 9bbe efea 7ebf
00000010: b271 8d3f 361e 0cbf 1277 8cbe 2d5f 6bbe
00000020: 9902 b3bd cdc4 af3e 2aff 713e a12f ad3e
00000030: bb08 0cbd 872f f7bf 5e19 5a3f ea3d b23e
00000040: b5bd 8ebe 4eb1 a2be 3c96 5d3b 904b 2b3e
00000050: 9c3f 2cbe f338 6b3e cbe4 e73e 056c 5b3f
00000060: 8a95 35bf 83fe 69bd 6341 013f 9fed a73d
00000070: 3961 a13c 2ccc 15be a4cd 063c 61dc 38bf
00000080: e44c 05be d64a 5bbf e5c2 d73f 9ff1 293e
00000090: a627 bfbc 1237 383d ceda ed3d b4d1 2ebd
000000a0: 6bc7 73be b476 9ebd 8f56 f1be ba3d 623e
000000b0: 8a63 d4be 5740 22bf cf60 a73e e386 cb3e
000000c0: ba4a 50be 9a8d 863e a1a1 bd3e 767f 513f
000000d0: 8624 853c b61e babf 8a42 783e 83d8 0a3f
000000e0: a164 733b 70eb debd 2ee6 2b3e f5bb 8cbe
000000f0: 73d8 ffbe f800 92bf 32aa 103e a001 683e
00000100: 0398 6d3f 2533 28bd 4eb5 85be d08b a93e
00000110: 705b 6fbe 1271 36be 8f88 133e 5e3e c8bd
00000120: a530 6ebe 78d7 3cbf 80fd 133f c874 963c
00000130: 698b 64be 2e38 e1be e567 00be d3f2 993f
00000140: 409f ae3e 5798 0abe 7972 483e 471a c3bd
00000150: 784d 9a3f 074f c3bc d5c5 10bf 1d42 f13e
00000160: 4ab4 a93e 8de6 d3be b89a b43e d88f 19bd
00000170: fe2a 98bd a888 48bf 6880 a83e 0b9d 2f3e
00000180: 2b2a 5fbf d53c 1a3f 24ad 093e 6ecc f3be
00000190: 8993 5abd 8b9d 3fbe 1de5 37be 9ab9 2bbf
000001a0: 6b94 c63f d3c8 533e 6002 94be 64c8 cdbc
000001b0: 4ebd 643e 4596 30bf 32e3 8d3e 9a17 6c3e
000001c0: 7773 38be 1024 32bf 11d5 543f 6070 48bd
000001d0: 8307 e8be d2eb f23d a15a adbd faf1 5dbe
000001e0: c328 173e f212 013f a793 edbe cf41 c33f
000001f0: 6592 a9be 28d3 55bf 5d93 1e3f 475c 2bbd
00000200: aceb 6fbd 9cc1 c93e c317 35bf f6d6 a9be
00000210: 9fde b5be 5f03 66be 960d 9b3f 11af 16bf
00000220: 22c2 f2be c077 fc3e ecc9 313e 5dd4 24be
00000230: da2d 2a3e 3b4c d7bd 944b 7bbe d8fd 8dbe
00000240: dc78 873f ab76 c73d 809e 53bf 303f 9c3e
00000250: bd1c 20be 48c0 f9bd 41a3 1f3d 0f6d 19be
00000260: 8ba6 fc3e e656 d13d 89fc 6cbf d937 d0be
00000270: b8cc 023f abf5 1e3e 6743 683e afab 073e
00000280: 45e2 0cbf 9aeb 24be 3294 90be 6418 f0bd
00000290: 30b4 613f 4c1e 463e fd92 1dbf ff64 143f
000002a0: 1116 c0be bb81 d1be 5b4f 833e 44a9 70bc
000002b0: 1e0d 07bf 8a0b abbe d2c1 193f ba35 cabe
000002c0: 6592 61be 80d3 49bf 241d b4be c338 843f
000002d0: a230 bdbe 59fa e33d 335d a73e 665a 483f
000002e0: 174a e4be e397 e63d cda8 883f ffeb 2fbe
000002f0: cdfa cdbc c4d3 cbbc 4052 79bd 44be 98be
00000300: 86bc 68bd 5d9b 71be b7af 553f 23d7 90be
00000310: ce49 40bf 0ef2 893e 844a 193e b399 98be
00000320: 20cc 56be ca76 763e 2576 a2be 307f efbe
00000330: cd54 9c3f 30b5 89bf 0e8e 5abf 6f0c 76bc
00000340: a4af 023e cf13 11bd 3cf6 443f 8382 273e
00000350: 0e38 0abe d31a 8bbf 0eca 083f 2526 653e
00000360: a5c7 d3be 1969 83be 5079 b8bd 28f2 1e3e
00000370: d98e b63d 159b 86be c654 06bf 7e6f 06bf
00000380: d86b 1d3f c3e4 883e 1a38 c6be 10c4 01bf
00000390: e120 0abf 9ae6 173f 36d7 04bd c00a 13be
000003a0: 0106 083f 1be4 463f cb55 85bf cc8c 15bf
000003b0: 5b76 f33e 121c a2bc 45e0 8dbe 2ff1 f23d
000003c0: 6b2e f73e 0bf4 64bd 1040 b33b 9021 94bf
000003d0: aaf3 c43e 96ee d03e 4f8f e8be 59e5 4cbe
000003e0: 7df0 d3bd ef9a f83e 2f31 c83d 0221 09bf
000003f0: 027f dabe 5140 3dbf 0a54 683f 4079 b3be
0.14430872 0.047561195 -0.30454046 -0.9957723 1.1050322 -0.547336 -0.27434593 -0.22985525
-0.0874073 0.34329835 0.23632494 0.338254 -0.034188014 -1.9311379 0.8519496 0.34812862
-0.2787911 -0.31775898 0.003381147 0.16728044 -0.1682114 0.22970943 0.45291743 0.857117
-0.70931304 -0.057127487 0.504904 0.081996195 0.01969968 -0.14628667 0.0082277395 -0.7221127
-0.13017613 -0.85661066 1.6856352 0.16596077 -0.023334336 0.044974394 0.11613999 -0.042680457
-0.2380654 -0.077374846 -0.4713635 0.2209386 -0.41482192 -0.63379425 0.32691047 0.39751348
-0.20341006 0.26279908 0.37037376 0.81835115 0.016252767 -1.4540622 0.24244133 0.5423662
0.0037138837 -0.1088475 0.16787025 -0.2748715 -0.49969825 -1.1406546 0.14127424 0.2265687
0.92810076 -0.0410644 -0.26114887 0.3311448 -0.23374724 -0.1781657 0.14407562 -0.097775206
-0.23260744 -0.7376628 0.57808685 0.018366233 -0.22318806 -0.43988174 -0.12539633 1.2027229
0.34105873 -0.13534676 0.19574918 -0.095264964 1.2054892 -0.023841394 -0.5655187 0.47120753
0.33145362 -0.41386834 0.3527429 -0.037490696 -0.07430075 -0.7833352 0.32910466 0.17149751
-0.8717372 0.6024907 0.13444954 -0.47616905 -0.053363357 -0.18712442 -0.17958494 -0.6708008
1.5514044 0.20682077 -0.28908062 -0.025119968 0.22337839 -0.68979293 0.277124 0.23055878
-0.18012796 -0.69586277 0.83137614 -0.048935294 -0.4531823 0.118613854 -0.08464552 -0.21674338
0.14761643 0.50419533 -0.46401712 1.5254458 -0.33119503 -0.83525324 0.6194361 -0.04183605
-0.058574364 0.39405525 -0.7073938 -0.33171815 -0.3552141 -0.22462223 1.2113521 -0.5886088
-0.47413737 0.49310112 0.17362183 -0.16096635 0.16619053 -0.10512587 -0.2454055 -0.2773273
1.0583758 0.09739431 -0.82663727 0.30516958 -0.15635963 -0.12194878 0.03897405 -0.14983009
0.49345812 0.10221653 -0.9257284 -0.40667608 0.51093626 0.15523402 0.22681962 0.13249086
-0.5503276 -0.161055 -0.28238064 -0.11723402 0.8816557 0.19347495 -0.6155241 0.5796661
-0.37516835 -0.4091929 0.2564648 -0.014688794 -0.5275439 -0.3340724 0.6006137 -0.39494115
-0.22028501 -0.7883835 -0.35178483 1.0329822 -0.36951166 0.111317344 0.32688293 0.7826294
-0.44587776 0.11259439 1.0676514 -0.17179869 -0.025144005 -0.024881251 -0.060869455 -0.2983266
-0.056820415 -0.23594423 0.83471245 -0.28289136 -0.75112617 0.26942486 0.14969832 -0.29804763
-0.20976305 0.24068752 -0.31730762 -0.46776724 1.2213379 -1.0758419 -0.8537301 -0.015017613
0.12762314 -0.03541928 0.76938224 0.1635838 -0.13497946 -1.0867561 0.5343331 0.22377832
-0.41363254 -0.2566612 -0.090075135 0.15522063 0.08913965 -0.26290193 -0.52473104 -0.52513874
0.6149268 0.2673703 -0.38714677 -0.5068979 -0.5395642 0.59336245 -0.032431804 -0.1435957
0.5313416 0.7769181 -1.0416807 -0.58417964 0.47551236 -0.019788776 -0.27710167 0.11862408
0.48277602 -0.0558968 0.0054702833 -1.1572742 0.3846715 0.40807027 -0.45421836 -0.20009364
-0.10348604 0.48555705 0.09775006 -0.5356599 -0.42675024 -0.73926264 0.90753233 -0.35053444

fc.0.bias f4 [64]
00000000: 6ba0 083e 0277 56be 860c 123f d770 07be
00000010: afa8 953e 7937 a3be 13e0 2b3e 57c6 e1be
00000020: e485 cbbe cbf4 f2be 074b f4be 887e c5bd
00000030: bfa6 7fbd 2675 b8bd 5c5f 61be bc86 c939
00000040: 01a3 3fbe 53dc d83e 183d 34be 911d 40bf
00000050: 9d3c 343d c5ac 49be 262e 083f 8486 bebd
00000060: a279 623e ddac a1be c574 c8bd 9fec 7d3e
00000070: 464b 97be 6a48 1d3c c276 9e3e ab1a 333f
00000080: 637a 033d af30 1b3f 7534 bd3c 5d5a 15bd
00000090: 3826 7bbf cb3e d93e 185f 00be 13f3 a53d
000000a0: 71c0 6b3f dea2 b1bd c8f8 c7be 2668 fe3d
000000b0: 2191 15bf d3c9 313e ad7c d13c 2feb 753e
000000c0: c0f5 9c3d cf07 793c 5424 21bf c89a c63e
000000d0: 70e5 15bf a5a7 d83b f31a 0bbf 3a4e 9ebe
000000e0: 5645 763e 9375 a1be e3a9 c2bd ec03 00bf
000000f0: 6de8 ae3d 3295 353f eb3d 06be 6a33 a6be
0.13342445 -0.20943835 0.5705036 -0.13226639 0.29230258 -0.3187826 0.16784696 -0.44096634
-0.39750588 -0.47452387 -0.4771349 -0.096432745 -0.06241488 -0.09006719 -0.22009033 0.00038438092
-0.18714525 0.42355594 -0.1760143 -0.75045115 0.044003118 -0.19694813 0.53195417 -0.093030006
0.22116712 -0.31577197 -0.09787897 0.24797295 -0.29549617 0.009599784 0.3094998 0.6996257
0.03209914 0.6062116 0.023096303 -0.03646313 -0.9810519 0.4243072 -0.12536275 0.08103003
0.9209052 -0.086736426 -0.39056993 0.124222085 -0.58424574 0.17362146 0.025572145 0.24015497
0.076640606 0.015199616 -0.6294606 0.38789964 -0.5855322 0.0066117817 -0.54337996 -0.30919057
0.24049887 -0.31535015 -0.095050596 -0.50005984 0.085404254 0.7093078 -0.13109557 -0.324611

fc.1.weight f4 [64]
00000000: 5f33 aa3f 98ab 343f be8a 853f 6114 593f
00000010: 059e 113f b916 873f e515 9e3f 2bb0 b43f
00000020: 1f36 913f ba21 aa3f 23c6 a03f 5fde 023f
00000030: 09de 923f 6803 c13f f6ce 6a3f f3c2 5f3f
00000040: 9af8 833f c1fa c13f 7ab7 473f 5ba8 b03f
00000050: 2ba3 d23f 5589 843f 6bc2 eb3f f3ee a03f
00000060: 56ca 553f 9ebf d63f a816 4e3f c301 893f
00000070: a016 d73f 8e1a 9a3f 2ae2 333f 0545 ad3f
00000080: 35b6 8f3f 90ea bc3f eae7 c03f 2c24 593f
00000090: 5f40 b43f 12ae a33f 9733 d13f 6632 3b3f
000000a0: 9c4f 833f e53d e63e c929 933f b5a9 903f
000000b0: 6ae9 883f f878 513f b0b8 1e3f 224d 623f
000000c0: 2617 ab3f d637 803f fa11 ca3f 3789 cb3f
000000d0: 3dd7 de3f 005b 833f 796d 813f 962f 703f
000000e0: 64f7 983f 0b01 153f 4f6a 6b3f b2c8 723f
000000f0: 5a3f 6e3f b368 bb3f bc62 863e 1646 7d3f
1.3296927 0.7057433 1.0432966 0.8479672 0.56881744 1.055381 1.2350432 1.4116262
1.1344641 1.3291543 1.2560467 0.5112056 1.147401 1.5079165 0.9172205 0.87406844
1.0310242 1.5154649 0.7801434 1.3801378 1.6456045 1.035441 1.8418707 1.2572922
0.83511865 1.6777227 0.8050332 1.0703663 1.680378 1.2039354 0.70266974 1.3536688
1.122748 1.4759083 1.5070775 0.8482082 1.4082144 1.2787497 1.6343869 0.73123777
1.025867 0.44969097 1.1497127 1.130179 1.0696232 0.8182521 0.6200056 0.88398945
1.3366439 1.001704 1.5786736 1.590125 1.7409436 1.0262146 1.0111533 0.9382261
1.1950498 0.58204716 0.9195909 0.94837487 0.93065417 1.4641327 0.26247203 0.9893507

fc.1.bias f4 [64]
00000000: 449b f13c 508f 353f f0d6 f1be 2e13 563f
00000010: 15ee f8be 08e1 523d 1aca 42bf 86e3 27bf
00000020: 3a8b a1be bb17 323f 3617 f63e e242 923d
00000030: 6bd7 65be a46f 58be 13eb b43e 0f10 bcbe
00000040: d57a 473d d40b 2ebf 24fa 33bd fb31 aebe
00000050: 4664 b7be 8ef8 103f bd63 27bf e550 52be
00000060: 7608 513f 5391 84be 6797 f13e 6f0f 68be
00000070: 940f 603d 175a 3a3f 5afd 5d3f b2f0 abbe
00000080: 13ab a7bf 349b 62be 2974 5f3e e0c2 90bf
00000090: 5d37 b3bd 56ff 8f3e 988b d7bc 3e3d 24bf
000000a0: 9c9c 51be 0f88 c1bf be03 bbbe 5cf5 0cbe
000000b0: ea4b 60bf d1e4 07be 7e53 2abf 0681 29bf
000000c0: 6e32 173e 678d a83e 9daf cebe bb6d 733e
000000d0: 9bd8 9cbe ba01 543f 34f5 443f 822e 833e
000000e0: a87b c43e be75 453e 0950 82be 6e4c dd3e
000000f0: 9477 d73e b57f 8cbf 4af6 973d 4ee8 e93e
0.029492982 0.709218 -0.47234297 0.83623016 -0.48619142 0.051484138 -0.7608963 -0.6558155
-0.31551534 0.6956746 0.48064584 0.07141663 -0.22445457 -0.21136338 0.35335597 -0.36731002
0.048701126 -0.679868 -0.043939725 -0.34022507 -0.3581869 0.56629264 -0.65386564 -0.20538671
0.81653535 -0.25892124 0.47185823 -0.22662137 0.054702356 0.72793716 0.8671471 -0.33582073
-1.3099083 -0.22129518 0.21821655 -1.1309471 -0.08750794 0.28124493 -0.02631168 -0.6415595
-0.20469898 -1.5119647 -0.36526293 -0.13765472 -0.87615836 -0.1327088 -0.6653365 -0.662125
0.14765331 0.3292038 -0.40368357 0.23772328 -0.30634007 0.82815135 0.7693665 0.2562142
0.38375592 0.19283196 -0.25451687 0.43222374 0.42083418 -1.0976473 0.07420023 0.45685047

fc.1.running_mean f4 [64]
00000000: 1f76 3f3e e7de 66be 4858 083f ae7e f9bd
00000010: 4528 023f 29e0 c9be 64dd 103e 7f77 66be
00000020: 7420 9ebe 8073 adbe 4029 2bbf b36e 13be
00000030: 06b3 b5bb 7161 ef3d 1c59 5bbe d977 573e
00000040: c77b 7bbe 0880 c93e 35fa a2be edd4 2fbf
00000050: ac4d f23d 28f3 87be 8d1e c53e bf96 f7bd
00000060: 1bcc 933e a08e d2be 9ac5 21bd 3669 453e
00000070: 440c b2be e005 d53b 23ec 493e 9c18 403f
00000080: b3d7 2b3d bec7 e83e 0c7c a83d 0dae 94bd
00000090: 66a4 92bf 758e f93e 36da 87bc 0888 8fbb
000000a0: 49b5 463f 0fc9 71be f844 5bbe 7b00 af3d
000000b0: f254 3fbf e1f1 bf3e ce25 343e 7f01 b73e
000000c0: 7131 013c 56a0 1ebd d67b 10bf c8e6 6d3e
000000d0: d1f2 04bf f728 773e 5bcc bbbe 5ca9 aabe
000000e0: b43c fd3d fc3e 9abe c3f4 043d ed9c c0be
000000f0: 26c0 9c3d 4362 373f b717 1abe ada0 13bf
0.18697403 -0.22545968 0.53259706 -0.12182365 0.50842696 -0.39428833 0.14146954 -0.22506522
-0.30884135 -0.33877182 -0.6685982 -0.14397697 -0.005545023 0.11688507 -0.21420711 0.21041812
-0.24558936 0.39355493 -0.31831518 -0.68684274 0.11831221 -0.265527 0.3849987 -0.120892994
0.28866658 -0.4112444 -0.03949509 0.19278416 -0.34774983 0.0065009445 0.19718985 0.7503755
0.041953754 0.4546489 0.08226785 -0.0725976 -1.145642 0.487415 -0.016583543 -0.00438023
0.7762037 -0.23611854 -0.21413028 0.085450135 -0.7473899 0.37489226 0.17592546 0.3574333
0.007885323 -0.038727127 -0.5643896 0.23232567 -0.5193301 0.2413672 -0.36679348 -0.33332336
0.12365094 -0.30126178 0.032459985 -0.37619725 0.07653837 0.7163431 -0.15048109 -0.57667047

fc.1.running_var f4 [64]
00000000: ea97 6d3f d048 063f 1588 ae3f 3fad 903e
00000010: 62bf ca3f 2064 2e3f a7dd 393f 2fe7 993f
00000020: c602 be3f b1b4 583f 921b 1a3f 17aa 043e
00000030: a74f c53f e1bf e43f e0f9 9e3e 5a61 a63e
00000040: d7cd 313f cee8 c13f 8d80 1a40 2dcb 193f
00000050: 4a96 fc3f 9a78 443e d690 c43f 3c17 713e
00000060: d858 083f e63e dd3f 1fa9 7b3e 0b2d b93e
00000070: 8576 1f3f 186e af3e a671 d93d 435f 893f
00000080: effb b53e ccca ea3f 68e3 a33e 7915 a83e
00000090: 9342 fa3d 7691 083f e8a6 de3f 8818 1640
000000a0: e73b de3e ba1a 9140 881d 933e 3112 dd3e
000000b0: c750 b73e ee61 a03f 714b 1440 ead4 2340
000000c0: 1331 a83e 01f6 d93e 30ba b73e 7959 a33e
000000d0: 596f 713f 097d 453e ff40 4a3e 6c18 b43e
000000e0: 81ff 213f 68c7 b93f 2290 993e ed5b fa3e
000000f0: 460b a33e d8ba d23f 49d7 1440 7426 8e3e
0.9280993 0.52454853 1.3635279 0.28257176 1.5839655 0.6812153 0.7260384 1.2023677
1.4844596 0.84650713 0.6019832 0.12955509 1.5414933 1.7871057 0.31050014 0.32496148
0.6945471 1.5149171 2.414096 0.60075647 1.9733365 0.19186631 1.53567 0.2354402
0.53260565 1.728482 0.24576233 0.36167178 0.6229022 0.34263682 0.1061738 1.0732197
0.35543773 1.8343139 0.32009435 0.32828882 0.12219729 0.53346956 1.7394686 2.3452473
0.43405077 4.5345125 0.28733468 0.4317794 0.35803816 1.2529886 2.3171046 2.5598702
0.3284994 0.425705 0.35884237 0.319042 0.9431053 0.19285978 0.19751357 0.35174882
0.63280493 1.4513979 0.29992777 0.4889826 0.31844538 1.646327 2.32564 0.27763712

fc.4.weight f4 [32, 64]
00000000: 17fa 6dbe 9f11 c3be 215e 883d e514 0fbf
00000010: ca5e 38be 03c8 8fbd f30b 36bf 102b 94be
00000020: ea60 25be 38d1 6c3e c059 583c e366 13be
00000030: 9bd9 563c e37a 89be 8237 f9be 6339 4c3e
00000040: 095d bcbe 2eca 1cbe 6d78 443e b2e7 773d
00000050: b886 cfbd 924c b9be 92fb a9be 72ac bc3e
00000060: 1755 21bf 0610 c6bd 691b 8fbd f704 7abe
00000070: 0205 7cbd a722 2dbf fc48 493d 1470 33be
00000080: 187f 13be d4f1 b6be f478 28bf 948a 72be
00000090: 7309 04be e5b5 663e 7a7b 683e 204c 643d
000000a0: bd12 54bd fd49 a5bc d232 083e 29de 943d
000000b0: a76d 173f 24cc 813e 5ab0 813e 34c2 683d
000000c0: 34e7 97be 82ce 84be 7d73 79bd 6c67 2ebd
000000d0: 3096 5c3d e0da 65bf e35d a3bf 2480 7cbe
000000e0: 4677 11bf 1785 753e b0a7 b23d 443c 863e
000000f0: ff27 9dbd a6ec e5be 4036 76bd 5ff5 d2be
00000100: 09cd 59bf b689 5ebe 2248 3f3e f0f2 963e
00000110: 8722 713c 3ddb e5bc 80fb 44be c6a2 52bf
00000120: 5a19 033e 3477 10be c017 84bb 609c a93d
00000130: 83ae 143f e4e2 ba3c b9e5 d33b 4dd3 383d
00000140: fe17 ec39 9579 4fbf 9ae2 8c3e 6c02 803d
00000150: 7af2 80be 1739 0abf 1cf0 90bf 48e8 8b3e
00000160: 58e8 c8be 1702 5abf 32c9 c5bd ca74 203e
00000170: f6e7 05bf cc4c 19be a9c8 86bd 1bd8 26bf
00000180: 318c 91bd 368c 5dbf 4eb6 67bd 2140 21bd
00000190: 4f1c 303f dcf0 11be b448 633d 2131 9fbd
000001a0: 9fe9 1b3e 9b3e 00bf cd35 033f c10c a43e
000001b0: 1238 9d3e cfa7 75be 6398 0d3e 1eaf 753e
000001c0: 6110 26be e36b 22be 62c6 35bf 4ef3 17be
000001d0: e369 e43d 3b20 8ebe 10c8 9fbe 8874 8ebe
000001e0: 05af 6e3d 66e3 023d ed4f e33e a0a5 5cbe
000001f0: 3df4 19bf b2db 34bf 5002 ae3e 1934 f23d
00000200: 8d92 2cbe 624b 02bf 201e 8b3d 25c1 e53c
00000210: 92d0 953d d734 ab3c 1a49 00be 2423 053f
00000220: c133 c2be 5e96 7bbf 4ce3 a33d 12a6 8e3e
00000230: 84e8 fa3e 695f 76bf 3ad0 d7bd ed56 d73d
00000240: db76 4dbe 0d15 983e 3e13 953e 630a 4bbf
00000250: 1173 babe 7f67 5ebe fd62 2b3d b53a 8e3e
00000260: 4b85 df3e 5a43 76be bc0b 1dbe db6c febb
00000270: 4cfc 27bf dfa6 f83e 85c0 e7bd 8dac 8c3e
00000280: 6f9f 9cbe 4428 e6bd 5624 c83e 1068 ecbd
00000290: 0392 ce3e cafd f5be d0a0 87bf 98d7 523d
000002a0: 9419 cf3e 24c1 2ebe 95cb 32bd e99c 523e
000002b0: 6a06 563e fb3a babe 7fef 70be 89d0 6b3e
000002c0: f55b a2bd 229c a73e 4ca9 0abe 8f3c abbc
000002d0: 51a6 7ebf f074 e1be fc36 623e 7027 8abd
000002e0: c598 b43d 2c68 503e 6bf3 813e 28ec ddbe
000002f0: bac8 66bd faf5 17bf e9fd b33e c772 9fbe
00000300: cf73 2dbf aefc 8fbe becc aebd 02b6 433c
00000310: 2387 1cbd b9fd 09be cd16 23be d0da 033e
00000320: 66c6 80bf a81c 3dbf 6b38 70be b67e c7be
00000330: 5334 2f3e 0726 99bf 1a14 9cbe bcab d23e
00000340: 61a4 97be 6e82 063e 8361 82be 5879 c0be
00000350: 2fe2 8ebf 184e 10be d3ff 12be cf2b 043e
00000360: 67e5 86bd a618 49be 5699 c0be 91cb 17be
00000370: e362 eebe c87c aebe ad51 f4be 639e 42be
00000380: 01c8 0f3e bcaa dabd 01bd 72bf 8f4c 91be
00000390: ae9d 023f 148f 38bf cab5 5ebf fede 1e3e
000003a0: 57a6 aabd 0edd 05bf cd85 673e d593 da3d
000003b0: d78f b53e 1866 f83c eb73 943d 42f7 abbd
000003c0: dd0a 81be 3506 85bc 7186 f2be fd34 23bf
000003d0: 6659 73bf c08c f2bb 7c73 4fbe 36fc 4dbf
000003e0: b3ef 67be 6fd1 a63e 1001 b03e 9d72 b4be
000003f0: d227 01be 2b5c c8be f6ac 9fbd 7694 633d
-0.23239933 -0.3809938 0.06658579 -0.5589126 -0.18004909 -0.07020571 -0.71111983 -0.28939104
-0.16150251 0.23126686 0.013204992 -0.14394717 0.013113405 -0.26851568 -0.48675162 0.19943766
-0.3678973 -0.153115 0.19186564 0.060523696 -0.101331174 -0.3619123 -0.33199745 0.36850315
-0.6302046 -0.09671025 -0.0698765 -0.24415956 -0.061528213 -0.67631 0.04914187 -0.17523223
-0.14403951 -0.35731375 -0.6580956 -0.23685676 -0.1289423 0.22530325 0.22703353 0.05573666
-0.051775683 -0.020176882 0.13300636 0.07268936 0.5915169 0.2535106 0.25329858 0.05682583
-0.2966858 -0.25938803 -0.060901154 -0.0425791 0.053854167 -0.897871 -1.2763027 -0.24658257
-0.5682262 0.23976551 0.0872339 0.26217854 -0.07673644 -0.4490711 -0.06011033 -0.41202828
-0.85078484 -0.2173222 0.1867986 0.29482222 0.014717705 -0.028058643 -0.19236565 -0.8227962
0.1280264 -0.14107972 -0.0040311515 0.08281779 0.58078784 0.022813268 0.006466594 0.045123387
0.00045031303 -0.81044894 0.27516633 0.06250462 -0.25184995 -0.5399336 -1.1323276 0.27325654
-0.39239764 -0.8515944 -0.096575156 0.15669551 -0.5230707 -0.14970702 -0.06581242 -0.651735
-0.071068175 -0.8654207 -0.056570344 -0.0393678 0.68793195 -0.14252037 0.055489257 -0.077730425
0.15225838 -0.5009553 0.5125397 0.3204098 0.3070684 -0.23989795 0.13827662 0.23992583
-0.16217186 -0.15861468 -0.71005833 -0.14838907 0.11153009 -0.27758965 -0.31207323 -0.2782328
0.05827238 0.031955145 0.44396916 -0.21547556 -0.60138303 -0.7064773 0.3398614 0.11826343
-0.1685278 -0.50896275 0.06792855 0.0280462 0.07315172 0.02089922 -0.12527886 0.52006745
-0.3793011 -0.9827632 0.08002338 0.27861077 0.4900552 -0.96239334 -0.10537763 0.10514627
-0.20064871 0.2970356 0.29116243 -0.79312724 -0.36415914 -0.21719168 0.04184245 0.27779165
0.43656382 -0.2404913 -0.15336508 -0.0077644414 -0.6561935 0.48564813 -0.11316017 0.27475396
-0.30590388 -0.11238149 0.39090222 -0.11543286 0.40345773 -0.48045188 -1.0595951 0.051475137
0.40449202 -0.17065865 -0.043651182 0.20567669 0.20900884 -0.36373124 -0.2352886 0.23028769
-0.07927696 0.32736307 -0.13541144 -0.0209029 -0.9947253 -0.4403453 0.22091287 -0.06745803
0.08818201 0.20352238 0.25381026 -0.43344235 -0.05634377 -0.59359705 0.35154656 -0.31142256
-0.67754835 -0.28122467 -0.08535145 0.0119452495 -0.038214814 -0.13475694 -0.15926667 0.12876439
-1.0060546 -0.7387185 -0.23459022 -0.3896386 0.17109804 -1.196473 -0.30484086 0.41146648
-0.296176 0.13135692 -0.2546502 -0.37592578 -1.1162776 -0.1409229 -0.14355402 0.12907337
-0.06586724 -0.19638309 -0.37616986 -0.14823748 -0.4655982 -0.34079576 -0.47718564 -0.19005732
0.14041139 -0.10677096 -0.9481965 -0.28378722 0.5102185 -0.7209332 -0.8699614 0.15514752
-0.08332508 -0.5229043 0.22609635 0.10672728 0.35461304 0.03032212 0.07248672 -0.0839677
-0.252036 -0.016238311 -0.47368196 -0.6375273 -0.95058286 -0.0074020326 -0.20258898 -0.8046297
-0.22650032 0.3258166 0.3437581 -0.35243693 -0.12612846 -0.3913282 -0.077966616 0.055561505

fc.4.bias f4 [32]
00000000: 7271 4e3d 2f74 88bd 55ec 333e 7a12 753e
00000010: 53a8 723e f7dc fabd 17a5 86bd 0555 393e
00000020: a726 013e d0e5 10bc 2ee6 103c 5901 043d
00000030: c0b9 b93c 2706 533c 0acb 273e fc02 44be
00000040: 5e87 e43d 6213 b03c ee95 2b3d 911e 8c3e
00000050: 41fb e73d 110f ae3e 8d40 003e e531 54be
00000060: c8bb 463e 484b a5bd 5281 e23d f964 36be
00000070: 0606 c93d d0e1 6f3d c95b a33d edc6 623d
0.05040116 -0.06662785 0.17570622 0.2393283 0.23697023 -0.12249177 -0.06574457 0.18098839
0.12612401 -0.008843854 0.008843942 0.032227848 0.02267158 0.012879885 0.16386047 -0.19141763
0.11158632 0.021493617 0.04189103 0.2736707 0.1132722 0.3399587 0.12524624 -0.20722158
0.1940757 -0.080709994 0.11059822 -0.17811956 0.09815602 0.05856496 0.07976491 0.05536549

fc.5.weight f4 [32]
00000000: 1b49 713f 315d 183f 6e07 933e 95c2 483f
00000010: c303 933e 2216 213f ca86 353f f221 223e
00000020: 9df0 583f 6b6e 1b3f 45bd 8c3e a15d 5bbe
00000030: bc8c 1c3f 1aa6 073f a0c2 f43e c10f 333f
00000040: cc02 3e3f baf4 213f 9e17 4b3f 2c0c ad3e
00000050: e1f7 1e3f c976 763f debd 1d3e a7d5 403e
00000060: 478c 0c3f 6a28 3a3f 0d9a 1e3f e5f3 973e
00000070: b8bc 3d3f e204 65be 4aae 743f f530 263f
0.94252175 0.595172 0.28716606 0.7842191 0.28713807 0.62924397 0.70908797 0.15833262
0.84742147 0.6071536 0.2748815 -0.21422435 0.61152244 0.52987826 0.47804737 0.69945914
0.7422302 0.6326405 0.7933291 0.3379835 0.62096983 0.96275 0.1540446 0.18831502
0.54901546 0.72717917 0.6195381 0.29678264 0.74116087 -0.22365144 0.95578444 0.6491845

fc.5.bias f4 [32]
00000000: 9c58 4a3e 2edc 123f c031 353f 66a8 a93e
00000010: 4ea6 393f f98a fb3e bb6b ef3e efb4 3b3f
00000020: 358f 193e a67a 1f3f 39f0 2f3f c810 343f
00000030: 37b3 b53e e6df 203f bd44 333f dfd6 c83e
00000040: e536 0e3f 0704 1b3f 3797 913e d952 433f
00000050: 855c 103f e316 103e 94ca 2e3f 20a5 293f
00000060: 2a8c ef3e 877e 783e 3ad7 1d3f 9e2b 3f3f
00000070: e3b6 ef3e a94a 363f c1fd 913e d27e fe3e
0.19760364 0.5736722 0.7077904 0.3313629 0.72519386 0.49129465 0.4676188 0.7332296
0.14996035 0.6229652 0.68725926 0.70338106 0.35488293 0.6284164 0.7002676 0.39226434
0.5555251 0.6055302 0.2843568 0.7629829 0.56391174 0.1407123 0.6827786 0.66267586
0.46786624 0.24267016 0.61656535 0.7467593 0.4681922 0.7120767 0.2851391 0.4970613

fc.5.running_mean f4 [32]
00000000: 086c d5c0 d7a7 a3c0 6c14 53c0 e5b8 0bc1
00000010: c60e d6c0 20b1 2ec0 718d ebc0 e0b3 b6bf
00000020: 0855 29c1 6666 b1c0 990e 4ec0 6f96 b33f
00000030: 370a 3941 37e0 3fc0 ae8e 0fc0 0297 b0c0
00000040: 6d00 b0c0 9d69 27c0 749f b3c0 585d 1fc0
00000050: c805 c0c0 1462 f9c0 3099 2ac0 5b2f abc0
00000060: 991a 04c0 5ee4 3141 7250 92c0 8bd1 02c0
00000070: d2b5 d0c0 51e6 c33f 5539 12c1 327d 05c1
-6.6694374 -5.1142383 -3.2981215 -8.73264 -6.6893034 -2.7295609 -7.361016 -1.4273643
-10.58326 -5.54375 -3.219641 1.4030284 11.564994 -2.99806 -2.2430835 -5.5184336
-5.500052 -2.6158211 -5.6132145 -2.4900723 -6.0007057 -7.7932224 -2.6655998 -5.3495307
-2.0641234 11.118254 -4.57232 -2.0440395 -6.522195 1.5304662 -9.138997 -8.343065

fc.5.running_var f4 [32]
00000000: 3c2d ce41 fa28 7342 a786 1342 a6b5 6742
00000010: 8d05 6142 6e31 2a42 3ef8 5b42 4639 9541
00000020: 0372 8142 6ae7 8542 2221 0342 3611 1d42
00000030: 45de 1342 9d73 3d42 8a5d 9041 ccbe 4f42
00000040: 5a4f d841 c9b3 5642 7935 1b42 958d 0142
00000050: 279e 6e42 01c0 4042 8817 ee41 b7fe 2742
00000060: f82d e041 51f7 4142 bfba 5e42 3e11 f841
00000070: ac56 5d42 35e9 fb41 f9e8 5142 b7cd 7942
25.772087 60.790016 36.881496 57.92739 56.25542 42.54827 54.992424 18.652966
64.72268 66.95198 32.782356 39.266808 36.96706 47.362904 18.045673 51.936325
27.038746 53.67557 38.80222 32.388264 59.654446 48.187504 29.76149 41.998745
28.022446 48.49152 55.68237 31.008419 55.33464 31.48887 52.477512 62.450893

fc.8.weight f4 [1, 32]
00000000: ed9f a63e ee29 893e d3b2 8e3e 25fd 913e
00000010: bf9e a33e 1a18 8c3e 6dd6 9c3e f82a 823e
00000020: 740b 6c3e 860e 973e 7761 413e 3e2c 693e
00000030: 2655 7a3e dd92 913e 7e4b 903e 8b8c 933e
00000040: af94 913e fccf 9a3e bbcb 843e e01b 953e
00000050: dcaa 773e 6db5 b23e a97c 643e 4e02 583e
00000060: 554b 7c3e 4f50 583e 5659 8e3e dcc2 623e
00000070: 8ee0 873e a0ef 723e aa74 b43e 3953 943e
0.3254389 0.26789802 0.27870807 0.28513446 0.3195705 0.27362138 0.30632344 0.25423408
0.23051244 0.29503268 0.18884836 0.22770783 0.24446544 0.2843236 0.28182596 0.28818163
0.2843375 0.30236804 0.25936684 0.2912283 0.24186271 0.34904042 0.22313179 0.21094629
0.24638112 0.21124385 0.27802533 0.22144645 0.2653851 0.23724222 0.35245258 0.28969744
