best_model.pt (torch, 14054 bytes, 5 tensors)

model.0.weight f4 [64, 10]
0.05248438 0.17315094 -0.082864776 0.37278423 -0.30546322 0.0030881327 -0.09458961 0.29220173
0.32421312 0.06991048 0.2464538 0.0505593 0.22094211 0.039244007 0.056076195 -0.07652176
0.2835614 0.11585641 0.11291985 0.2259387 -0.115382634 0.10590499 0.029738791 0.4267676
-0.46918324 -0.08802791 0.10498332 -0.06655483 -0.114366435 -0.21088527 0.1629739 -0.3061038
0.18523875 0.12252524 -0.27732176 0.14495844 0.11193427 0.34112507 0.20279263 0.08170414
0.0081574535 -0.11637454 0.123554476 0.29804385 0.08880238 -0.21240474 0.15378046 0.21452507
0.5986257 -0.02938526 -0.30736443 -0.14687957 -0.19396256 0.315553 0.07404236 0.18123756
0.27681744 -0.10981073 0.08994976 -0.05742668 -0.041151 -0.19426185 0.056909386 0.00042308948
-0.024975384 -0.058176965 0.3262422 -0.015427924 0.0019890752 0.0042523486 0.22771426 0.10999477
0.34798023 -0.08624772 -0.5885203 -0.19905382 0.019625932 0.19947809 0.20192938 0.4201334
-0.17769308 -0.1746287 0.18770184 -0.060168117 -0.13549109 -0.13386999 0.32448736 -0.05798675
-0.17726694 0.23020129 -0.028768566 -0.106553316 0.2413118 0.2793132 -0.53625894 -0.2264667
0.307135 -0.00866819 0.08416089 0.009269033 -0.12123687 0.21573655 0.038774863 0.03241002
-0.08022224 -0.09305651 -0.05793392 0.098324105 -0.18124141 0.02614521 0.1584699 -0.024695264
0.24113816 -0.11479582 -0.6836357 -0.059315335 0.3097261 -0.070129566 -0.22829911 0.06771385
0.09803201 0.063644335 0.09050576 0.10369507 -0.26115516 0.0017262346 0.14326681 -0.0019105632
0.25266203 0.17362492 0.20079632 0.13828559 -0.15385848 0.38937643 -0.28777313 -0.10996901
-0.13529892 -0.042545058 0.20148897 0.14910218 0.11088486 -0.18366072 0.26585293 -0.11258593
-0.29772568 0.07712535 0.29863447 0.35527351 0.28082615 -0.022778742 0.0680379 -0.057497893
-0.0053125047 -0.11786366 0.1447057 -0.22570825 0.28834382 0.21642853 0.1951311 0.05186646
0.20142397 0.06272922 0.016006716 -0.18985343 0.0020813867 -0.047067985 -0.080387056 0.4512812
0.29781583 0.10646271 -0.14107023 0.092034206 0.31087205 0.14574797 -0.25103185 0.021453256
-0.050707232 0.37417167 0.30800876 -0.090130694 -0.054137543 0.09970379 -0.043730136 -0.059623607
-0.018327435 0.10228082 0.14354059 0.097463705 0.27770194 0.24412838 -0.13507853 -0.08768675
0.18721326 0.3543582 -0.20749353 -0.09739186 0.072978795 0.12052571 0.17679526 0.2151545
-0.46369475 -0.28905302 0.4159219 0.2382312 0.14533342 -0.11078231 -0.15511724 0.04349256
-0.23160043 -0.07805553 0.104691096 0.13052773 -0.19687882 -0.07212929 -0.17236426 0.30953342
0.11724151 0.10177951 0.28898856 0.13034159 -0.2730729 0.2256411 -0.04669713 0.10603571
-0.6649981 0.18368867 0.3498939 0.17393883 -0.019431699 0.14405213 -0.37421572 0.1791934
0.06770591 0.31333992 -0.013618758 -0.01686478 -0.012529579 -0.06257443 0.08588992 -0.0815469
0.17177193 -0.0030053009 0.013594661 0.078329176 -0.16093256 -0.08595071 0.030332545 0.32198736
-0.031155089 0.32883164 -0.040364414 -0.09051238 0.066232756 0.1002104 -0.2510021 -0.18854527
00000000: dcf9 563d 7b4e 313e 02b5 a9bd 93dd be3e
00000010: ad65 9cbe 4562 4a3b 33b8 c1bd 779b 953e
00000020: 43ff a53e 3a2d 8f3d 635e 7c3e 4517 4f3d
00000030: a63e 623e 53be 203d 27b0 653d 71b7 9cbd
00000040: f62e 913e 2046 ed3d 8642 e73d 795c 673e
00000050: bb4d ecbd b7e4 d83d c49e f33c 4881 da3e
00000060: c938 f0be fa47 b4bd 7f01 d73d e64d 88bd
00000070: f338 eabd 4ff2 57be a1e2 263e a3b9 9cbe
00000080: 3aaf 3d3e 83ee fa3d 1efd 8dbe fc6f 143e
00000090: cb3d e53d f2a7 ae3e dfa8 4f3e 8054 a73d
000000a0: d7a6 053c c655 eebd 210a fd3d 3499 983e
000000b0: 06de b53d a180 59be a078 1d3e 76ac 5b3e
000000c0: 893f 193f 5bb9 f0bc df5e 9dbe 9967 16be
000000d0: 1f9e 46be 2a90 a13e 85a3 973d 5796 393e
000000e0: 04bb 8d3e 73e4 e0bd 9437 b83d 3d38 6bbd
000000f0: f38d 28bd 94ec 46be d119 693d 1cd2 dd39
00000100: 2d99 ccbc f84a 6ebd 3809 a73e 67c5 7cbc
00000110: 255b 023b 4957 8b3b ed2d 693e f044 e13d
00000120: 772a b23e a5a2 b0bd 44a9 16bf c4d4 4bbe
00000130: 90c6 a03c fc43 4c3e 93c6 4e3e ba1b d73e
00000140: 2df5 35be ded1 32be e934 403e d872 76bd
00000150: 2dbe 0abe 3715 09be 3523 a63e 8483 6dbd
00000160: 7785 35be e3b9 6b3e 0eac ebbc a038 dabd
00000170: 711a 773e 2402 8f3e 4448 09bf e3e6 67be
00000180: cc40 9d3e 0605 0ebc 8b5c ac3d 24dd 173c
00000190: 094b f8bd 0bea 5c3e 64d2 1e3d 5ec0 043d
000001a0: 8f4b a4bd 6994 bebd 1e4c 6dbd 265e c93d
000001b0: 5997 39be 7b2e d63c ef45 223e b94d cabc
000001c0: ecec 763e 121a ebbd c002 2fbf a3f4 72bd
000001d0: 6b94 9e3e 17a0 8fbd 3ec7 69be 8fad 8a3d
000001e0: 02c5 c83d f657 823d 155b b93d 155e d43d
000001f0: 21b6 85be d242 e23a 89b4 123e dd6b faba
00000200: eb5c 813e bbca 313e 8d9d 4d3e bd9a 0d3e
00000210: 148d 1dbe 595c c73e 0057 93be 6f37 e1bd
00000220: cd8b 0abe ba43 2ebd 2053 4e3e 3eae 183e
00000230: 9a17 e33d 8e11 3cbe e01d 883e 7493 e6bd
00000240: 806f 98be e5f3 9d3d 9ee6 983e 69e6 b53e
00000250: 72c8 8f3e 7c9a babc 7457 8b3d e982 6bbd
00000260: 8514 aebb 8162 f1bd bb2d 143e 1020 67be
00000270: cda1 933e 719f 5d3e 72d0 473e ed71 543d
00000280: 1642 4e3e 2d78 803d 8420 833c f068 42be
00000290: e067 083b 5cca 40bd f8a1 a4bd 540e e73e
000002a0: 517b 983e 1f09 da3d b774 10be 6e7c bc3d
000002b0: 9f2a 9f3e f53e 153e 3f87 80be bdbe af3c
000002c0: 63b2 4fbd 6e93 bf3e 53b3 9d3e 7196 b8bd
000002d0: 54bf 5dbd 8031 cc3d 5f1e 33bd e237 74bd
000002e0: 6b23 96bc 9b78 d13d 4efc 123e 0d9b c73d
000002f0: f32e 8e3e cafc 793e 0752 0abe 1c95 b3bd
00000300: d5b4 3f3e 706e b53e 2f79 54be 6275 c7bd
00000310: e875 953d 2fd6 f63d d109 353e 7651 5c3e
00000320: 6669 edbe c2fe 93be b7f3 d43e e1f2 733e
00000330: 49d2 143e d6e1 e2bd 0ed7 1ebe 4125 323d
00000340: aa28 6dbe 94db 9fbd 4968 d63d 10a9 053e
00000350: 9a9a 49be 85b8 93bd 4280 30be 2a7b 9e3e
00000360: 511c f03d c771 d03d 4ff6 933e 4478 053e
00000370: 36d0 8bbe 760e 673e 7d45 3fbd 4029 d93d
00000380: 513d 2abf e218 3c3e 4b25 b33e 051d 323e
00000390: 3a2f 9fbc 6782 133e 3499 bfbe 7a7e 373e
000003a0: 65a9 8a3d 176e a03e 3621 5fbc 0228 8abc
000003b0: dd48 4dbc 0627 80bd 0ee7 af3d 1002 a7bd
000003c0: fbe4 2f3e 95f4 44bb 24bc 5e3c 0c6b a03d
000003d0: 81cb 24be ed06 b0bd f57b f83c 87db a43e
000003e0: f538 ffbc 9f5c a83e 2855 25bd 8e5e b9bd
000003f0: 0aa5 873d 1c3b cd3d 5983 80be 0312 41be

model.0.bias f4 [64]
0.2621946 -0.15096031 0.30236322 0.3380651 -0.0362199 -0.22411509 0.31749377 0.023441302
0.18305556 0.08708932 0.51655227 0.03204856 0.46362296 0.29526433 0.18115802 0.4007892
0.22204179 0.039270177 0.2162615 0.3627503 -0.34156367 0.30790636 0.003361445 0.4536007
0.29623467 0.19636284 0.4149538 0.2070378 0.33845657 -0.15804273 0.08569991 0.32815838
0.42548162 0.37200308 -0.017037787 0.37053224 -0.06583477 0.15116954 0.009652117 0.21182907
0.41313496 0.31130546 0.051701073 0.16843133 0.087581255 0.3910687 -0.0744633 0.22839013
-0.061820768 0.14560924 0.3318572 0.47396737 0.22597879 0.45423338 0.22026336 0.23662002
0.5121731 0.40626642 0.09436099 0.44387558 0.36581716 0.03279962 0.0712584 -0.19075096
00000000: 5f3e 863e 5795 1abe 5acf 9a3e de16 ad3e
00000010: 515b 14bd 6d7e 65be 8b8e a23e f907 c03c
00000020: eb72 3b3e e35b b23d c53c 043f 5a45 033d
00000030: fd5f ed3e e32c 973e 7d81 393e 3e34 cd3e
00000040: ec5e 633e c4d9 203d a873 5d3e 68ba b93e
00000050: 6fe1 aebe e7a5 9d3e b04b 5c3b 5a3e e83e
00000060: 12ac 973e 5713 493e d374 d43e b801 543e
00000070: 2e4a ad3e f4d5 21be 6f83 af3d 6004 a83e
00000080: bad8 d93e 3077 be3e d492 8bbc 67b6 bd3e
00000090: 61d4 86bd 30cc 1a3e ea23 1e3c b8e9 583e
000000a0: 6d86 d33e 6e63 9f3e 81c4 533d 4379 2c3e
000000b0: cd5d b33d 283a c83e 3780 98bd 1adf 693e
000000c0: c637 7dbd 971a 153e 30e9 a93e daab f23e
000000d0: fc66 673e 4791 e83e b88c 613e 854c 723e
000000e0: c71d 033f 2702 d03e 5640 c13d a943 e33e
000000f0: 634c bb3e e558 063d edef 913d 3854 43be

model.3.weight f4 [32, 64]
0.15519354 -0.117566384 0.38369414 0.08087795 -0.05668091 -0.110887654 0.06334205 0.103417866
0.2487781 0.07955439 0.17316663 0.44033685 0.15016304 0.043178823 0.085385635 0.042770773
-0.04549221 0.103793755 0.100796536 0.20651649 -0.37963006 0.103726655 0.36847475 0.0015273313
0.022100426 0.114706166 0.13218905 -0.032543153 -0.10583569 -0.12171951 0.2430054 0.107498415
0.057553634 0.012023749 0.20182845 0.21787895 -0.030994374 0.19250366 0.079537064 0.22970898
0.04532052 0.020346707 0.19163698 0.1272734 0.039022587 0.19078068 0.04976861 0.12214665
0.10810893 0.078983955 0.15182902 0.06983253 0.11803037 0.12481936 0.07881635 0.24461633
-0.04440091 0.116658755 0.04894646 0.062940694 0.02543962 0.14872026 0.11682564 -0.24838635
0.05847217 0.12299291 0.31190467 0.10688249 -0.021115882 -0.15156873 0.07283778 0.012247689
0.056811843 0.22176503 0.10504957 0.3089088 0.105994806 0.09214075 0.11749656 0.12138462
0.0004637132 0.013561897 0.11647807 0.121813916 -0.32575566 0.19075723 0.27763805 0.18831277
0.16023476 0.020825995 0.14165342 0.0048104916 -0.00068684807 -0.06677564 0.06903538 0.16549468
0.09751005 0.12060343 0.058664244 0.15567154 -0.05411303 0.08161357 0.09497231 0.16426726
0.17477153 0.02910996 0.06653971 0.21390356 0.1936298 0.12289881 0.109511875 0.051713742
0.21948576 0.19482704 0.054706782 0.17053254 0.17830943 0.18463628 0.07173335 0.028884038
0.021017302 0.12825951 0.18447155 0.045866683 0.14523669 0.037181053 0.1870639 -0.013919951
-0.17851906 -0.050741926 -0.055395793 0.02948798 -0.08007936 0.07310975 0.09089066 -0.091399655
0.38756067 -0.032264017 -0.0927738 -0.23492542 -0.066211574 -0.26405355 -0.011035547 -0.09800564
-0.12945417 0.13155131 -0.026249224 -0.015109327 0.22349165 -0.12849963 0.10059813 0.058045145
-0.008541389 0.141807 0.06760522 0.077385515 -0.010861727 -0.13272811 0.040831745 -0.13233443
0.0652683 -0.12909275 0.15230112 0.0064893723 -0.0070647886 -0.26103312 0.013369212 0.18505928
-0.047130704 0.060133114 -0.17420955 -0.12807977 -0.04199418 0.009215637 0.051672537 -0.06567308
-0.062006842 -0.040154345 0.095218346 0.058268677 -0.009466081 0.04264343 0.017907236 -0.07035876
-0.26233098 0.09640595 0.0124869095 -0.17908715 -0.11471696 -0.061923493 0.11004172 0.11647899
0.08191014 -0.06574205 0.24347907 0.011484766 0.16154085 -0.065127544 0.184459 0.040867392
0.15675007 0.2230887 -0.0162725 0.3104394 0.08610462 0.059438884 -0.007994669 0.19332717
0.15938716 0.18135391 0.15792681 0.035899103 -0.27996418 0.12887561 0.2814829 0.08551679
0.0064582033 0.17243575 -0.009178143 0.10329637 0.18619367 -0.13412513 0.11137536 0.111896634
0.0847208 0.07733729 0.26110396 0.035962798 -0.15672016 0.08607793 0.009609144 0.06958136
0.04494651 0.13765751 0.14691843 0.14892334 0.045091126 0.059834663 0.0030596456 0.026741734
0.00802489 0.11806213 -0.016975388 -0.016313823 0.011130722 0.15458892 0.062294636 0.067029536
0.141963 0.171221 0.18095233 0.032130618 0.009663649 0.06354593 0.19711879 -0.07192862
00000000: 0eeb 1e3e a5c6 f0bd 8f73 c43e 57a3 a53d
00000010: 3e2a 68bd 1119 e3bd 7ab9 813d bfcc d33d
00000020: b0bf 7e3e 69ed a23d 9852 313e d573 e13e
00000030: 57c4 193e 47dc 303d aade ae3d 6830 2f3d
00000040: 0a56 3abd d291 d43d 6a6e ce3d 0f79 533e
00000050: df5e c2be a46e d43d b9a8 bc3e bc30 c83a
00000060: f40b b53c 11eb ea3d 915c 073e f84b 05bd
00000070: 62c0 d8bd 1448 f9bd 68d6 783e 2128 dc3d
00000080: 5cbd 6b3d 42ff 443c 1eac 4e3e a91b 5f3e
00000090: eae7 fdbc ae1f 453e 54e4 a23d d538 6b3e
000000a0: 02a2 393d 23ae a63c 7c3c 443e f553 023e
000000b0: 26d6 1f3d 035c 433e 2cda 4b3d 0628 fa3d
000000c0: 3768 dd3d 57c2 a13d 1179 1b3e 5c04 8f3d
000000d0: e8b9 f13d 4ba1 ff3d 776a a13d b47c 7a3e
000000e0: bbdd 35bd c9ea ee3d 157c 483d 0de7 803d
000000f0: c066 d03c 204a 183e 4842 ef3d fe58 7ebe
00000100: 8480 6f3d b5e3 fb3d f8b1 9f3e 35e5 da3d
00000110: 37fb acbc d534 1bbe f92b 953d 88aa 483c
00000120: 89b3 683d 5f16 633e 3b24 d73d 4b29 9e3e
00000130: ce13 d93d 4ab4 bc3d 09a2 f03d 8098 f83d
00000140: 881e f339 b832 5e3c 0e8c ee3d 9379 f93d
00000150: 72c9 a6be dd55 433e 9326 8e3e 10d5 403e
00000160: 9514 243e 479b aa3c 980d 113e 54a1 9d3b
00000170: 980d 34ba abc1 88bd 6c62 8d3d 7077 293e
00000180: 59b3 c73d eefe f63d eb49 703d 5c68 1f3e
00000190: a0a5 5dbd 0425 a73d d880 c23d ad35 283e
000001a0: 4ff7 323e 0378 ee3c f945 883d 8909 5b3e
000001b0: e446 463e 5fb2 fb3d c347 e03d cad1 533d
000001c0: e0c0 603e bd80 473e 3814 603d 15a0 2e3e
000001d0: bf96 363e 4b11 3d3e efe8 923d 389e ec3c
000001e0: 7a2c ac3c 7656 033e 1ce6 3c3e b4de 3b3d
000001f0: edb8 143e 294b 183d ae8d 3f3e 8210 64bc
00000200: b3cd 36be c4d6 4fbd b3e6 62bd c790 f13c
00000210: a600 a4bd 91ba 953d e224 ba3d be2f bbbd
00000220: 5a6e c63e 4627 04bd 3100 bebd 4a90 70be
00000230: ef99 87bd 0732 87be 70ce 34bc 2eb7 c8bd
00000240: a28f 04be 63b5 063e 9d08 d7bc 1c8d 77bc
00000250: ffda 643e 6895 03be 6406 ce3d bfc0 6d3d
00000260: 2ff1 0bbc db35 113e 9b74 8a3d 4c7c 9e3d
00000270: 63f5 31bc e1e9 07be 303f 273d ad82 07be
00000280: 63ab 853d e430 04be d3f4 1b3e cda4 d43b
00000290: be7f e7bb 22a6 85be 8a0a 5b3c 2e80 3d3e
000002a0: 200c 41bd 244e 763d fd63 32be 5827 03be
000002b0: 1702 2cbd 2ffd 163c 95a6 533d 9c7f 86bd
000002c0: e3fa 7dbd e278 24bd d601 c33d 23ab 6e3d
000002d0: 9f17 1bbc e1aa 2e3d 32b2 923c 4118 90bd
000002e0: 3f50 86be 7c70 c53d e595 4c3c 9f62 37be
000002f0: baf0 eabd 7da3 7dbd 8e5d e13d 898c ee3d
00000300: 81c0 a73d c5a3 86bd 9452 793e 9a2a 3c3c
00000310: f76a 253e 9761 85bd d2e2 3c3e 9164 273d
00000320: 1783 203e 5d71 643e e84d 85bc eaf1 9e3e
00000330: 9e57 b03d 3076 733d 12fc 02bc 8ff7 453e
00000340: 6336 233e d7b4 393e 91b7 213e f00a 133d
00000350: 7757 8fbe f8f7 033e 871e 903e 6d23 af3d
00000360: 569f d33b ff92 303e ec5f 16bc 0c8d d33d
00000370: 8ea9 3e3e 1958 09be c418 e43d 102a e53d
00000380: 1982 ad3d 0363 9e3d 6baf 853e ba4d 133d
00000390: 407b 20be a049 b03d ac6f 1d3c ac80 8e3d
000003a0: d519 383d 17f6 0c3e c971 163e 5c7f 183e
000003b0: 79b1 383d 3115 753d 5684 483b 7b11 db3c
000003c0: d47a 033c 8fca f13d f80f 8bbc 91a4 85bc
000003d0: a25d 363c 8f4c 1e3e a928 7f3d c846 893d
000003e0: c05e 113e 8f54 2f3e 914b 393e 659b 033d
000003f0: 4854 1e3c 5e24 823d 82d9 493e 504f 93bd

model.3.bias f4 [32]
0.61164486 0.41743302 0.002786319 0.33290404 0.09028458 -0.017514536 -0.0051017283 -0.10479669
0.027010294 0.073703855 0.2880865 0.54317933 0.20603374 0.24506912 0.2824474 0.40361542
0.25196412 0.271815 0.24978143 -0.0014543281 -0.25624272 -0.08783612 0.431456 -0.012819124
0.33293116 0.4489388 0.39761776 -0.20087507 -0.04991749 0.33463556 0.053837452 -0.19314943
00000000: c294 1c3f c8b9 d53e ad9a 363b 6672 aa3e
00000010: 1fe7 b83d a57a 8fbc 662c a7bb a69f d6bd
00000020: b144 dd3c 0cf2 963d 1380 933e cd0d 0b3f
00000030: 82fa 523e 66f3 7a3e f29c 903e aea6 ce3e
00000040: 7101 813e 562b 8b3e b4c6 7f3e 279f beba
00000050: 3f32 83be 6ce3 b3bd cde7 dc3e 4e07 52bc
00000060: f475 aa3e 4edb e53e 8e94 cb3e 32b2 4dbe
00000070: 4876 4cbd 5a55 ab3e a984 5c3d f7c8 45be

model.6.weight f4 [1, 32]
0.18249704 0.19770056 -0.30817062 0.26463065 -0.056909226 -0.13706629 -0.058877382 -0.14091645
-0.093933865 -0.12870948 0.20026979 0.16116142 0.25035325 0.22506349 0.26721698 0.187941
0.20065852 0.2544777 0.24368724 -0.2185413 -0.26318747 -0.14781117 0.14858161 -0.048191268
0.28365752 0.17627506 0.17883033 -0.31255895 -0.111246645 0.16999699 -0.06355897 -0.14558738
00000000: 81e0 3a3e 0472 4a3e 8ac8 9dbe ab7d 873e
00000010: a619 69bd 1b5b 0cbe 6929 71bd 674c 10be
00000020: 6660 c0bd 6bcc 03be 8613 4d3e 8007 253e
00000030: 4d2e 803e 0b77 663e aad0 883e 9b73 403e
00000040: 6d79 4d3e e74a 823e 2689 793e 4ac9 5fbe
00000050: 82c0 86be d05b 17be c725 183e 3564 45bd
00000060: 8f3b 913e 7381 343e 4c1f 373e ba07 a0be
00000070: 48d5 e3bd b113 2e3e 352b 82bd dc14 15be
